weights/DARNN_L3_HDE16_HDD16_BS32_E50_s2.pth (torch, 44210 bytes, 22 tensors)

encoder.lstm.weight_ih_l0 f4 [64, 81]
00000000: f20c 733c f156 523e 5692 4c3e 164a f53c
00000010: ceb6 97bb f612 eb3d 85c5 23be caf5 1dbe
00000020: c6a2 513c dbb3 aabd 9403 9f3e e32d b03d
00000030: 8b5a 8e3d b5d0 373e 3d7d 443e f172 803e
00000040: d458 d53d f218 0abd e1d6 c9bd 8257 993e
00000050: 9d29 50be 7854 b43d e628 f4bc 1fbf 693e
00000060: 7158 d9bd ceac 0f3d a8bf 193d db6c 0fbe
00000070: 9b12 95bd e4ce debd d01f 76be 172b 09be
00000080: 8e65 43bd c995 cf3e 39ba d8bc 1178 3dbe
00000090: c1eb 0c3e 0993 793e 5001 213e 2a5c c4bd
000000a0: b825 763d 006d fabd 9dce 593e d7a8 473e
000000b0: 1db6 b8bc 3c0c 983d fdd9 d13d 0bdf 8e3d
000000c0: bc8e 953e 5446 0d3c 2a68 913e 9474 793e
000000d0: 589a 803e ebb6 6e3e 1d38 d3bd 8fa3 9f3c
000000e0: 0ff3 5dbd fe6b 433d 765e 093d 9a9c c53e
000000f0: b8ba 703e c543 78be 4cfa ca3d 0856 7a3e
00000100: 6d91 5f3e bb73 353c bcf9 4e3e 22be 69be
00000110: acb6 093d bbe7 c03d 082d 69be 2745 c03e
00000120: 3905 143b f8c5 b4bb 9250 81bd cad7 8f3c
00000130: 2329 21bd 533e 31be 030a 8bbe 23cb 28be
00000140: ce56 c73e 626f 5a3d 7705 a03c eeda e43e
00000150: 5654 a13e 45e5 9dbd c2e9 883e f8b5 523e
00000160: 49b0 d8bd 53f7 0a3e f34b 493e a5e7 4d3e
00000170: 38f9 ec3e 7437 ba3e 20d5 8e3e 305b fe3e
00000180: 6def cd3c 4c70 b73b 9392 23be 97ee 173e
00000190: 731c 273d b81a 6c3c a8c7 80bc cc5a 393e
000001a0: 438b 013f e4d7 373d b5de dc3e 9349 f03e
000001b0: e3d6 82be 3b3d d63e 016b e33e 67ef 20be
000001c0: a15f 013d bfd2 133a 3a10 233e f7f2 00be
000001d0: bab0 e4bd 051f af3e f4a9 a73e caa1 043f
000001e0: c41a e83e bfe6 d63e 2aa3 0c3e 194b 0a3f
000001f0: c9e2 fc3e 59f3 81be f380 503c a478 db3e
00000200: 1849 b8bd feba e53d a860 c83d 0989 293e
00000210: 83d2 dfbc 0570 37be b3a4 933e bf07 bc3e
00000220: 700a 8d3e 5021 413c a1f7 b73e 61d3 e53c
00000230: 9117 ac3d 0199 563e 7f60 833d 6f8d c63e
00000240: 88f6 55bc 67b4 513e 64d1 ef3c 41ec 013f
00000250: 4f10 043f a6ad 45bd 213a f93d 727f 06be
00000260: 8414 b8bd b437 ae3e ff9e 50be df71 0cbe
00000270: 0fad 3bbe 73a4 353e 6de5 eb3e d587 103d
00000280: 9dfb d5bc 793d 0b3f 08a5 753d 5bca fa3d
00000290: b02d 683e 8ab9 913e 9ac9 29be 6f3f fb3d
000002a0: a656 4dbe 10da 03be 4869 afbd 78dc 4a3e
000002b0: 8966 093f 9d19 a33d 5260 b03c 9c3d 923c
000002c0: b3c7 643d 5fc6 7c3e 65c2 333e 8728 863e
000002d0: 8e9f 0fbe 4a8f 573d 8db0 053e 3ebb 863e
000002e0: 0632 0dbe 96dc 1dbc 2bae 29be 66ca 1d3e
000002f0: e111 aa3e c810 c43d fb18 813e 42cf 10be
00000300: e74b 293e 492f 363e f946 f5bd 842b 483e
00000310: c982 703d 0da1 38be 2906 053e 0f29 1f3f
00000320: 88a1 2c3e 827d cdbb bfb1 e73d 2864 30bc
00000330: 6301 303e 1093 af3e 1556 e03d 74a3 11be
00000340: 0c6e 4d3d e168 f73a 0eda 3e3e db15 7e3c
00000350: 1507 4b3e c90b 55bd 939e dfbd b00b 703e
00000360: 28ee c53d fa98 4c3d 6800 1c3e 24ad 2d3e
00000370: 21c3 043e d2fb 9b3d aa30 dc3e a1ea d43d
00000380: f7b6 eb3d 14d3 9cbd 2e33 aebd 4734 ad3e
00000390: ea5e b23e 97e3 33bd f2b5 503e fab4 923c
000003a0: 64ca 4e3d f376 0c3e 4173 083e 02eb 0ebe
000003b0: 8e8c 08be ef2e e4bd 7422 eabd a403 a63c
000003c0: e993 97be b22b 4f3e e684 a43d 1751 5abe
000003d0: 15ac 013f 4aa5 743e 9a5d 493e bee5 883d
000003e0: eec2 4abb 1d86 72be c77b 1dbe aee1 173c
000003f0: b27b 523e 3540 a53d e1d7 e0bd 1388 983e
0.014834629 0.20540978 0.19977698 0.029942553 -0.0046299463 0.11478226 -0.15993316 -0.15425792
0.012795156 -0.08335086 0.31057417 0.08602502 0.069508635 0.17950709 0.191884 0.25087693
0.10417333 -0.033715196 -0.09855438 0.29949576 -0.20328374 0.08805174 -0.029804658 0.22826813
-0.10612572 0.03507691 0.037536293 -0.14006369 -0.07278939 -0.10879305 -0.24035573 -0.13395344
-0.047704272 0.40543965 -0.026455985 -0.18502833 0.13761808 0.24372496 0.15723157 -0.095878914
0.060094565 -0.12227821 0.21270223 0.19498001 -0.022547776 0.074242085 0.10246656 0.06976136
0.2921046 0.008622725 0.28399783 0.24360877 0.25117755 0.23311965 -0.10313437 0.01948717
-0.054186877 0.04771041 0.03353735 0.3859604 0.23508728 -0.24244602 0.099110216 0.24446881
0.2183282 0.011074956 0.20212454 -0.22826436 0.033621475 0.09419199 -0.22771084 0.3755276
0.002258612 -0.005516764 -0.06314196 0.01755895 -0.03934587 -0.17308931 -0.27156076 -0.1648374
0.38933414 0.05332888 0.019533856 0.4469828 0.31509656 -0.07709745 0.26740843 0.20577228
-0.10580499 0.13570909 0.19657879 0.20107897 0.4628389 0.36370432 0.27896976 0.49678946
0.025138581 0.0055981036 -0.15973882 0.14837109 0.040798616 0.014410667 -0.015720204 0.18101043
0.5060312 0.044883624 0.43138662 0.46931133 -0.2555457 0.4184359 0.44417575 -0.15716325
0.03158534 0.00056390086 0.15924159 -0.12592684 -0.111665204 0.34203354 0.3274685 0.5180937
0.4533292 0.4197292 0.13734117 0.5402084 0.49391773 -0.25380972 0.012726056 0.4286548
-0.089983165 0.112173066 0.09784061 0.16556181 -0.02732206 -0.17913826 0.28836593 0.3672466
0.27547026 0.0117877275 0.35931113 0.028054895 0.084029324 0.20956804 0.064148895 0.3877978
-0.013059266 0.20478974 0.02927465 0.5075112 0.51587385 -0.048261307 0.1216929 -0.13134554
-0.08988288 0.34026873 -0.20373152 -0.13715313 -0.18327735 0.17738514 0.46073475 0.03528579
-0.026120955 0.54390675 0.05997184 0.122456275 0.22673678 0.28461868 -0.16580811 0.122679584
-0.20052585 -0.12876153 -0.08565003 0.19810665 0.5367208 0.0796387 0.021530304 0.017851643
0.05585451 0.24685048 0.17554624 0.26202795 -0.14025709 0.052626885 0.1305563 0.2631473
-0.13788614 -0.009635111 -0.16570346 0.1540924 0.33216766 0.09573513 0.2521437 -0.14141563
0.1653286 0.17791475 -0.119764276 0.1954785 0.058718476 -0.18030186 0.12990631 0.62172025
0.16858494 -0.006271065 0.11313199 -0.010766067 0.17188029 0.34291887 0.10953919 -0.14222509
0.050153777 0.0018875861 0.18637869 0.01550814 0.1982692 -0.052013192 -0.109189175 0.23441958
0.09664565 0.049950577 0.1523453 0.16960579 0.12965061 0.0761639 0.43005878 0.103963144
0.11509507 -0.076574475 -0.085058555 0.33828947 0.3483804 -0.04391822 0.20381907 0.017908562
0.050485983 0.1371725 0.13325216 -0.13956836 -0.13334867 -0.111417644 -0.11432353 0.020265408
-0.29605034 0.20231512 0.08033161 -0.21319996 0.506532 0.23891178 0.19664612 0.06684445
-0.003093894 -0.23683973 -0.15379249 0.009270115 0.20554999 0.08068887 -0.10978676 0.29791316

encoder.lstm.weight_hh_l0 f4 [64, 16]
00000000: b4b5 8a3d b0e6 39be ded8 2abe 425c 373d
00000010: b58c 47be 49f2 89be f858 c23c dd07 4a3d
00000020: 4022 67bd dfd8 49be 0faa 81bd 0bdb 383e
00000030: b281 623e 89ab 29be a3dc cebd 1b01 69be
00000040: 6bea 983d 704e 293d 4c84 423c 301d 81be
00000050: 40ef ab3d 97df f2be 87ad 6ebe eb8e 0abe
00000060: 921f b7bd b702 d83b eb9a 923e d876 a13e
00000070: aa41 3d3e b339 80bc db83 0b3d 541e 463e
00000080: 3088 583e 5310 0dbe 25ba 643e a142 573d
00000090: 83af babd 3c69 81be cff3 d9bd c458 7dbc
000000a0: 9ea3 b53e 7c44 b2bd 1135 69be f311 fa3d
000000b0: 91f4 30be 062b 7dbe 183f 033e 1037 913d
000000c0: 9579 223e 8095 0c3e 743a 76be 3c47 46bd
000000d0: f31f d03d 0dcf 483d 6ed9 93be 0cb8 543e
000000e0: 8529 633e 7fd7 99bc 354f a9bd 01fb abbd
000000f0: 4111 023d 58e4 70be 651b cfbd 72ee 8dbd
00000100: 20d3 88be 21c5 213d 9776 47be e88a c5be
00000110: c425 673e cb7b 17be c58c 20bd e301 113e
00000120: 2d70 e83d c787 593e cc2b 0b3f ff7a 973e
00000130: 8130 f83e 8246 97be a750 e9be ba75 6d3e
00000140: b8a9 0bbe af07 a1be 9779 67bb a784 18bd
00000150: 209e 51be 5683 853e f46b ed3d 2d35 c43c
00000160: 4722 fe3d 70ff 54be aff8 2a3e a080 863d
00000170: c69e 20be 97fc f83d 5f99 583e 87e4 dd3d
00000180: 8c4f 25bd 9d13 a4bd 712e 403e 6fa2 533e
00000190: 0c05 af3d bd5b 63be 32fd 0dbe 9dc3 943e
000001a0: b16d a93e 58e8 803e 75dd 6e3d 81ed d73d
000001b0: dfed 51be bd35 27be 330d 56be 4eb2 bd3d
000001c0: c254 92be 04c5 503e 8560 5ebe 6d4b 65be
000001d0: 6bef a8bd 69a3 78be 3ff6 06be 0f3b 713e
000001e0: 745c 793e a5ed 503e 8fe6 833c da5a 983d
000001f0: 0cb7 3dbd c008 fabd 4fe1 87be 3f07 13be
00000200: 3bcf 59be dc16 023f 5198 21bf 77aa e6be
00000210: 1a11 6f3f 9969 d0be 56d9 f8be d2a1 cf3e
00000220: df8b 85bc 349f 6e3f e6cf 1c3f 0e23 a53e
00000230: 56fa 063f 9f0d 36be 1be7 2cbf e0ef e93e
00000240: 8418 0cbf 9efb be3d b3ed f2be cd3a cdbe
00000250: 4558 563c 7e4d a4be 2f9e 9abe 56e0 383e
00000260: 49bb eebd 0406 c83e 0a09 dd3e 3db5 3b3f
00000270: 1ef3 b93e 7f5f c0be d0cc 37be 6ab0 ea3d
00000280: 07df 28be a753 cebd 8da6 603e 8f51 7dbe
00000290: afc5 24be 38c2 703d 76f2 303e de1b ddbd
000002a0: 4527 a13e 1e7b 85be 9371 633c 62ba 85bd
000002b0: 2910 fabc b161 7c3d e53c 0a3d 2d48 673e
000002c0: fd82 1a3e 0f05 0d3f ae8c a9be a616 bb3d
000002d0: 5ac3 103f 39e6 7cbc fdb8 7e3d 9998 d1bd
000002e0: e70a ab3e 340f d93e 7830 cbbd c4bb 2abe
000002f0: cd70 6b3e f23c 0b3e 3214 87be 244f 833b
00000300: 4f83 f4bc 895c a5bd 6458 11be 69e9 3cbe
00000310: da34 b63c 7c43 d03b 63ad 283d b0ae 813d
00000320: f39f 94bd ee2f 6c3d af52 89bb 3bb6 71bc
00000330: 0aa2 d23d 020f 123e cd63 b2bd 33ec 33be
00000340: 3528 06be a5d4 1c3e 9fa8 43be 6d24 793d
00000350: b398 c03b 52b0 89bd 8826 423e d30e da3c
00000360: b2c9 a73e 957b 433e ac5f 043e 0eb1 3c3d
00000370: dd0c 033e 4098 e03d c569 093e d57d 5c3e
00000380: aeea bf3d 9e39 963d 63c2 cabe 1b37 3ebd
00000390: 1061 5c3d e3d4 573c 4cd7 02be 7000 973c
000003a0: 9644 773e dcfa db3d 537e c53d 926a 813e
000003b0: bc21 8b3e 002b 8cbe 6af5 85be c352 93bd
000003c0: 441e aebd 0c4b 3b3e dd34 40be 0cae 3cbe
000003d0: be00 d6bc 9311 69be 1117 99be 3924 f2bd
000003e0: 6350 cdbd 5827 09be f98b 733e c1c2 d23e
000003f0: f815 97bc fa52 82be aec5 88bd dcf1 0f3e
0.06772938 -0.18154407 -0.16684291 0.04476572 -0.19487269 -0.2694266 0.023724064 0.049323905
-0.056429148 -0.19711636 -0.06331264 0.18052308 0.22119787 -0.16569342 -0.10100677 -0.22754328
0.07466587 0.04133457 0.011872362 -0.2521758 0.08395243 -0.4743621 -0.23308383 -0.13531081
-0.089415684 0.0065921205 0.28633818 0.31535983 0.1848208 -0.015652513 0.034061294 0.19347507
0.21145701 -0.13775758 0.22336634 0.052553777 -0.091155075 -0.252756 -0.10642206 -0.015463058
0.35476393 -0.087044686 -0.2277415 0.12210455 -0.17280795 -0.24723443 0.12817037 0.070905805
0.15866692 0.13728905 -0.24045736 -0.04840778 0.10162344 0.049025584 -0.28876823 0.20773333
0.22183807 -0.018779514 -0.08267061 -0.083974846 0.031754736 -0.23524606 -0.10112647 -0.069302455
-0.26723576 0.039494637 -0.19478832 -0.3858254 0.22573 -0.14793317 -0.03919675 0.14160876
0.11349521 0.21243201 0.54363704 0.29586026 0.48474506 -0.2954598 -0.45569345 0.2318944
-0.13638961 -0.31451175 -0.0035320276 -0.037235882 -0.20470476 0.26076764 0.11592856 0.023951137
0.12408882 -0.20800567 0.16696428 0.06567502 -0.15685567 0.12157553 0.21152256 0.10834604
-0.040359065 -0.080115534 0.18767716 0.20667432 0.085458845 -0.22202964 -0.13866118 0.2905549
0.330915 0.25177264 0.058316667 0.10543347 -0.20500897 -0.16329093 -0.20903473 0.092625245
-0.2858029 0.20387655 -0.21716507 -0.22392054 -0.0824879 -0.24281086 -0.13179873 0.23557685
0.24351674 0.20403154 0.01610115 0.074392036 -0.046317145 -0.122087 -0.26539084 -0.14358233
-0.21270458 0.5081613 -0.6312304 -0.4505193 0.9338547 -0.40705565 -0.48603314 0.40553147
-0.016302047 0.93211675 0.6125473 0.32253307 0.5272573 -0.17778634 -0.6754014 0.45690823
-0.5472491 0.09325336 -0.47446975 -0.40083924 0.0130825685 -0.32090372 -0.3019881 0.18054327
-0.116568156 0.3906709 0.4317096 0.7332342 0.36318296 -0.37572858 -0.17949224 0.114594296
-0.16491328 -0.10074549 0.21938534 -0.24738143 -0.16091035 0.05877897 0.17279992 -0.10796331
0.31475273 -0.26070493 0.013882059 -0.0652969 -0.030525284 0.061616603 0.03374948 0.22586127
0.1508903 0.55085844 -0.33115143 0.09135179 0.5654808 -0.015435749 0.062188137 -0.10234184
0.33406755 0.42394412 -0.09921354 -0.1667319 0.22992249 0.13597468 -0.26382595 0.004007237
-0.029847769 -0.0807429 -0.14193875 -0.18448414 0.022241998 0.006355701 0.04118098 0.06332147
-0.072570704 0.057662897 -0.004190765 -0.01475292 0.10284813 0.14263538 -0.08710442 -0.17570572
-0.13101275 0.15315492 -0.19107293 0.060825754 0.005877578 -0.067230836 0.18960011 0.026618397
0.3277107 0.19090112 0.12927121 0.04606729 0.12797876 0.109665394 0.13419254 0.21532376
0.093709335 0.07335208 -0.3960143 -0.04643927 0.053803504 0.013173315 -0.12777442 0.018432826
0.24147257 0.10741207 0.09643235 0.2527662 0.27174175 -0.27376556 -0.261638 -0.0719352
-0.085018665 0.18290347 -0.18770166 -0.18425769 -0.0261234 -0.2276061 -0.2990041 -0.11823315
-0.10025098 -0.13393915 0.23783864 0.4116421 -0.018443093 -0.2545393 -0.066783294 0.14057106

encoder.lstm.bias_ih_l0 f4 [64]
00000000: f8a3 113d 1bc9 143e c47f 92be 3fb4 073e
00000010: 8a46 ccbc a8d6 04be fcb3 1cbe 17c7 2bbe
00000020: 426b b13d 1806 d13e e082 5abe b17d bbbc
00000030: 735f 6b3d 667d 99be 720d 6dbe 108b 9d3d
00000040: 736f 7fbe dd35 1bbe 9746 a1bd 555e be3c
00000050: 5250 32be 0b44 fabd 9df1 92be 2268 933d
00000060: f2a5 a13e 5610 fcbc 8c7c 163e e620 623e
00000070: 3fa0 80be 2390 b83c 8940 fd3d 6c6e eabd
00000080: 3973 0dbe 4370 1abe e7cf 923d caba d0bc
00000090: 76c0 b13d de37 033e 31b5 22be 9856 40bd
000000a0: bc47 1abd 1236 e43d ef92 88bb 3553 f13d
000000b0: a62e 743c d3e2 e33c ee98 10be 6630 18be
000000c0: ed97 66bd 954f 033e 163c 85be fa60 423e
000000d0: 9993 d33d 3efe 783d 32ed 27be 13ba 8a3c
000000e0: f987 6f3e 4c8f 243f 070c fdbd 18f8 5e3e
000000f0: c92d 53bc 3e01 00be c71f 3b3e 3d10 6cbc
0.035556763 0.1452984 -0.28613102 0.13252352 -0.02493598 -0.1297251 -0.15303034 -0.16775165
0.08663036 0.40824962 -0.21338987 -0.022887083 0.057464074 -0.29978484 -0.2314966 0.0769254
-0.24944858 -0.15157266 -0.07874792 0.02323834 -0.17413452 -0.122200094 -0.2869996 0.07197596
0.3157192 -0.030769508 0.14695948 0.22082862 -0.25122258 0.022529667 0.12365825 -0.114468426
-0.13813485 -0.15081887 0.071685605 -0.025479693 0.08679287 0.1281428 -0.15889432 -0.046957582
-0.037666067 0.111431256 -0.0041679065 0.117834486 0.0149037 0.02781812 -0.14120838 -0.14862213
-0.05629723 0.12823327 -0.26022404 0.18982306 0.103308864 0.06078934 -0.16399077 0.01693443
0.23391713 0.64281154 -0.1235581 0.21774328 -0.012889334 -0.12500474 0.18273841 -0.014408168

encoder.lstm.bias_hh_l0 f4 [64]
00000000: 9c1f 983c 42d4 803e 258a 203e 47db 88be
00000010: d0e3 a23e 1ca3 3abe bf9c 543e fb05 753d
00000020: 6ed6 c33d 57a2 9b3e e30a 1c3d df86 cd3d
00000030: 40b5 45be 3326 793c cc2e d8bd dad0 3f3e
00000040: 8c63 90bd bb74 debe 1b09 9fbc ee80 c8bd
00000050: 126e d7bd bd3a 0dbe 24fc 003e 4923 78be
00000060: 3838 ce3e 99f0 9bbe 78f1 ea3d 0129 39be
00000070: 93d2 74bb 1ebd 2abe 7fa5 b5be 0081 c43d
00000080: 3b9f 213e 7615 a23d c47d 91bd 1d55 4abd
00000090: 7a12 18be b5c4 4cbe 34bc 083e ef5a 293c
000000a0: aaaf dcbd a7e7 57be 5289 d0bb 860b b63d
000000b0: 94c0 4fbc 352d 5dbd 9c6b 333e 2cc8 f23d
000000c0: c76b 0ebe 4208 613e 5b64 08bd 78cb d93c
000000d0: 4e0e 983e 2a48 123e efc6 983d 91a9 41be
000000e0: ab9f ce3e fb2d 223f f39f 4e3e 0911 d0bd
000000f0: b812 7f3d d0ee f13c fdbd fe3d 69f9 ffbc
0.01856976 0.2516194 0.15677698 -0.26729795 0.31814432 -0.18226284 0.20762919 0.059820157
0.095623836 0.30397293 0.03809632 0.1003549 -0.19307423 0.015206861 -0.10555801 0.18732014
-0.07050237 -0.43448433 -0.019413522 -0.097902164 -0.10519041 -0.13791938 0.12596184 -0.2423221
0.40277267 -0.30457 0.11471838 -0.18082048 -0.0037356957 -0.16673705 -0.35477826 0.09594917
0.15783398 0.079142496 -0.07104066 -0.049397577 -0.14850798 -0.19996913 0.13353044 0.010336622
-0.10775693 -0.21084462 -0.006364026 0.08888917 -0.012680192 -0.05399819 0.17521518 0.11854586
-0.13908301 0.21975806 -0.03329883 0.02658628 0.29698414 0.14285341 0.074598186 -0.1891234
0.40356192 0.6335141 0.20178203 -0.10159499 0.06227371 0.02953282 0.12438581 -0.031246858

encoder.U_e.weight f4 [3, 3]
00000000: cf55 e7be 7292 fabe 7a3d 21be e359 28bc
00000010: a5b2 94be 2b84 983e e35d 07bf d859 0dbf
00000020: 6bdc 993e
-0.45182654 -0.48939854 -0.15746108 -0.010275337 -0.29042545 0.29788336 -0.52877635 -0.55215216
0.30050978

encoder.U_e.bias f4 [3]
00000000: d704 b93e f075 b53e 5e85 7f3d
0.36136505 0.35441542 0.06238305

encoder.W_e.weight f4 [3, 32]
00000000: 62d6 f7be b91a fd3d 2de0 e2bd b3f3 adbe
00000010: 21bd 0c3e 24ab 9abe 40ef cdbe f1ce a53e
00000020: f0fc a6be 7bcd 07be e430 0a3e 13ac ae3e
00000030: b124 793e 31e4 a9be cd7b 46be f65f 923e
00000040: d5b9 6cbe bb2e bf3d fa85 2fbe 4d13 a3be
00000050: aeb6 d6bb 68e3 8bbe 7dab 91be 7546 e13d
00000060: d427 00bf 08fe 0d3e 0c30 a73d a435 d53e
00000070: e3dd a83e 13e1 66be 2e0d 90be c1dc 4a3e
00000080: b2da 64be e43c 343c 6604 27be d76d af3b
00000090: dfbc 5c3e 7b6f 4dbe a396 9fbe 88ab 123e
000000a0: a77b 363e 52c1 923e b41f 7f3e c62b 3d3e
000000b0: 978d 403e 8534 41be 8151 85be c7b8 173e
000000c0: 6f87 18bd e034 253e b26c aebd a90c 19be
000000d0: bdfb 823e de2d 8abe 9061 dbbd 9da4 623e
000000e0: 037a b03e ca25 a53e 3e6c 1f3e 345f 713e
000000f0: 43f3 5f3e ca55 87be 17b6 95be e6ec a03e
00000100: c408 b7be c72d a93e 1d66 bebe d480 02bf
00000110: f088 6e3e 1301 07bf 74d9 d0be 2402 ce3e
00000120: b329 bcbe 767c 843e fba5 653e fe70 883e
00000130: 4ea3 913e 20b5 13bf b7c9 10bf 4919 a73e
00000140: 2861 02bf c445 cb3e 368e f5be d818 09bf
00000150: 3455 f13d 4a24 9fbe 7eaf 09bf 2907 df3e
00000160: 350c e7be 8287 3b3d 4b11 943e 8883 123f
00000170: 234f d13e 4e65 afbe 5916 85be e275 c43e
-0.4840575 0.123586126 -0.110779144 -0.3397499 0.13744022 -0.30208695 -0.40221596 0.32384446
-0.3261485 -0.13261978 0.13495213 0.34115657 0.24330403 -0.3318191 -0.19383164 0.28588837
-0.23117764 0.09335085 -0.17140952 -0.31850663 -0.006552539 -0.27321935 -0.28451148 0.10999767
-0.5006077 0.13866436 0.08163461 0.41642487 0.32981786 -0.22546797 -0.28135055 0.19810773
-0.2234905 0.011000846 -0.16310272 0.00535367 0.21556424 -0.20062058 -0.31169614 0.14323246
0.17820607 0.28663117 0.24914438 0.1847373 0.18804012 -0.18867691 -0.26038745 0.1481658
-0.037238535 0.16133451 -0.08516826 -0.14946236 0.25582686 -0.2698812 -0.10711968 0.22133107
0.34468088 0.32255393 0.15568635 0.23571473 0.2187014 -0.2643264 -0.29240486 0.3143074
-0.35748875 0.33042738 -0.3718728 -0.50977826 0.23294425 -0.52736014 -0.40790904 0.40236008
-0.36750564 0.25876206 0.22426598 0.26648706 0.28444904 -0.5769825 -0.5655779 0.3263648
-0.509295 0.39701664 -0.4796006 -0.53553534 0.11783829 -0.31082374 -0.53783405 0.4356015
-0.451265 0.045783527 0.28919443 0.5723195 0.4088069 -0.34256977 -0.25993612 0.38371187

encoder.W_e.bias f4 [3]
00000000: c70f 443f 061c f33d 4d9a 0a3f
0.76586574 0.118705794 0.54141694

encoder.v_e.weight f4 [1, 3]
00000000: f7a7 1fbf b843 5f3e 45d9 0cbe
-0.6236567 0.21803176 -0.13754757

decoder.W_d.weight f4 [16, 32]
00000000: 3c96 173e 0959 7b3c 0ffa 03be e20b 3abb
00000010: c0d7 323c ef9e 9ebd 4ed5 97bb cab4 f83d
00000020: 5f6d e33d eddb 75bd fb65 1abe 1ec2 793d
00000030: fbf6 28be f881 4bbd 640d 07bd 996f 96bd
00000040: 8bbc bbbc b2c1 003d 8c7f 153e a2bc 543d
00000050: 475c 523d 3821 e8bd bcd2 b6bd 5c6f b9bd
00000060: b408 eebd 894b c03c b902 f3bc f907 533d
00000070: 6a7e 17be eb42 30be 1329 e0bc 3d6a 25bd
00000080: fa98 dbbd cfd4 a83d d519 cc3d a77f f9bd
00000090: 884a 9cbc 688d 1a3d 79ca 253d 481c d7bd
000000a0: 14cc 9e3d 112c cf3d 1352 513d 9579 b03b
000000b0: 088d 98bd 853f 013e e447 6abd 9043 9e3d
000000c0: 102b de3d 30a1 3fbd fe27 26be 6129 0f3e
000000d0: aa2c bc3c ed58 223e b750 21be b486 afbd
000000e0: 8102 02be f1e3 323e d981 34be a300 963d
000000f0: 2f4a 733d 0478 66bd d561 bc3d 2d51 10be
00000100: 487d b73d b56e f43b ad48 033d 62d1 bfbb
00000110: be09 07bc c2e6 1cbc 8fa9 283e 7bcb cabd
00000120: 4654 f73d a867 2fbe ab76 2abe 466b 30be
00000130: 640c a1bd 7eed 1c3e 0eff 0d3d 3758 863c
00000140: eae6 f4bb 7d87 91bd 938f 1a3c 92fc 7cbd
00000150: 6d77 bbbd 3fe3 b7bd 9fc5 de3c 0cd2 bf3d
00000160: 38bd 99bd 16c3 bdbd ea48 4f3c e2fa 193d
00000170: 2e23 28bc a820 ff3d db2f 543c c9a9 613d
00000180: 9372 dfbd 6e8b f9bc 1234 ff3b 91eb 29be
00000190: a051 cabd 4abd 30bc 7e21 d4bc b06a 18be
000001a0: d34a 14be fb98 9dbd 1740 013c 6979 5d3c
000001b0: c973 ff3d 0cb3 943d 1397 c03d 63e6 4e3d
000001c0: cad9 a4bd fbcf 86bd 754f 2fbe 38c7 11bd
000001d0: e116 2e3e 4ea0 00be e5ca e1bd a24d 0d3e
000001e0: abfa 8d3d 2bbe e13d 9172 043d 3ce8 71bc
000001f0: 6773 a63d 7acf 163e 2df8 fc3d 1ff9 033c
00000200: de82 333e a5a6 26be f93c 143e 4f2b ddbd
00000210: 3161 ff3d ca55 133e edac c7bb 606e 3d3d
00000220: 771a 58bd a275 11bd 1bcd 09be f131 d23c
00000230: d694 973d f449 0cbb 677f ccbd 1ddc 04be
00000240: 9975 963d d893 54bd 7128 b03b 2c9c a83d
00000250: be0f b3bd 4674 183d 19ae 10be 8d59 043c
00000260: 9bdb 883d 0802 96bd 1da6 8dbc 67c6 c73d
00000270: f9ea b4bd a4a9 18be c072 c4bd e3f3 f2bd
00000280: 67f6 2abe f128 103d 8cd5 8d3d 838b d8bd
00000290: 6dfa 2ebe 9bc6 c4bd 2f44 bf3d e882 8c3d
000002a0: d406 5f3d ad46 07be 6a62 0b3e 21e4 c8bd
000002b0: 4389 21bd 2c96 ccbd 17e0 06bd ecdc babc
000002c0: a88a 293d d283 f63d d9eb da3d 82d4 a43d
000002d0: 4f08 0c3e 8425 533d e8af 2d3e 8d7b e2bd
000002e0: 38c1 ac3d 9420 263e d8f4 1a3d fb9e 30be
000002f0: 1bd8 273e ebb6 87bd 9208 fbbd 04c7 34be
00000300: a8f9 2e3e 76b1 193e fdc9 0ebe ecdd f0bc
00000310: 927d 8cbd 572c 05be d7e1 d1bd f4d5 1fbe
00000320: 51dc 2b3d 71fe e0bc 4508 233d bb06 fcbd
00000330: 9a4f 773d 69bb 1d3e c8f4 00bd b35c 4ebd
00000340: f6bb 1dbe 25ed 463d 7c3e b4bd c58d debd
00000350: 7d46 1fbe 2603 f83d 368e 4fbd 0dd7 183e
00000360: 9531 f5bd ab79 f23d f278 11be 4997 bc3d
00000370: fe69 04bc 6f69 afbc 6c22 1dbe 52d1 903d
00000380: 0bc6 333d 11cf cb3c 9f2b dfbc 7f26 b03d
00000390: 9e0f 32bd 7e1e ec3b 4a0c 97bd f16d 1f3e
000003a0: 8128 89bd c9f8 de3d 69a8 133e 0614 9b3d
000003b0: ffa6 ffbd b20d 343e 3bd1 47bd 7c47 c83d
000003c0: 1738 2fbd 78bd 053e b05c e7bd dd55 213e
000003d0: c2fa b1bd 76e4 0bbe f43a 1cbd cd87 2dbe
000003e0: d687 a3bd e913 f0bd d398 f83d 4152 b3bc
000003f0: f307 0cbd eeaf d43d 5b0e 3fbd c665 36bd
0.14803404 0.015341052 -0.12888359 -0.002838843 0.010915697 -0.07745158 -0.004633582 0.12143858
0.11104845 -0.06002419 -0.15077965 0.06097614 -0.16500466 -0.049684495 -0.032971755 -0.07345504
-0.022917053 0.031434722 0.14599437 0.051937707 0.051357534 -0.11334461 -0.08926913 -0.09054443
-0.11622754 0.023473518 -0.029664384 0.051521275 -0.14794317 -0.17213027 -0.027363336 -0.04038452
-0.10722537 0.08243715 0.099658646 -0.12182551 -0.019078508 0.03773251 0.040476296 -0.10503441
0.077537686 0.10115827 0.051103663 0.0053855875 -0.074487746 0.12621887 -0.057197466 0.0772773
0.10848057 -0.04678458 -0.16226193 0.13980629 0.022970516 0.15854235 -0.15753447 -0.085706145
-0.12696268 0.17469765 -0.17627658 0.0732434 0.05939692 -0.0562668 0.091983475 -0.14093466
0.089594424 0.0074594864 0.03205173 -0.005853818 -0.008242069 -0.009576501 0.16470931 -0.09902092
0.12076621 -0.17129385 -0.1664683 -0.17228422 -0.078636914 0.15324971 0.034667067 0.016399486
-0.007473816 -0.071059205 0.009433645 -0.061764307 -0.09153638 -0.08978891 0.027193842 0.09366235
-0.07506794 -0.09265725 0.012651661 0.037592776 -0.010262294 0.124574006 0.012950863 0.05509356
-0.10910525 -0.030461993 0.0077881897 -0.16593768 -0.0987885 -0.0107873175 -0.025894877 -0.14884448
-0.14481668 -0.07695194 0.007888815 0.013517716 0.12473256 0.07260713 0.09403815 0.050512683
-0.080493525 -0.06582638 -0.17120154 -0.03559038 0.17000915 -0.12561151 -0.11025027 0.13799146
0.06932577 0.110226 0.03233582 -0.014764842 0.0812748 0.14727584 0.12352023 0.008055001
0.1753039 -0.16274507 0.14476384 -0.10799276 0.1246971 0.14388195 -0.0060936124 0.04624784
-0.052759614 -0.035512574 -0.13457148 0.02565858 0.07401435 -0.0021406384 -0.099852376 -0.12974592
0.07346649 -0.051898807 0.0053759147 0.082329124 -0.08743237 0.037220262 -0.14128913 0.008077991
0.066825114 -0.07324606 -0.017291123 0.09754639 -0.0883388 -0.14908463 -0.09592199 -0.11862924
-0.16695558 0.035195295 0.069254965 -0.10573485 -0.17087717 -0.096081935 0.09339177 0.06860906
0.05444987 -0.13210554 0.1361176 -0.09809137 -0.039437544 -0.099895805 -0.032928552 -0.022810422
0.041392 0.120368615 0.106895156 0.08048345 0.13675044 0.05154945 0.16961634 -0.11058722
0.08435291 0.16223365 0.037831157 -0.17248146 0.16391031 -0.06626686 -0.12257494 -0.17654043
0.17087424 0.15009102 -0.1394424 -0.029402696 -0.06859888 -0.13005196 -0.10248154 -0.1560896
0.041958157 -0.027465077 0.03980281 -0.12305971 0.06037865 0.15403523 -0.03148344 -0.050381374
-0.15403733 0.048566002 -0.088009804 -0.10866884 -0.15554233 0.121099755 -0.050672732 0.14925785
-0.11972348 0.118396126 -0.14206293 0.09208543 -0.008081911 -0.02141258 -0.15345162 0.07071175
0.04389004 0.02487901 -0.02724248 0.086010925 -0.043471925 0.0072057834 -0.07375391 0.15569283
-0.06697179 0.10887296 0.14419712 0.075721785 -0.12483024 0.1758335 -0.048783522 0.097792596
-0.0427781 0.13060558 -0.112969756 0.1575541 -0.086904064 -0.1366137 -0.03814216 -0.16946335
-0.07984893 -0.117225476 0.12138524 -0.021889808 -0.03418727 0.103851184 -0.04664455 -0.044530652

decoder.W_d.bias f4 [16]
00000000: d921 9ebe 3982 743b a1b6 27bd da3e 6e3c
00000010: f9d7 32be ed2b 8c3e cf7e 63bd 81ba 19be
00000020: dccb adbe b541 14bd a8b3 d2bd 7187 f3bc
00000030: 2cd7 253e 266e 05bf 84c6 55be a36e 0e3e
-0.308852 0.0037309064 -0.040945653 0.014541352 -0.174652 0.27377263 -0.055540856 -0.15012552
-0.33944595 -0.036195476 -0.10288173 -0.02972767 0.16195363 -0.521212 -0.20876509 0.13909392

decoder.U_d.weight f4 [16, 16]
00000000: 7dcd f63d 9e39 643e b322 e2bd 9424 40be
00000010: 8443 923e 9bb6 edbd 1057 18bd 75c3 cdbd
00000020: 9209 303e ec90 ff3c 7f0e a33e e428 2ebe
00000030: bb36 813e 9e71 49be 945b 74be 30f1 433e
00000040: 9d0b 013f 9c42 49bf d6b1 ad3e adb4 0ebe
00000050: c31d cfbe 219d 263e bc3b bb3e d41d 08bf
00000060: d1a0 ccbe ba9a 39bf 3678 1bbe 7500 0cbe
00000070: e0d0 0dbf 2d3a 5a3d 5a1c fb3e ecfb b1be
00000080: 3205 863e fd51 acbe a6c3 1dbe 2d3d a43d
00000090: 7ebc 1ebe 7add 65be b681 3b3d 8e7c 3bbe
000000a0: fca3 da3d 5dbe 26bf 62b5 853e 58eb a83e
000000b0: 19a3 15be 26cc 8cbd 1d54 913d 845a dcbe
000000c0: 4aaa 59bd e92a 103f c91c 283e 3b8d 4c3e
000000d0: 634a b73e 3ee6 97bd 4371 c4bd 880b 0b3f
000000e0: cbf2 3f3e 295d cb3e 7729 81be 9e6f 85bd
000000f0: 112e 913e dfc1 4b3e a5d7 14bf 0281 a13e
00000100: 1c0d cd3e 3e7e 0dbf 5b7c 71be e424 403e
00000110: f8eb cfbe f77a c1be 517d 433d 04d0 f0be
00000120: e0ad 9ebd f39d 42bf c21f 8c3e b852 b03e
00000130: 758d 33be c496 5b3e 6911 4f3e 3e58 00bf
00000140: fa2f 8ebd 93f5 e73e 6eaa a8bb 136a 1f3e
00000150: a77f 6d3e e8b1 bbbd 4661 fabc 5fb4 5f3d
00000160: bc04 98be a646 bc3e c5e3 cbbd bb43 e1bd
00000170: 218e 423e 2cda 503e 7323 6cbd 6e8e d13e
00000180: ecc7 3bbe ded7 1d3f 7cea b63d c453 0ebe
00000190: c7c9 b93e 3fdf 193e 12bd afbe 01b0 c43e
000001a0: 16ee 593e cf2b e43e 2704 c73c 7f4b 6bbd
000001b0: 4733 6c3d 48d0 8ebe a82e d2be 3af2 b13e
000001c0: f818 623c fc12 93be 8e04 32be 0877 463e
000001d0: c574 d23c 820a dd3d d559 373d 82b9 f8bd
000001e0: 6449 a43e 830e 04bf fe07 8e3e 9af6 283e
000001f0: ed98 dcbd 3784 533e 011d cc3e 5324 b0be
00000200: e5aa 37bd d8ac a43d a97b b3bd 01e8 d9bc
00000210: 84dd 3c3e a014 86be b8cb d9bd b945 e03c
00000220: b811 4c3e 4070 753e b6f9 82bd 3998 02bc
00000230: c619 ca3c 038b 96be 12ee bcbe 6153 a13d
00000240: 1645 043f af06 81be 5a33 c4bd f9b8 1a3e
00000250: 1daa 6dbe 9029 bc3c 759e 9e3d f49c 4ebd
00000260: ae69 253e 630f 2abf ced2 4dbc baec a2bc
00000270: 6d12 29bd cb60 8b3d edb2 8b3e 53c9 7bbd
00000280: ff6f 353e 2bea 0f3e 87ef 5ebe 7a44 82be
00000290: c26d 763e f7f8 163e 1a03 82be f332 c43c
000002a0: cf85 f73d 1fa5 253e 63cb 52bd 7258 13be
000002b0: 3c2d 3b3e 2653 1e3e c615 99be fa2a 36be
000002c0: c0bd 983d 9434 19bf 32af c2bd 674e 06be
000002d0: f273 bcbe 5581 1db9 3f98 463e a4e7 b2be
000002e0: d4a6 f33d 456f e7be e19e f3bd 578f 253e
000002f0: 0a48 dfbe 314a f03d 07d9 ed3e cddf c4be
00000300: f26f 9d3e 0eef 3ebe 451f 29bd 0873 313e
00000310: 80a5 d73d e744 533d 08e6 a73e 49b0 babe
00000320: 545a a03e 8b1c 12bf bf83 1abe b157 6dbd
00000330: 1fb9 9ebd f0bc 863e 3d66 9f3e 29fb 94be
00000340: a71b efbd 2b4f a9bd 9231 88bd 3d81 89bd
00000350: a520 febc 2ae0 c8bd a3e3 5c3e f4cb 2d3e
00000360: a2f2 c33d a35f 79be 5004 89bd 9d0a b63e
00000370: a836 11be 7084 593e 446c 713e 5b02 b13d
00000380: 859a aa3e 3a53 edbe b9a9 10be 4603 96bd
00000390: 63cc 1cbe 51b2 00be ed5d 933d e0d7 67be
000003a0: 9f49 6a3e 2f31 1dbf a005 213d a448 133d
000003b0: 0e97 aebd 0947 2f3e 63ad 8f3e fdf1 a9be
000003c0: 31a5 94bd 9022 183f 6c4d 623e 63ac 813e
000003d0: 5b69 ba3e 1048 b8bd 1223 83be b142 c53e
000003e0: 44ab 323e fdd7 903e c206 42be 0a03 d4be
000003f0: 4bd6 463e 3df8 25be 90d3 9bbe 9b10 f83e
0.120509125 0.22287604 -0.110417746 -0.18763953 0.28567135 -0.11607095 -0.037192404 -0.10047046
0.17191151 0.031197034 0.31846997 -0.17007786 0.2523707 -0.19672248 -0.2386306 0.19134974
0.50408345 -0.7861726 0.3392474 -0.1393611 -0.40452394 0.16270877 0.3656901 -0.53170514
-0.39966443 -0.7250172 -0.15182576 -0.1367205 -0.5539684 0.053278137 0.49045068 -0.34762514
0.2617584 -0.33656302 -0.15406665 0.08019481 -0.15501592 -0.22447768 0.045778 -0.18309233
0.10675809 -0.6513422 0.26114947 0.32992053 -0.14612998 -0.06874876 0.070961215 -0.43037808
-0.053140916 0.56315476 0.1641723 0.1997575 0.3579894 -0.07416962 -0.095919155 0.5431447
0.18744962 0.39719513 -0.25226948 -0.0651543 0.28355458 0.19898175 -0.5814155 0.31543738
0.40049064 -0.55270755 -0.23582594 0.18764073 -0.40609717 -0.37789127 0.047726933 -0.47033703
-0.07748008 -0.7602226 0.2736798 0.3443811 -0.1753443 0.21444231 0.20221485 -0.50134647
-0.069427446 0.45304546 -0.00514727 0.15567808 0.23193227 -0.09164792 -0.030563962 0.054615375
-0.29691112 0.3677265 -0.09955553 -0.10999247 0.1899953 0.20395726 -0.057650995 0.40928978
-0.18337983 0.6165751 0.08931443 -0.13899142 0.36286756 0.15026568 -0.34323937 0.3841553
0.21282229 0.44564673 0.024293972 -0.057445046 0.05766609 -0.2789328 -0.4105122 0.34755117
0.013799898 -0.2872542 -0.1738455 0.19381344 0.025690446 0.1079302 0.044763405 -0.12144758
0.32087243 -0.51584643 0.27740473 0.16500321 -0.10771356 0.20655905 0.39865878 -0.34402713
-0.044840712 0.0804078 -0.08763821 -0.026599886 0.18443877 -0.2618761 -0.106345594 0.027376996
0.19928634 0.23968601 -0.06395285 -0.007970863 0.024670493 -0.29402933 -0.36900383 0.078772314
0.51667917 -0.25200412 -0.09580107 0.15109624 -0.23209424 0.022969037 0.07745067 -0.05044265
0.16153595 -0.6642973 -0.012562467 -0.01988827 -0.041277338 0.06805571 0.27284947 -0.061471295
0.17718504 0.14054172 -0.2177106 -0.25442868 0.24065307 0.1474341 -0.2539299 0.023950076
0.12086069 0.1617627 -0.051463496 -0.14389208 0.18278974 0.15461406 -0.29899424 -0.17789832
0.07458067 -0.5984585 -0.09506072 -0.13115846 -0.3680721 -0.00015020867 0.19394015 -0.34942353
0.11897054 -0.4520208 -0.11895538 0.16167961 -0.4360965 0.11732901 0.4645464 -0.38451996
0.3074947 -0.1864588 -0.041289587 0.17329037 0.105296135 0.051579382 0.32792687 -0.3646262
0.31318915 -0.57074803 -0.1508932 -0.057944957 -0.07750153 0.26316023 0.3113269 -0.2909787
-0.11675196 -0.08267053 -0.0665008 -0.06714103 -0.031021426 -0.09808381 0.21571212 0.16972333
0.09567763 -0.24352889 -0.06690276 0.35554972 -0.14181006 0.21241927 0.23576456 0.086430274
0.33321014 -0.4635256 -0.14127244 -0.07324843 -0.15312342 -0.12568022 0.07195649 -0.22640944
0.22879647 -0.61403173 0.039312005 0.035957947 -0.08524905 0.17116942 0.2806197 -0.33192435
-0.0725807 0.5942774 0.22099847 0.25326833 0.36408505 -0.0899812 -0.25612694 0.38527444
0.17448145 0.28289786 -0.1894789 -0.4140857 0.19417684 -0.16207977 -0.30434847 0.4845017

decoder.U_d.bias f4 [16]
00000000: 4f90 94be 7433 4d3c 8cf8 823c 929e bf3d
00000010: 5c40 0c3d b080 b93e 4b6c 8f3d c928 5cbe
00000020: ce20 e5be 0813 3dbc 843e 7cbe e2ef 0d3d
00000030: 08c5 54bd 2fb6 cbbe a89c 063d b9a6 523e
-0.2901635 0.012524474 0.015987657 0.09356417 0.034241065 0.36230993 0.07003077 -0.21499933
-0.4475159 -0.011540182 -0.24633223 0.0346526 -0.051945716 -0.39787433 0.032864243 0.20571412

decoder.v_d.weight f4 [1, 16]
00000000: ad3a fabd 11c3 f33e 508a 823e 1eee e1be
00000010: f027 bf3e 61d7 53be 3f22 8bbe 9173 5c3e
00000020: bbfd 16be 27b2 ac3e 2a5d cbbd 792f ac3e
00000030: a8e8 ac3d 64ee 173e 0aee d63e 88aa a1be
-0.12218223 0.4760976 0.2549615 -0.44126981 0.37335157 -0.2068763 -0.27174565 0.2152846
-0.14745228 0.3372967 -0.09929879 0.3362997 0.08442813 0.14837033 0.41978484 -0.31575418

decoder.w_tilde.weight f4 [1, 17]
00000000: 6c02 563e d334 bcbd 2aa7 4b3e 9590 0c3b
00000010: 336c f4bc 0ac1 133e 9723 c8bd 0035 9ebd
00000020: f09d 8fbd f7dc 873d 871f 4ebe 7f87 4d3e
00000030: 684c 22be 2ea9 0bbd 75da 7d3e c2e3 45be
00000040: b8c3 29bf
0.20899361 -0.09189763 0.19887987 0.0021448482 -0.02983675 0.14429107 -0.09772413 -0.07724953
-0.07012546 0.066339426 -0.20129214 0.20071219 -0.15849459 -0.03409689 0.24790366 -0.19325164
-0.6631427

decoder.lstm.weight_ih_l0 f4 [64, 1]
00000000: 9796 0fbf f867 7cbe 02ab 2fbf 76c0 f4be
00000010: a4c2 b33e 415e 8ebe 72f3 d1be 8601 bdbe
00000020: b757 7abe fa0f b33f 2c07 1dbf d95d 5ebe
00000030: 470b 2bbf bf30 bebe c27a 47be 668a 84be
00000040: 5031 61be 702b 2c3d 8c5a 46be f81c 673e
00000050: b615 273e 0278 553e 18ad 31be 48a9 723e
00000060: 989b 2e3d 24f1 62be 3879 81bd b847 d1bd
00000070: 944e 99bd 7c56 a03d 4689 44be a6fd 4a3e
00000080: cde4 fdbe 6e82 f3be 8f4b 2e3f 5006 fbbe
00000090: 5869 0d3f 4d50 ccbe 52fc 51be e820 36bf
000000a0: ef73 1a3f aaa1 2dbf 487f b43e 06c4 6a3f
000000b0: 6f82 2c3f ab85 28be 14ce 2e3f 7f27 2c3f
000000c0: b9c9 1fbf 0d6a 99be 082d 14bf 5a00 2abf
000000d0: 21f9 3e3f c326 b6be 03fe 17bf a4a3 83bd
000000e0: 9c61 b5be 50dd c63f f191 0fbf c37a 66be
000000f0: 4cd8 cebe d7d0 9cbe 8f34 01bf 9b60 d7be
-0.56089157 -0.24649036 -0.6862031 -0.47803086 0.35109437 -0.27806285 -0.41006047 -0.36915225
-0.24447523 1.3989251 -0.6133907 -0.21715488 -0.6681408 -0.37146565 -0.19480422 -0.2588684
-0.21991467 0.042033613 -0.19370478 0.22569644 0.16316876 0.2084656 -0.17351186 0.23697388
0.042628855 -0.221623 -0.06321949 -0.102187574 -0.07485691 0.078289956 -0.1919299 0.19823322
-0.49588624 -0.47560447 0.68084043 -0.49028254 0.55238867 -0.39905015 -0.20506409 -0.7114396
0.6033315 -0.67824805 0.35253358 0.9170536 0.67386526 -0.1645724 0.682832 0.67247766
-0.6241718 -0.29963723 -0.5788121 -0.66406786 0.7459889 -0.35576448 -0.59371966 -0.06427696
-0.35426033 1.5536289 -0.56082064 -0.22507767 -0.40399396 -0.30628082 -0.50470823 -0.42065892

decoder.lstm.weight_hh_l0 f4 [64, 16]
00000000: 00ba 273a 80df d1bb 08fc 243d 96e2 78be
00000010: de25 653e 6c7c fa3d 40bf a53c 649c b3bd
00000020: 3830 143e 1010 a6bc e64d 44be f66c 2a3e
00000030: 1876 43be ee40 693e dce2 103e bc3b 67be
00000040: 2cc5 2abe 30fd e43c 10d3 51be 5069 c8bd
00000050: ea6c 2cbe b008 1d3d 58a5 b83d 804e 61bc
00000060: 020b 66be 46ee 60be a640 72be c007 6abc
00000070: b074 54bd f28d 44be 7a25 1fbe 429a 3d3e
00000080: 909b 153e b238 02be 7447 b9bd 503c 003e
00000090: d859 18be 20ca 12bc b80a 4b3d 183e 0dbe
000000a0: 3458 67be c026 693d 38f6 17bd 7809 103d
000000b0: 400b dcbc 0cce 98bd c813 733d e8ba bc3d
000000c0: eeaa 423e 9a45 7a3e c4d3 163e 5017 2d3d
000000d0: b84f 25be 32da 4ebe b0f9 64be 6062 ec3c
000000e0: 607e c13c a8e9 9abd 00b6 4cba 6a7e 3e3e
000000f0: d6e9 12be e841 febd 8880 893d de7f 683e
00000100: 48c6 2cbd fc57 a1bd 5896 f4bd c689 5d3e
00000110: 4892 dc3d ee72 283e 08de 7cbd 98a7 aabd
00000120: bc3c afbd 00c2 faba c6a2 6fbe 564c 393e
00000130: 001e afba 8001 f73c 9e3f 3bbe 028d 2c3e
00000140: b4eb 8f3d c8f7 77bd 0012 6dbd c099 713d
00000150: 1876 6a3e 2825 ba3d 2a07 5c3e 0204 65be
00000160: 9053 ffbd c095 0bbc faf5 003e 6255 57be
00000170: 2cbc 9a3d a02f edbd fcb0 eebd d8cf 08be
00000180: a83f 973d 8485 74be 8c45 6dbe 623d 7a3e
00000190: a4a0 fa3d e872 7fbe 402b dabd 20c1 c1bd
000001a0: 00e5 6e3c a09e 113c 3209 16be 3457 3abe
000001b0: b879 093e 1ea7 5bbe b0e4 4abe 2cfa 9b3d
000001c0: 78a8 4a3d d6d6 5a3e f852 f43d 70a4 62bd
000001d0: 004c fe3b 2cc7 653e 9cdb d63d ec06 9abd
000001e0: de25 273e b4bc a9bd aaa3 6abe 709f e23d
000001f0: 90f7 1bbd b056 92bd f807 183d 70a7 273d
00000200: 587e 78bd 60e1 7e3c 10fa 63bd e8bc 95bd
00000210: b8af e53d bc75 b1bd b4ff 6bbe 3039 a2bd
00000220: a8ac abbd 0054 133b 380c 183e 2e15 473e
00000230: f081 b0bd 340a 1ebe 588e 5fbe 10a4 193d
00000240: e279 443e a2fb 123e 3e50 25be e86d 20bd
00000250: 9caa 173e 48ec 22be 68c4 803d 8886 14be
00000260: 946c 5cbe 6c2a 8ebd 9a1b 11be 505b 43be
00000270: 3865 1fbe 80d6 0b3d 6e9a 323e 004a 5e3c
00000280: 50d8 703d 6cc4 22be cad8 063e 50ed 36bd
00000290: a8c4 e33d a0c1 4e3d cc03 55be 2c8f afbd
000002a0: 36c4 203e 2000 62be 08ae 013d 14e3 c2bd
000002b0: c418 123e 20e7 b4bd b01d a73c 60d6 4dbd
000002c0: 04ce 2ebe acf6 2fbe 4c9c d1bd 0060 903d
000002d0: 424b 6e3e ac06 0f3e 58a5 eabd 5038 ed3c
000002e0: 54e0 383e 8027 fb3d bc6f 423e a822 7e3e
000002f0: 6691 1b3e dcc8 e63d 7a83 633e 8ca1 883d
00000300: 58c7 59be aca2 323e 90e1 f53c 860d 3e3e
00000310: 6403 573e b00d d3bc 3ae9 263e d426 52be
00000320: cc0e 8dbd 887a a7bd b046 a93d ec74 333e
00000330: d43d 00be b0f0 2ebe f48e 233e 9041 3a3e
00000340: f4cd af3d 9ce8 ca3d 106c febc f4ab c5bd
00000350: c4f2 1f3e e864 513d 449f 4e3e 4093 a73b
00000360: 9cee da3d b8d7 5cbe dac2 503e 9cb8 d43d
00000370: 589c 243d 3c47 633e ec38 96bd 149d 66be
00000380: 70bb 17bd 86e6 4ebe 108c 8d3d b6ae 5cbe
00000390: eae0 303e 30f8 b83d acdd f2bd 403d 7a3e
000003a0: 7a07 22be b8e7 543d cc53 913d 720d 143e
000003b0: 6c8f 623e 6637 7f3e 2030 883c 5018 5dbd
000003c0: b8f0 b9bd 6cb8 963d 3412 ed3d 88ba e0bd
000003d0: 32e9 283e e022 2cbe e4c0 adbd 20d8 50be
000003e0: 8428 23be 9ad1 37be 5436 cf3d e89b 3bbe
000003f0: 0843 86bd a4c4 04be ecf7 f43d be62 7e3e
0.00063982606 -0.006404817 0.04027942 -0.24305186 0.22377726 0.12230763 0.020232797 -0.087700635
0.14471519 -0.020271331 -0.19170341 0.16643128 -0.19088018 0.22778675 0.1414904 -0.2258138
-0.16676778 0.02795276 -0.2049067 -0.09785712 -0.16838422 0.038338363 0.09015912 -0.013751626
-0.22465137 -0.21965894 -0.23657474 -0.014284074 -0.051869094 -0.19194773 -0.1554164 0.18515876
0.14610124 -0.1271694 -0.09046832 0.12523007 -0.14878023 -0.008959323 0.04957077 -0.13793218
-0.2259224 0.05692172 -0.037100047 0.03516528 -0.026860833 -0.07461175 0.059345037 0.09215337
0.19010517 0.24440613 0.1472922 0.04225856 -0.16143692 -0.20200422 -0.22360873 0.028855503
0.02361983 -0.07564098 -0.00078091025 0.1860291 -0.14347014 -0.12414914 0.067139685 0.22705027
-0.042181283 -0.0787811 -0.11942738 0.21634588 0.107700884 0.16450092 -0.061735183 -0.08332747
-0.08556506 -0.0019131303 -0.23401937 0.18095526 -0.0013360381 0.030152082 -0.18285987 0.16850665
0.07027379 -0.060539037 -0.057878494 0.058984518 0.22896612 0.09089118 0.21487108 -0.2236481
-0.1246711 -0.00851959 0.12593833 -0.21028665 0.07555422 -0.115813494 -0.11654851 -0.13360536
0.07385188 -0.23879057 -0.23171061 0.24437478 0.12237671 -0.24946177 -0.106527805 -0.09460664
0.014580965 0.008887917 -0.14651945 -0.18197328 0.13425338 -0.21450469 -0.198138 0.07616076
0.04947707 0.21371016 0.119298875 -0.0553326 0.0077605247 0.2243926 0.10491106 -0.075208515
0.16323039 -0.082879454 -0.22913995 0.110655665 -0.03807789 -0.071454406 0.037116975 0.040931165
-0.060667366 0.015556663 -0.0556584 -0.07311422 0.11215156 -0.08665034 -0.23046762 -0.07921064
-0.08382541 0.0022480488 0.14848411 0.19441673 -0.086185336 -0.1543358 -0.21831644 0.037509978
0.1918712 0.14353803 -0.16143891 -0.039167315 0.14811176 -0.15910447 0.062874615 -0.14504445
-0.21525794 -0.06941685 -0.14170685 -0.19077802 -0.15565956 0.03414011 0.17441723 0.013567448
0.05880004 -0.15895241 0.13168636 -0.044659913 0.111214936 0.050477624 -0.2080223 -0.0857223
0.15699849 -0.2207036 0.03166011 -0.09515968 0.1426726 -0.08833146 0.020399898 -0.050253272
-0.17070776 -0.17183942 -0.102348894 0.070495605 0.23270896 0.13967389 -0.11457318 0.028957516
0.18054324 0.122633934 0.18987936 0.24817908 0.15192184 0.1126878 0.22218123 0.066714376
-0.2126745 0.17444867 0.030014783 0.18559846 0.20997387 -0.025763363 0.16299906 -0.20522624
-0.06887588 -0.08177668 0.08265436 0.17525071 -0.12523586 -0.17084002 0.15972501 0.18189073
0.08584204 0.09907648 -0.031057388 -0.09651938 0.15619951 0.051121622 0.20177943 0.005113989
0.106900424 -0.21566665 0.2038683 0.10386774 0.040188164 0.22195143 -0.07335076 -0.22520858
-0.03704399 -0.20205125 0.069114804 -0.21551022 0.17273298 0.09031713 -0.11858687 0.24437428
-0.15823165 0.051978797 0.07096061 0.14458254 0.22125024 0.24923477 0.01662451 -0.053978264
-0.090791166 0.073593944 0.115757376 -0.10973078 0.16495207 -0.16810179 -0.084840566 -0.20394945
-0.15933424 -0.1795105 0.10117784 -0.18321192 -0.06555754 -0.12965637 0.1196135 0.24842355

decoder.lstm.bias_ih_l0 f4 [64]
00000000: 4439 06bc fa52 903e f906 273d 4405 2b3e
00000010: 9c5d 843d 3fcf 33bd 3e8e 8b3b c800 c13e
00000020: 7d99 e4bc 47d2 a0bb b88b abbd 777d 053f
00000030: ec85 25be 3792 003e 279c 953e 0327 6e3e
00000040: 00fa 0ebe d40d 233e 202e 2d3d 8874 08be
00000050: c438 133e 1895 1a3e b43b 5b3e 583c 2a3d
00000060: ba4d 483e fe88 67be 1ebf 22be a68f 09be
00000070: feea 0d3e 96dd 293e 66e5 4c3e 009d 0d3b
00000080: 88cc 683e b405 f1bd b36e 523c 0d65 953d
00000090: 5f68 b63d 3d19 293e 8776 323e c99a 0a3e
000000a0: ca53 44bd 3ea4 29be 667f 37be 238b 043e
000000b0: d19e a3bd 2614 263e cbd0 08be efda 5cbd
000000c0: 0cd1 5f3e 808b edbd 5e87 f83e daaf 4c3e
000000d0: 2333 593e e310 ce3d f1f6 1cbc 194c 253f
000000e0: 6371 863d 91df e93d 4728 c7bc cc4e a93e
000000f0: f88f 0a3e 9510 093e a509 a3bd 7808 ea3d
-0.008192364 0.28188306 0.040778134 0.16701227 0.06463167 -0.043898817 0.0042589 0.3769591
-0.02790522 -0.0049078795 -0.083762586 0.5214457 -0.16164368 0.12555777 0.29220697 0.2325707
-0.13962555 0.15923244 0.042280316 -0.13325703 0.14377123 0.15095937 0.21409494 0.041561455
0.195609 -0.22610852 -0.15893218 -0.13433704 0.13859174 0.16588435 0.20009384 0.0021608472
0.22734272 -0.11768666 0.012843776 0.072946645 0.08906626 0.16513534 0.17428027 0.13535608
-0.04793147 -0.1656656 -0.17919692 0.12943701 -0.07989276 0.16218624 -0.13360898 -0.05391973
0.21857089 -0.11598873 0.48540777 0.19988957 0.21210913 0.10061815 -0.00958036 0.6456924
0.065645956 0.11419595 -0.024311198 0.3306793 0.13531482 0.13385232 -0.07960824 0.114273965

decoder.lstm.bias_hh_l0 f4 [64]
00000000: 8da2 0b3e 1d76 223e 5aa2 453d 8f96 823c
00000010: bef4 0f3e 68ac c7bd 20e5 42be 62d5 103f
00000020: a705 fc3c fb6e 943e 6ae0 463c 7d79 b83e
00000030: fe33 8c3e 00bc e3bd 320f 333e 7b0c 9d3d
00000040: a0e1 7dbe ac22 8a3d 8484 e33d 56d2 613e
00000050: e298 5cbe a82e 373e 3486 cfbd 5866 543e
00000060: 0855 793e e659 703e b814 e33d 5092 c83c
00000070: 94b3 00be 346d 17be 70cf 8e3d 4c43 dabd
00000080: 2261 243d 5c62 523e 4e8e d9bd 7c78 063d
00000090: 8207 5a3e f9ce d43c 9bc3 363d b877 3bbe
000000a0: 4b99 1cbc 82f8 5fbd 905b 843d c195 b5bd
000000b0: 60fd 6bbd 58e8 1a3e dda0 0abe fa4e 11be
000000c0: 750a 853e 5fde 393e b9fb 6c3d bc2d 303e
000000d0: e15d 513e d087 773e 57f8 453e e9d5 cb3e
000000e0: 75cb 993e 9c27 dc3d ba89 853e 2ef6 273f
000000f0: 3e9c b5bd 0ac1 af3d 7f9d 9ebc c4ab 813d
0.13636227 0.15865369 0.048250534 0.015940933 0.14058205 -0.09749681 -0.19032717 0.56575596
0.030764414 0.2899092 0.012138465 0.36030188 0.27383417 -0.111198425 0.17486265 0.07668396
-0.247931 0.067448944 0.1110926 0.22052893 -0.21542695 0.17888892 -0.10133019 0.20742166
0.24348843 0.23471794 0.11087936 0.02448383 -0.12568504 -0.14787751 0.06973159 -0.10657367
0.040131696 0.20545334 -0.106228456 0.032829747 0.21291927 0.025977599 0.044620138 -0.18307388
-0.009558032 -0.054680355 0.06462777 -0.08866454 -0.057614684 0.15127695 -0.13537927 -0.14190283
0.2598454 0.18151234 0.05785725 0.17204946 0.20445968 0.24172902 0.19333015 0.39811638
0.30038038 0.107497424 0.2608164 0.65610015 -0.088676915 0.08581741 -0.01936221 0.0633159

W_y.weight f4 [16, 32]
00000000: 03aa 863c 7fb4 383e 6867 50be d88a 483e
00000010: 9a41 47be 72dd d33d 8429 09bd acdd 8c3e
00000020: e47f 90bd ef3e 043e eddb f9bd 1ea2 d0be
00000030: 93ba 923d 9363 973c 6c21 3bbc d0f2 21be
00000040: 2a7f fe3d c81e 70bd 4744 31be 128c a53d
00000050: 638a 1f3e 83be c53d 2895 03be 1002 353d
00000060: 8a0c 933d b840 343e 09e3 2e3e 1353 843d
00000070: 03b8 c6bd 288d 0dbc bdf4 1e3d 9dd0 f33d
00000080: 4a5d 6bbe 313c 1bbe 58e7 ca3d ab18 3d3d
00000090: d31b 283d 35e8 633d edd0 923d aab9 45be
000000a0: 9e98 c63d 2592 04be 866e e83c c9ca da3d
000000b0: 57f8 793d e682 d33d 8d5c 123e 119a 273e
000000c0: 7c54 5a3d 8626 2dbc 919e 2c3d ec6a 95bc
000000d0: 204b 31be fcbf e13c 265e 4f3d 4201 e6bc
000000e0: 1046 f8bc 4e39 47be da9b 1cbe 6c0b 23be
000000f0: 5629 a13d f996 8fbc 9fe5 82bd eecc b6bd
00000100: f356 443e ec11 7f3d bd8e 0dbd 3683 7c3e
00000110: bf97 93bd 0df0 323e 7fac 433e 7837 d63e
00000120: a731 4cbe 5a3f 203d 38fe 1ebe b843 e1be
00000130: 0870 50be de10 0bbe efc5 793d a61f 29be
00000140: f8f1 6bbd 8f76 e33d a1bc 3b3c 369f f9bd
00000150: 67ec 0c3b 52f1 1abd 6bd5 0ebd fe48 c73c
00000160: 6369 853e 6f4d 053e bfc2 c5bd 95c7 40bd
00000170: c46f eebc 04e2 ea3d 1a70 bb3d 526e 03be
00000180: 3eb0 4cbe 1cdc 74bd 9b87 7f3e 4535 12be
00000190: 012d ce3d 96ac 2dbd 65c2 debd 0f18 7fbe
000001a0: 63e1 283d aa49 75be 391d 853d fabf 4b3e
000001b0: 005d 463e 4849 173e 5476 383e 84f8 fb3c
000001c0: b1fe 91bd 95cf 11be 2b89 bdbd 6f84 2dbd
000001d0: f1e3 363d 5555 353e 6c16 bdbc 0bcc 8b3c
000001e0: 1b7d 32be 3f6b dfbd d4ee 13be 5672 f0bd
000001f0: b2ea 50bd 2a8f 4bbd 284e e03b cdeb c43c
00000200: dae8 91bd 5a25 6dbe 28d3 373e 7030 9dbd
00000210: 66d4 223e 2976 11be 3930 00be 63bf 4dbe
00000220: c879 0f3d 40bc 3fbd 0d03 5e3e 3d52 713e
00000230: cd94 a23d f9cf f5bd 0db6 203e c509 363e
00000240: 1065 07be 969f 353d 3867 3a3e e0db 333e
00000250: 17b1 a7bc e318 343e 255b 933d 7ede 01be
00000260: d97e a4be b807 8ebe 0ec2 7d3d 9e4c 513d
00000270: 9348 d0bd 3d3a a13c 08bc 18bd 8970 563d
00000280: 1a4b 42be 54f2 83bd c7fa f43d de5e 59be
00000290: c21b b8bc f620 043e f996 983c 5283 f6be
000002a0: 309f 2c3e 7918 8cbe e4f7 583e eb80 003e
000002b0: e76f 223d 58e4 34be a1e3 323c 2a7c 5b3e
000002c0: 2218 c63d 65a7 92bd 5381 e7bd 7cc7 143e
000002d0: 628a fabd 68e7 abbc a0e1 013e 8ca7 483d
000002e0: b3a9 9dbe 5efd 14be 6fed 02be 6919 11be
000002f0: e72c 27bc a763 973a 4ae1 ba3d 26b3 0cbe
00000300: efbe 9abc 8401 903c 51a3 5c3e 3d2a d63c
00000310: 0a91 ca3d 816d 2bbe f3af acbd 5bbc c9be
00000320: 575e df3a 5b41 a7be bab8 713e 6bd3 013f
00000330: e40f 823e 98e5 433d 4ef8 c93d c39a 7abd
00000340: 0cb9 ce3c 4fc4 673d cc27 143e 2cf1 9bbd
00000350: 024a 65be a9c8 aa3c 1903 873d bb3d a8bd
00000360: ab6a a2be 66b6 7bbe 8c72 153d 57fb 273e
00000370: 8109 c73d 21ef d5bd c776 223e bd08 203e
00000380: 5091 ee3d d90c 733e 4b72 9abe 04ab 493e
00000390: 895e 06be 054a 4d3e 2f2c 123e a722 db3e
000003a0: d4c6 4d3d cbf0 043e d7bd dcbd 800a a3be
000003b0: 4d4f 8fbd 56d9 5cbd dc42 61be dd0b 9abd
000003c0: e134 22be 73be 7cbc e7de ef3c 4f9d a7bd
000003d0: 92cf 1a3e 15b3 f9bd cbfd d43d 7bc9 3ebd
000003e0: aa7f af3d 21fd 113d 8d93 063e f77f 3d3e
000003f0: 84c5 c63d 3ac5 84bd ee61 9c3d 1d91 bebd
0.01643849 0.18037604 -0.20351946 0.19584215 -0.19458619 0.10344972 -0.033486858 0.27512872
-0.07055643 0.12914632 -0.12200151 -0.40748686 0.071644925 0.018480098 -0.011421543 -0.15815282
0.12426598 -0.058623105 -0.17311202 0.08083357 0.15580134 0.09655478 -0.12849867 0.04419142
0.07180126 0.17602813 0.17078795 0.06461158 -0.09703066 -0.008639611 0.03880762 0.11905024
-0.22984806 -0.1515968 0.099074066 0.046166103 0.04104216 0.05564137 0.07168756 -0.19309106
0.09697078 -0.12946375 0.028373014 0.106832094 0.06102785 0.10327701 0.14293118 0.16367365
0.053303227 -0.010568267 0.04214341 -0.01823946 -0.17313814 0.027557366 0.050626896 -0.028076772
-0.030306846 -0.19455454 -0.15293828 -0.15922326 0.07869212 -0.017528044 -0.06391453 -0.08925806
0.19173793 0.06227295 -0.034559954 0.24659428 -0.07206678 0.17474385 0.19108771 0.41839194
-0.19940816 0.039122917 -0.15526664 -0.43996978 -0.20355237 -0.13580653 0.06097978 -0.16515979
-0.057603806 0.11106598 0.011458547 -0.1218857 0.0021503211 -0.037827797 -0.0348715 0.024326798
0.26056966 0.1301782 -0.096562855 -0.047065336 -0.029106028 0.1146889 0.09152241 -0.12835053
-0.19989106 -0.059780225 0.24954073 -0.14278133 0.100671776 -0.04240092 -0.108769216 -0.24911521
0.04123057 -0.23953882 0.064997144 0.19897452 0.19371414 0.14774048 0.18013889 0.03075815
-0.07128657 -0.14239343 -0.09254678 -0.042362627 0.044650976 0.17708333 -0.02308198 0.017065069
-0.17430536 -0.109091274 -0.14446574 -0.11740558 -0.051005073 -0.04969708 0.0068452545 0.02403822
-0.07124491 -0.2315878 0.17951643 -0.07675254 0.15901336 -0.14205231 -0.12518395 -0.2009254
0.03502825 -0.04681039 0.21680851 0.23566528 0.07938538 -0.12002558 0.15694447 0.17777164
-0.13222146 0.044341646 0.18203437 0.17564344 -0.020470185 0.17587619 0.07195119 -0.1268253
-0.32128027 -0.27740264 0.061952643 0.05109846 -0.101700924 0.01968109 -0.037288696 0.052353416
-0.18973961 -0.06442705 0.119618945 -0.21227595 -0.022474173 0.12903199 0.018626677 -0.48147064
0.168576 -0.2736242 0.21188313 0.12549178 0.0396575 -0.17665231 0.010918529 0.21434084
0.09672572 -0.07160834 -0.113039635 0.14529222 -0.12233426 -0.020984367 0.12683725 0.04898791
-0.30793533 -0.14549777 -0.12785886 -0.1416985 -0.010203577 0.0011550084 0.09125002 -0.13740215
-0.018889872 0.017578848 0.21546675 0.026143188 0.09890945 -0.16740991 -0.08431997 -0.39401516
0.0017041665 -0.3266705 0.23605624 0.50713223 0.2540275 0.04782638 0.098618135 -0.06118275
0.025234722 0.0565837 0.14468306 -0.07614359 -0.22391513 0.020847635 0.06592388 -0.08214899
-0.31722006 -0.24581298 0.036486194 0.16404472 0.097186096 -0.10446001 0.15865622 0.15628333
0.1164881 0.2373537 -0.30165324 0.19694144 -0.13122 0.20047767 0.14274667 0.42799875
0.050238445 0.1298248 -0.107783966 -0.31843948 -0.06997547 -0.053918205 -0.21998161 -0.07521794
-0.15840484 -0.015426266 0.029281093 -0.08184301 0.15118244 -0.1219236 0.1039997 -0.046578865
0.08569272 0.035641793 0.13142224 0.18505846 0.09705642 -0.064829305 0.07635866 -0.09305022

W_y.bias f4 [16]
00000000: 05c4 acbd d77e 0bbd 8344 febd 2bbd 68bd
00000010: e5f8 023e 9c51 be39 74fd 57bd 5d0a 1ebe
00000020: a8a0 d73d 9c4c 0f3e 63f9 963d 5f40 0a3d
00000030: 1a3c 21be 038c 07be 31ac cd3d d777 153e
-0.08435825 -0.03405651 -0.12415411 -0.05682103 0.12790258 0.00036300428 -0.052731946 -0.15433641
0.105286896 0.13994068 0.073717855 0.033752795 -0.15745583 -0.13237004 0.100426085 0.14596497

v_y.weight f4 [1, 16]
00000000: be38 273e 7b5b a6bd 7a4f 1d3e 0772 71be
00000010: 41a0 47be 4a66 92be 164d aabd d4de 7c3e
00000020: 087b 6a3e f097 6c3d a951 9ebd 8b6a 773e
00000030: 1cbd 86be 8cf3 01be cc9d 88bc 07de 4abe
0.16330239 -0.08122917 0.15362349 -0.23578654 -0.19494726 -0.28593665 -0.08315484 0.24694377
0.22898495 0.057762086 -0.07730419 0.24161737 -0.26316154 -0.12690562 -0.016676806 -0.19811259
