weights/DARNN_L3_HDE16_HDD16_BS32_E50_s1.pth (torch, 44210 bytes, 22 tensors)

encoder.lstm.weight_ih_l0 f4 [64, 81]
0	0x3e308df3	0.1724165
1	0x3f25f802	0.64831555
2	0x3d8282b4	0.06372586
3	0x3e194628	0.14968169
4	0xbdca80d7	-0.098878555
5	0x3e87b0cb	0.2650207
6	0xbeb5c570	-0.35502195
7	0x3e1649ee	0.1467664
8	0xbdd6d314	-0.10489479
9	0x3e22782c	0.15866154
10	0x3f159d76	0.5844339
11	0x3e16f9e9	0.1474377
12	0x3e763180	0.2404232
13	0xbe3f7287	-0.18696032
14	0x3cce1631	0.025157066
15	0x3d80baf0	0.062856555
16	0xbda0cc40	-0.078514576
17	0x3e3c2d8b	0.18376748
18	0x3e2866bd	0.16445442
19	0x3e8e3918	0.27777934
20	0xbe4ade53	-0.19811372
21	0xbd518f9f	-0.05116236
22	0xbcae85bd	-0.021304006
23	0xbd36b524	-0.044606343
24	0xbe222d45	-0.15837581
25	0x3ce1bad9	0.027554916
26	0x3e4fe7bb	0.20303242
27	0x3deaec67	0.114708714
28	0xbe7a8e1d	-0.24468274
29	0x3e539e3c	0.2066583
30	0x3d11fdd2	0.035642453
31	0x3e82babe	0.25533098
32	0x3db55682	0.08854391
33	0x3de35d8c	0.11101827
34	0xbe11d1cb	-0.14240186
35	0xbe47d946	-0.19516477
36	0x3e54ec20	0.207932
37	0x3f02719d	0.5095461
38	0x3e959ab2	0.29219586
39	0xbdf373ef	-0.11887347
40	0x3e9fb0c3	0.31189546
41	0xbd504255	-0.05084451
42	0x3e84141f	0.257966
43	0x3d7d6473	0.061863374
44	0xbd140b0b	-0.036143344
45	0x3e2676b8	0.16256225
46	0xbd9d866b	-0.07691654
47	0x3d2e007e	0.042480938
48	0x3ed9e3af	0.4255652
49	0x3c97b2a4	0.0185178
50	0xbdc70d72	-0.09719361
51	0xbe351862	-0.17685083
52	0xbc2dd704	-0.010610346
53	0x3dc7f466	0.09763412
54	0x3ea6f476	0.32608384
55	0x3ec04408	0.37551904
56	0xbe10d1f6	-0.14142594
57	0xbe821b2d	-0.25411358
58	0x3e591bbe	0.21201989
59	0x3ec8e9e6	0.3924095
60	0xbc57d224	-0.01317266
61	0x3e233699	0.15938796
62	0x3e3cb69d	0.18429036
63	0x3e9bf51c	0.3046044
64	0xbde94f64	-0.11392096
65	0xbd134692	-0.035955973
66	0x3df616b0	0.12016046
67	0xbc3cad66	-0.011515951
68	0xbcc5b94d	-0.02413621
69	0xbe843a37	-0.25825664
70	0x3de31f4f	0.11089956
71	0xbbd979f3	-0.006636852
72	0x3e69ed76	0.2284449
73	0xbe4903d5	-0.19630368
74	0xbdcecc22	-0.10097529
75	0x3d90eaf4	0.07076064
76	0x3d278d59	0.040906284
77	0x3ddb5b8d	0.10710821
78	0xbe8dbd68	-0.27683568
79	0x3cfc503c	0.030799977
80	0xbd22f7c1	-0.039787058
81	0x3f1515ca	0.5823637
82	0x3ef12b6b	0.47103438
83	0x3f45aa54	0.77213025
84	0x3f5998fb	0.84999055
85	0x3f2cf781	0.6756516
86	0x3f7c3740	0.98521805
87	0x3fd2e1c3	1.6475147
88	0x3f8af4e3	1.0855983
89	0x3f9ce80b	1.2258314
90	0x3f56cf88	0.8391042
91	0x3e0d06b8	0.13772094
92	0x3f56356c	0.83675265
93	0x3f801db0	1.000906
94	0x3f59de8e	0.85105217
95	0x3f83403f	1.0253981
96	0x3fae7d2e	1.3631952
97	0x3f6272d9	0.88456494
98	0x3f7edebe	0.9955863
99	0x3f34bc1b	0.70599526
100	0x3f0565fe	0.5210875
101	0x3e8e117d	0.27747717
102	0x3fc6cb6a	1.5530827
103	0x3ea25801	0.31707767
104	0xbe8a2344	-0.2698003
105	0x3f241dd3	0.6410801
106	0x3fa9234e	1.3213899
107	0x3e924966	0.28571624
108	0x3edfc4f2	0.43704945
109	0x3f7c5d3b	0.9857976
110	0x3fa22125	1.2666365
111	0x3f9580d6	1.1679943
112	0x3f2b3c4b	0.66888875
113	0x3eb11b90	0.3459134
114	0x3f14bd1b	0.5810105
115	0x3f14ac9a	0.5807587
116	0x3f270d8c	0.65255046
117	0x3f94de83	1.1630405
118	0x3e993a6a	0.2992738
119	0x3ed7f9e7	0.42182848
120	0x3f0a6b0a	0.5406958
121	0x3f27b68a	0.6551291
122	0x3f92b818	1.1462431
123	0x3f467cbf	0.775341
124	0x3f652693	0.89511985
125	0x3eb4c18e	0.3530392
126	0x3e35039e	0.17677161
127	0x3f8a7599	1.0817138
128	0x3f9fc928	1.2483263
129	0x3f3b3c9b	0.7313935
130	0x3f6b224f	0.91849226
131	0xbe3ab350	-0.18232465
132	0x3f23086a	0.63684714
133	0x3f2cdbca	0.6752287
134	0x3f624c83	0.88398
135	0x3fa26af5	1.2688891
136	0x3f3649e4	0.712065
137	0x3ed5c502	0.41751868
138	0x3f7f1e66	0.9965576
139	0xbe9c9f2e	-0.30590194
140	0x3f52e289	0.82376915
141	0x3f7429b4	0.95376134
142	0x3e5ad263	0.21369319
143	0x3f5c1b51	0.8597918
144	0x3f168ecb	0.58811635
145	0x3ec073b0	0.37588263
146	0x3f92a1bf	1.1455611
147	0x3f450a9d	0.7696932
148	0x3f89447f	1.0724028
149	0x3f51d2d7	0.8196234
150	0x3ef2ddd0	0.47434855
151	0x3ecfb06d	0.4056429
152	0x3daebba6	0.08531885
153	0x3f364f45	0.71214706
154	0xbe48097e	-0.19534871
155	0x3ef73be6	0.48287886
156	0x3f2d40bb	0.67676896
157	0x3faca83b	1.348884
158	0x3fa14506	1.2599189
159	0x3f5e7ce2	0.86909306
160	0x3f14645b	0.5796563
161	0x3f92780c	1.1442885
162	0x3f128762	0.5723783
163	0x3f89f77f	1.0778655
164	0x3eea28ec	0.45734346
165	0x3f03ceb5	0.51487285
166	0x3ee6ac07	0.4505312
167	0x3f1722b3	0.5903732
168	0x3e1263c6	0.14295873
169	0x3edf0660	0.4355955
170	0x3e9befdb	0.30456433
171	0x3f2e3ee1	0.68064696
172	0x3f4f92a1	0.8108311
173	0x3f14ef6e	0.5817784
174	0x3f4ed0c7	0.8078732
175	0x3f1da636	0.6158174
176	0x3f448308	0.7676244
177	0x3f2051d6	0.6262487
178	0x3ea902b6	0.3300988
179	0x3f527b67	0.8221955
180	0x3ea290eb	0.3175119
181	0x3ee6c2bb	0.45070443
182	0x3d913122	0.070894495
183	0x3f136b30	0.5758543
184	0x3da00321	0.07813097
185	0x3f1f1f06	0.62156713
186	0x3e82c65f	0.2554197
187	0x3e380a70	0.17972732
188	0x3f04aadb	0.51823205
189	0x3e6200ab	0.22070567
190	0x3f149901	0.58045965
191	0x3ed827a1	0.42217734
192	0x3ebf0f3b	0.37316307
193	0x3f05cf71	0.52269655
194	0x3f029eed	0.5102375
195	0x3f14671f	0.5796985
196	0x3efe9738	0.49724746
197	0x3ee0da1f	0.43916413
198	0x3f59cfbd	0.8508261
199	0x3f444dfe	0.76681507
200	0x3f1c2660	0.60996056
201	0x3e7607f5	0.24026473
202	0x3f2cc655	0.6749013
203	0x3ee432f8	0.44570136
204	0x3f337341	0.7009774
205	0x3ef3a7c5	0.47588935
206	0x3ec35522	0.3815089
207	0x3ee4b3e0	0.44668484
208	0x3f255f8e	0.6459893
209	0x3f46e50f	0.77693266
210	0x3f654bc6	0.89568746
211	0x3f1b2ab2	0.6061202
212	0x3e41694a	0.18887821
213	0x3f0a44a1	0.5401097
214	0x3eebfb4b	0.4609016
215	0x3f572bda	0.8405129
216	0x3f405373	0.75127333
217	0x3ea66987	0.32502386
218	0x3e19fc28	0.15037596
219	0x3f34dc9c	0.70649123
220	0x3dc01f50	0.093809724
221	0x3f55ccd4	0.8351567
222	0x3ef831ec	0.48475587
223	0x3e69e8c7	0.22842704
224	0x3f0e9fd4	0.5571263
225	0x3e92fe91	0.28709844
226	0x3e8f3618	0.27970958
227	0x3f1e22b3	0.61771697
228	0x3f345c3c	0.7045324
229	0x3f24330f	0.6414041
230	0x3ef7a50f	0.48368117
231	0x3dca03d6	0.09864013
232	0x3f0f9efb	0.5610196
233	0x3eb8e57d	0.36112586
234	0x3ec609ab	0.3867925
235	0x3e6e1ee3	0.2325397
236	0x3e08004c	0.13281363
237	0x3f366530	0.7124815
238	0x3f3bdfbd	0.7338827
239	0x3e817337	0.25283214
240	0x3e056ca1	0.1302972
241	0x3e9c6342	0.30544478
242	0x3f3cad35	0.7370179
243	0x3f2bfaf6	0.6717981
244	0x3e49fe31	0.19725873
245	0x3f86e48a	1.0538495
246	0x3efcfe91	0.4941297
247	0x3f0d1433	0.55108947
248	0x3f6b67ec	0.9195545
249	0x3fb6141c	1.4224887
250	0x3fcf3563	1.6188167
251	0x3f1c343f	0.6101722
252	0x3f16afb5	0.5886186
253	0x3eb1735a	0.3465832
254	0x3f6b4b46	0.91911733
255	0x3f641379	0.8909221

encoder.lstm.weight_hh_l0 f4 [64, 16]
0	0xbe1f330a	-0.15546814
1	0x3ebfa978	0.37433982
2	0xbf0bc2b1	-0.5459395
3	0x3eecd550	0.46256495
4	0x3e21de77	0.1580752
5	0x3dd9d9c3	0.10637238
6	0x3e9321ed	0.2873682
7	0xbd8757e4	-0.06608561
8	0x3eb85a26	0.36006278
9	0x3eb783ad	0.35842648
10	0x3dec8c93	0.1155025
11	0x3e05e0de	0.13074061
12	0xbe4240af	-0.18969987
13	0xbe0b6d17	-0.13615833
14	0x3d169c45	0.036770124
15	0x3d1fee3e	0.039045565
16	0x3f88138b	1.0630964
17	0x3e91dded	0.28489628
18	0x3aee458a	0.0018178683
19	0x3f64ac37	0.8932528
20	0x3f7db1d2	0.9909946
21	0xbf8d932b	-1.1060537
22	0xbf060508	-0.5235143
23	0x3f67f2d1	0.90604883
24	0xbe0016e9	-0.1250874
25	0x3d79df16	0.061003767
26	0x3f422890	0.75843143
27	0x3f06e59b	0.526941
28	0xbf6dcb1d	-0.9288805
29	0xbf625cdc	-0.8842294
30	0x3f01a94f	0.5064897
31	0xbf86da49	-1.0535365
32	0x3e1bab48	0.15202057
33	0xbe5f1497	-0.21785198
34	0xbe4f5f7b	-0.20251267
35	0x3ed6bc25	0.41940418
36	0x3e804a36	0.25056618
37	0xbee153b4	-0.44009173
38	0x3e84ba79	0.25923517
39	0x3ee4b279	0.44667414
40	0x3e25a24c	0.16175193
41	0x3ed3471f	0.412652
42	0x3d037a11	0.032098833
43	0x3f2e25b1	0.6802626
44	0xbe4d4d39	-0.2004899
45	0xbe626879	-0.22110166
46	0x3ef7f64a	0.4843009
47	0xbee9c664	-0.45659173
48	0x3f5a1b46	0.85197866
49	0xbeb098a3	-0.34491453
50	0x3f23366a	0.63754904
51	0x3e9c1fa2	0.30492884
52	0x3f76ab80	0.9635544
53	0xbf9de2a3	-1.2334789
54	0xbe014ea6	-0.12627658
55	0x3f7f80ee	0.99806106
56	0xbedb6f6f	-0.42858455
57	0xbe3d0118	-0.18457448
58	0x3f51aec0	0.8190727
59	0x3f93b5b7	1.153983
60	0xbf85b8e5	-1.044705
61	0xbfb2fedd	-1.3984028
62	0x3faa724b	1.331613
63	0xbfa340dc	-1.2754169
64	0xbdc9cb50	-0.09853232
65	0x3ef41282	0.4767037
66	0xbf154c1a	-0.58319247
67	0x3ec1bd80	0.3783989
68	0x3ce80678	0.028323397
69	0xbe81c5cf	-0.25346228
70	0x3e303826	0.17208919
71	0x3e51b881	0.20480539
72	0xbd706405	-0.058689136
73	0x3e1f40f8	0.15552127
74	0x3db0d2bd	0.08633945
75	0x3ddc44e1	0.10755325
76	0x3dbdc863	0.09266736
77	0xbd5f6f79	-0.054549668
78	0x3e917a5a	0.2841366
79	0xbdbde9a6	-0.092730805
80	0x3e53c4dd	0.20680566
81	0xbd6a7dcc	-0.057248875
82	0xbeff5505	-0.49869552
83	0x3f000fd8	0.50024176
84	0xbcfbdbb9	-0.03074442
85	0xbe5e77c9	-0.21725382
86	0xbe10b7fb	-0.14132683
87	0x3caacf7f	0.020850895
88	0xbe08a61c	-0.13344616
89	0x3eb0c176	0.345226
90	0x3e066756	0.13125357
91	0xbdc61245	-0.096714534
92	0xbe85f89f	-0.26166245
93	0xbeafb469	-0.3431733
94	0x3c80a093	0.015701568
95	0xbe864f29	-0.2623227
96	0xbdedf8f5	-0.116197504
97	0x3e9d1ab6	0.3068444
98	0xbd5881c9	-0.052858148
99	0x3e0baeda	0.1364092
100	0x3e2f1b65	0.17100294
101	0x3e6e0ca0	0.23247004
102	0x3d3af71d	0.04564582
103	0x3e3b756f	0.18306516
104	0x3e0c40e3	0.13696627
105	0x3eb9f5df	0.36320397
106	0x3ec2cf17	0.38048622
107	0xbf7d324b	-0.98904866
108	0x3ce99914	0.028515376
109	0xbde1f83c	-0.11033675
110	0xbe0a4159	-0.1350149
111	0xbd7b0bac	-0.061290428
112	0xbdc6be65	-0.097042836
113	0x3e30fa4e	0.17282984
114	0xbee9a47c	-0.45633304
115	0x3f17518d	0.5910881
116	0x3d8aaf75	0.06771747
117	0xbe047cb0	-0.1293819
118	0x3de61c59	0.11235876
119	0x3dd7dfd7	0.10540741
120	0x3e804978	0.25056052
121	0xbd950693	-0.072766446
122	0x3eab0092	0.33398873
123	0xbe38d867	-0.18051301
124	0xbd5537af	-0.052055057
125	0xbe5f9af2	-0.2183645
126	0x3e436b28	0.19083846
127	0x3d0dce43	0.034620535
128	0x3ea7b73a	0.32756978
129	0x3e4e2e66	0.20134887
130	0xbe68d536	-0.22737584
131	0xbcfb7e9b	-0.030700019
132	0x3f0b86c8	0.54502535
133	0xbe0a4019	-0.13501014
134	0x3ea011ea	0.31263667
135	0x3ec6da52	0.3883844
136	0x3ee0c6ed	0.43901768
137	0x3f0f5228	0.55984735
138	0xbd8941d4	-0.06702009
139	0x3e92e430	0.28689718
140	0xbec6e97b	-0.38850006
141	0xbeb8906d	-0.36047688
142	0x3eb312e5	0.34975353
143	0xbe9e1d37	-0.30881664
144	0x3e6c0032	0.2304695
145	0x3deb2ccf	0.11483156
146	0x3d6cf7c8	0.05785349
147	0x3d8b310a	0.06796463
148	0x3eaffa02	0.34370428
149	0xbec363e5	-0.3816215
150	0x3c1814f6	0.009282341
151	0x3f0d2238	0.5513034
152	0x3e7a7b7d	0.2446117
153	0x3ebc1a54	0.36738837
154	0xbc442471	-0.011971579
155	0x3f2495fd	0.64291364
156	0xbf0c12dd	-0.54716283
157	0xbf0e2a38	-0.5553317
158	0x3ec3e673	0.38261756
159	0xbf207f3f	-0.6269416
160	0x3e93e262	0.28883654
161	0x3e0b223f	0.13587283
162	0x3f4c0a1a	0.79702914
163	0xbef07000	-0.4696045
164	0xbd643f04	-0.05572416
165	0xbed6f82e	-0.4198622
166	0x3db5fb52	0.08885826
167	0x3d4493ac	0.047992393
168	0xbe89e9d5	-0.26936212
169	0xbd892610	-0.06696713
170	0xbe596c15	-0.21232636
171	0x3e98c491	0.29837468
172	0xbe0ebbfa	-0.13938895
173	0xbc8e7f0b	-0.017394563
174	0xbeb98734	-0.36235964
175	0xbe75f80e	-0.24020407
176	0xbe65108d	-0.22369595
177	0x3fab2699	1.3371154
178	0xbf1212f2	-0.5706016
179	0x3f6b6bed	0.91961557
180	0xbe9fef90	-0.3123746
181	0x3e8d0941	0.27546123
182	0xbd539d2c	-0.051663563
183	0x3d1af252	0.03782875
184	0x3e9b0953	0.3028055
185	0x3f0bfae4	0.54679704
186	0xbd8da2ed	-0.06915841
187	0xbe82c872	-0.25543553
188	0x3ccfe619	0.025378274
189	0x3e6b4ad0	0.22977757
190	0x3d0abadf	0.03386962
191	0xbe2b4dd7	-0.16728912
192	0x3dc2ac71	0.09505547
193	0x3ec61638	0.38688827
194	0xbebc6fee	-0.36804146
195	0x3ede50ee	0.4342112
196	0x3e74cf0e	0.2390711
197	0x3ca0516e	0.019570079
198	0xbdb5185f	-0.08842539
199	0x3e800a0e	0.2500767
200	0x3e5d7cc3	0.21629624
201	0xba258d9a	-0.0006315351
202	0x3e848c71	0.25888398
203	0x3e11591e	0.14194152
204	0x3e36c3ce	0.17848131
205	0xbe270efc	-0.1631431
206	0x3c5dcd33	0.013537693
207	0x3ddf2ea8	0.10897571
208	0x3e5ed529	0.21761002
209	0x3d76c5e8	0.06024733
210	0xbeb8135f	-0.3595228
211	0x3f1be791	0.6090022
212	0x3ddd0ad7	0.10793083
213	0xbd4fb9cc	-0.0507143
214	0xbb75bd80	-0.0037496984
215	0x3e39760d	0.18111439
216	0x3e31d346	0.1736575
217	0x3ebaec96	0.36508626
218	0xbdf652ce	-0.120275125
219	0xbca25c4c	-0.019819401
220	0xbd6d04ba	-0.057865836
221	0x3d40c36b	0.047061365
222	0x3e055652	0.1302121
223	0x3d91eae2	0.071248785
224	0xbc9325ea	-0.017962415
225	0xbed4dbb1	-0.4157386
226	0x3f2c9fea	0.6743151
227	0xbf2a540d	-0.665345
228	0x3ebc2e7d	0.36754218
229	0xbe3841bb	-0.17993824
230	0x3f079dd6	0.52975214
231	0x3e819888	0.25311685
232	0xbd5d9edb	-0.054106575
233	0xbeecd2e3	-0.46254644
234	0xbd8ed619	-0.0697443
235	0x3ea86470	0.32889128
236	0xbe6faa45	-0.23404796
237	0xbdfd46b1	-0.12366999
238	0xba87ef05	-0.0010370916
239	0xbe28c99e	-0.16483161
240	0xbbd6ad9f	-0.006551459
241	0x3e31c082	0.17358592
242	0xbf05881e	-0.52160823
243	0x3f48a56d	0.7837742
244	0x3d19ff1a	0.0375968
245	0xbc700e34	-0.014651824
246	0x3de28ce5	0.1106203
247	0xbda0edb0	-0.07857835
248	0x3e71cac8	0.23612511
249	0x3e5c89ba	0.21536914
250	0x3e2b0896	0.16702494
251	0x3c6e39a8	0.0145401135
252	0x3cf3ea9c	0.029774956
253	0xbda143d3	-0.078742646
254	0x3e4e13ec	0.20124787
255	0xbcfbc366	-0.030732822

encoder.lstm.bias_ih_l0 f4 [64]
0	0xbe36fef8	-0.178707
1	0x3f2c3bf7	0.67279
2	0x3e3238b7	0.17404447
3	0x3f7a9385	0.97881347
4	0xbe598b91	-0.21244647
5	0x3e79af28	0.24383223
6	0x3e2e920a	0.17047897
7	0xbdbe9e57	-0.09307545
8	0x3b28f64f	0.0025781577
9	0x3edae4a1	0.42752555
10	0xbddfec3a	-0.109337285
11	0x3e394331	0.18092038
12	0xbd5949a6	-0.053048752
13	0xbe359bd4	-0.17735225
14	0x3df9272a	0.12165673
15	0x3e53db6e	0.20689175
16	0xbe8bad9a	-0.27280885
17	0xbe815500	-0.25260162
18	0xbea6df5a	-0.3259228
19	0xbef06faf	-0.46960208
20	0xb890e235	-6.9085894e-05
21	0xbe4fb776	-0.20284829
22	0xbe80544a	-0.25064307
23	0xbe4bc9f0	-0.19901252
24	0xbed3d178	-0.4137075
25	0xbe012817	-0.1261295
26	0xbe0e832c	-0.13917226
27	0xbe602b9f	-0.2189164
28	0xbe5c33ff	-0.2150421
29	0x3e831da3	0.2560855
30	0xbe55db38	-0.20884407
31	0x3e6e5f48	0.23278534
32	0x3e0c25a4	0.13686234
33	0x3e53e1eb	0.2069165
34	0xbd036047	-0.03207424
35	0xbd924b87	-0.07143312
36	0x3ab274c1	0.0013615118
37	0x3e639d36	0.2222794
38	0xbde73d24	-0.112909585
39	0x3e42a4a5	0.1900812
40	0x3e49193b	0.19638531
41	0x3e8eab54	0.27865088
42	0x3d5e4754	0.054267243
43	0xbdb72d37	-0.08944171
44	0xbdd2a00e	-0.10284434
45	0xbe145f13	-0.14489393
46	0xbdedf936	-0.11619799
47	0xbe0ba666	-0.13637695
48	0xbe94b68f	-0.2904553
49	0x3f297d7a	0.6620709
50	0x3f1e4bbb	0.61834306
51	0x3f401d24	0.75044465
52	0xbe581966	-0.21103439
53	0x3e6032b2	0.21894339
54	0x3ebb82d9	0.36623266
55	0x3e5425b3	0.20717506
56	0x3e9762d9	0.29567602
57	0x3f0adb02	0.5424043
58	0xbdb28e2c	-0.087185234
59	0x3d9b4a3f	0.07582521
60	0xbbed7134	-0.007246161
61	0xbe612210	-0.2198565
62	0x3e259070	0.1616838
63	0x3dd90ed2	0.1059853

encoder.lstm.bias_hh_l0 f4 [64]
0	0x3d15cdde	0.036573283
1	0x3f82d39f	1.0220832
2	0x3ee9c6ba	0.4565943
3	0x3f5023e2	0.8130475
4	0x3de7d43d	0.11319778
5	0x3e021eb6	0.12707028
6	0x3d99e69d	0.07514689
7	0x3dd7253f	0.10505151
8	0x3e3f9dfb	0.18712609
9	0x3eb94eea	0.3619302
10	0x3e4bac79	0.19890012
11	0x3e44c81d	0.19216962
12	0xbd831ea4	-0.064023286
13	0x3c32a8f2	0.0109045375
14	0xbd563b86	-0.05230286
15	0x3e0b9312	0.13630322
16	0x3d2039f1	0.039117757
17	0x3d4a30f9	0.04936311
18	0xbe9581d1	-0.29200605
19	0xbed366bd	-0.4128932
20	0xbdac4b59	-0.08412809
21	0x3e005cd4	0.12535411
22	0xbe37a144	-0.17932612
23	0xbdcc8214	-0.09985748
24	0xbd7cfcb4	-0.061764434
25	0x3ddea726	0.10871725
26	0x3d2e6ef0	0.042586267
27	0xbe809d46	-0.2511999
28	0xbd65190e	-0.055932097
29	0x3e8e97b7	0.27850124
30	0x3d9f8fbc	0.07791087
31	0xbd4f3243	-0.050585043
32	0xbd113e0c	-0.035459563
33	0x3b083af6	0.0020787097
34	0xbe64b445	-0.22334392
35	0x3e8deec4	0.27721226
36	0x3d6b80dc	0.057495937
37	0xbe226a3a	-0.15860835
38	0x3d6ce33e	0.057833903
39	0xbd4a3de1	-0.04937542
40	0x3e3fb147	0.1871997
41	0x3da96e0b	0.08272942
42	0x3da44d3c	0.08022544
43	0x3d7a2933	0.061074447
44	0xbd2f613f	-0.04281735
45	0xbe72fec5	-0.2373
46	0x3d66e661	0.05637205
47	0xbe1d458c	-0.15358561
48	0xbdf2c7de	-0.11854528
49	0x3f450138	0.76954985
50	0x3e8bdbcb	0.27316126
51	0x3f923093	1.1421074
52	0x3e2a18dc	0.16611046
53	0xbb8e2bc0	-0.0043387115
54	0x3ec8a5d4	0.39189017
55	0xbe3b2150	-0.18274426
56	0xbc29e35e	-0.01036915
57	0x3ec5db06	0.38643664
58	0x3d14dfb5	0.036346156
59	0x3df09fae	0.117492065
60	0x3e0b5bfd	0.1360931
61	0xbdb01ba7	-0.08599024
62	0xbc1e56d3	-0.009664255
63	0x3de38758	0.11109799

encoder.U_e.weight f4 [3, 3]
0	0xbda1662f	-0.07880818
1	0x3b9807a3	0.0046395822
2	0x3ee050a8	0.43811536
3	0xbf1653f3	-0.58721846
4	0xbe9cda79	-0.3063543
5	0xbf4674c4	-0.7752192
6	0xbec98e96	-0.39366597
7	0x3f04e10c	0.51905894
8	0xbeef1e99	-0.46703032

encoder.U_e.bias f4 [3]
0	0xbf332930	-0.6998472
1	0x3f6b81c3	0.91994876
2	0x3ef2b07b	0.4740027

encoder.W_e.weight f4 [3, 32]
0	0xbe4fb7f7	-0.20285021
1	0x3e0ef8f9	0.13962163
2	0xbe9c0d8e	-0.3047909
3	0x3f4c6f10	0.7985697
4	0xbd9256b5	-0.07145444
5	0x3dcd2ee0	0.10018706
6	0xbb9f821a	-0.0048678042
7	0xbcbc8a5a	-0.02301519
8	0x3e3e3dbf	0.18578242
9	0x3d87fe7d	0.06640337
10	0x3cc27836	0.023738962
11	0xbeb4dd3e	-0.35325044
12	0x3bd368c5	0.0064516985
13	0xbce385f6	-0.027773838
14	0x3bf44d97	0.0074555385
15	0x3e54b0a8	0.20770514
16	0xbe1a0eb5	-0.15044673
17	0x3e046924	0.12930733
18	0xbef3e1f9	-0.4763334
19	0x3f26c4ad	0.65143853
20	0xbde4f736	-0.11179964
21	0x3dd5b09c	0.10434076
22	0xbe40fab9	-0.18845643
23	0xbd87bae4	-0.066274434
24	0x3e19b9f5	0.15012343
25	0x3e30b957	0.17258202
26	0xbaf3b126	-0.0018592223
27	0xbebfa357	-0.37429306
28	0x3e1c5948	0.15268433
29	0x3c8d93d5	0.017282406
30	0x3e83adf5	0.25718656
31	0x3dbba85e	0.09162973
32	0x3dd6ac5a	0.10482092
33	0x3dbb026e	0.09131323
34	0x3e5cdbcd	0.21568222
35	0xbf1b08dd	-0.605604
36	0x3e10c8b7	0.14139067
37	0xbcc827cf	-0.024433045
38	0x3c85b97f	0.016323803
39	0x3e2c7235	0.16840442
40	0xbc6e0618	-0.01452782
41	0xbd8fc0a3	-0.070191644
42	0xbdeb2133	-0.114809416
43	0x3f059768	0.5218415
44	0xbea06b9a	-0.31332093
45	0xbd8317ef	-0.06401049
46	0xbe4af658	-0.19820535
47	0xbcbf8805	-0.023380289
48	0x3eb72c61	0.35776046
49	0x3d671e74	0.056425527
50	0x3eb18fff	0.34680173
51	0xbf59e500	-0.8511505
52	0x3e2b5682	0.16732219
53	0xbdddbba7	-0.108268075
54	0xbd22f9a6	-0.039788865
55	0x3ea5f5aa	0.3241399
56	0xbd4fef1d	-0.050765146
57	0xbe173e98	-0.14769971
58	0x3dd0c7ee	0.101943836
59	0x3f157026	0.5837425
60	0xbdd8c2b1	-0.105840094
61	0xbe1f207f	-0.1553974
62	0xbbc19cd5	-0.0059085884
63	0xbdc81186	-0.09768967
64	0x3eaf36b3	0.3422142
65	0x3d5a52ae	0.053301506
66	0x3e0d4206	0.13794717
67	0xbf38a549	-0.72127205
68	0x3d3d3953	0.046197247
69	0xbd495c0a	-0.04916004
70	0x3df799ab	0.12089857
71	0x3f046718	0.5171981
72	0xbec6bf4c	-0.38817823
73	0xbd8fc7d7	-0.07020538
74	0xbd145dfb	-0.03622244
75	0x3ece9751	0.4034982
76	0xbecc5c1a	-0.39914018
77	0xbee230d9	-0.44177893
78	0xbda77c29	-0.081779785
79	0xbe312fa6	-0.17303333
80	0x3ec4bb2f	0.3842406
81	0xbe86fd18	-0.2636497
82	0x3ea942c5	0.33058754
83	0xbf4aadce	-0.79171455
84	0x3e1c6815	0.15274079
85	0xbc80aaac	-0.015706383
86	0xbe0d4bb8	-0.13798416
87	0x3edc2b24	0.43001664
88	0xbeca800c	-0.39550817
89	0xbe1c12fc	-0.15241617
90	0x3e0c54f7	0.13704287
91	0x3ef2e074	0.4743687
92	0xbe1b5e92	-0.15172794
93	0xbe57a968	-0.21060717
94	0xbd576df1	-0.052595083
95	0xbed2f3a4	-0.41201508

encoder.W_e.bias f4 [3]
0	0xbf138ad0	-0.57633686
1	0x3f05d41f	0.52276796
2	0x3f70e85e	0.94104564

encoder.v_e.weight f4 [1, 3]
0	0x3f16b75f	0.5887355
1	0xbcfdd0db	-0.03098338
2	0xbecd6c55	-0.40121713

decoder.W_d.weight f4 [16, 32]
0	0xbe18a55f	-0.14906834
1	0x3d882129	0.0664695
2	0x3dbae7d7	0.09126251
3	0x3d8f1dfa	0.069881395
4	0x3e17a73c	0.14809889
5	0x3c1bb029	0.009502449
6	0xbe120a51	-0.14261748
7	0xbcb654c8	-0.022257224
8	0x3c5f4086	0.013626223
9	0xbd0ae203	-0.033906948
10	0x3d8c90e0	0.0686357
11	0x3db176bd	0.08665226
12	0xbd9d0163	-0.0766628
13	0xbd2dcb3f	-0.04243016
14	0xbd5feea0	-0.05467093
15	0xbd93b99b	-0.07213136
16	0xbe1b61ed	-0.15174074
17	0xbd8413c2	-0.06449081
18	0xbcba341a	-0.022729922
19	0xbe12d2d4	-0.14338237
20	0xbe0dde32	-0.13854292
21	0x3e188cef	0.14897512
22	0x3decf03a	0.11569257
23	0xbe10fa0d	-0.14157887
24	0xbde7aeae	-0.113126144
25	0x3d85fbdf	0.06542181
26	0x3d381a31	0.044946853
27	0xbdf0b710	-0.117536664
28	0xbcb0671c	-0.021533541
29	0xbe068796	-0.1313766
30	0xbbdfe942	-0.0068332264
31	0xbdf8d389	-0.12149722
32	0xbcdb5a7c	-0.026776545
33	0xbc1b8b92	-0.009493725
34	0xbdd7e2ae	-0.105412826
35	0x3e15eb49	0.14640535
36	0xbd0893cd	-0.03334408
37	0x3db9d299	0.090733714
38	0x3cd19d3a	0.025587667
39	0xbd9f5c10	-0.077812314
40	0x3dc58a33	0.096455
41	0xbc825053	-0.015907442
42	0xbda77774	-0.08177081
43	0xbcb7dc2a	-0.02244385
44	0xbe0e80a6	-0.13916263
45	0xbcfe58a5	-0.031048128
46	0x3d3349ba	0.043771483
47	0x3df71749	0.12064988
48	0xbda56079	-0.08075041
49	0xbe2a2793	-0.16616659
50	0xbdbe06a3	-0.092786096
51	0xbdae9682	-0.08524801
52	0x3b915f35	0.0044363984
53	0xbd874cfc	-0.066064805
54	0x3e1ed883	0.1551228
55	0xbd66a611	-0.056310717
56	0xbd252743	-0.040320646
57	0xbe1a0e18	-0.15044439
58	0x3e0cbfe0	0.1374507
59	0x3dfb64b7	0.12275069
60	0xbe23beff	-0.15990828
61	0xbc432271	-0.011910067
62	0x3da5fc5b	0.081047736
63	0x3db4adfa	0.08822246
64	0xbdc79647	-0.0974546
65	0x3b8b86f8	0.004258033
66	0x3cda884d	0.026676321
67	0xbe0b8bca	-0.13627544
68	0xbe2a14b9	-0.16609468
69	0x3d6b3914	0.05742748
70	0xbe114718	-0.14187276
71	0x3d4c9d0e	0.049954467
72	0xbd2c4dc3	-0.042066347
73	0x3bcab5dc	0.00618623
74	0x3caefeb5	0.021361688
75	0xbc8a96a4	-0.016917534
76	0xbd411033	-0.04713459
77	0xbcd2f3a5	-0.025750944
78	0xbd2bb167	-0.04191723
79	0x3c9999e6	0.018750142
80	0x3e27e4d1	0.1639588
81	0x3e06b7b5	0.13156016
82	0xbcfc1fa5	-0.030776808
83	0x3df364e1	0.118844755
84	0x3dacce1d	0.084377505
85	0x3dc686de	0.096936926
86	0xbd1eff19	-0.0388175
87	0xbdc64b68	-0.09682351
88	0x3dcfea9a	0.101521686
89	0x3d751bcb	0.05984096
90	0xbe236256	-0.15955481
91	0x3da24171	0.07922638
92	0xbd8c7eee	-0.068601474
93	0xbcc63398	-0.024194524
94	0x3d0cf2cc	0.034411237
95	0x3dae2b1a	0.08504315
96	0x3d3ec32e	0.046572857
97	0xbdcd9b29	-0.1003936
98	0xbd4d832d	-0.050173927
99	0xbc88e518	-0.016710803
100	0x3e0afa23	0.13571982
101	0x3d5a4558	0.053288788
102	0x3e2e15f8	0.17000568
103	0x3df8b995	0.12144772
104	0xbd69fc68	-0.05712548
105	0xbd4dd5ff	-0.05025291
106	0xbd5ed62c	-0.05440347
107	0x3e1afe82	0.1513615
108	0x3c263b47	0.010145969
109	0x3e286fef	0.1644895
110	0x3dad86db	0.08472987
111	0x3dd45037	0.10366862
112	0x3da5e508	0.08100325
113	0xbdab3d4b	-0.083613
114	0x3d82c894	0.063859135
115	0xbda5a340	-0.08087778
116	0xbdcc9bf0	-0.0999068
117	0x3e1538d9	0.14572467
118	0xbe106162	-0.14099649
119	0x3dbd49f6	0.092426226
120	0x3dbfa77d	0.09358118
121	0xbcb3a4ad	-0.02192911
122	0xbb8955e1	-0.0041911458
123	0x3d7b3bc2	0.061336286
124	0xbcd52a6f	-0.02602121
125	0xbe23fc30	-0.1601417
126	0x3de833f5	0.11338035
127	0x3d28b291	0.04118592
128	0x3d975771	0.07389725
129	0x3dc9d6bf	0.09855413
130	0x3dfbf921	0.12303377
131	0x3d3a38f6	0.04546448
132	0xbdf9dd52	-0.122004166
133	0x3e31e22c	0.17371434
134	0xbe097ebd	-0.13427253
135	0x3cd20022	0.025634829
136	0xbd5e3e02	-0.054258354
137	0x3e102ef9	0.14080419
138	0x3ddffad3	0.10936513
139	0xbd9fb4c2	-0.07798149
140	0x3e19ef70	0.15032744
141	0x3de89a44	0.11357549
142	0xbe2ce1bb	-0.16882984
143	0x3dce2b66	0.10066871
144	0xbcfdbf61	-0.030975046
145	0xbde42004	-0.11138919
146	0x3e320aee	0.17386982
147	0x3e31a3d2	0.17347649
148	0x3bb3430d	0.0054706396
149	0xbe21c643	-0.15798287
150	0x3b167be2	0.0022962024
151	0x3dbff87f	0.09373569
152	0x3cf4163b	0.029795757
153	0xbe2f5ad5	-0.17124493
154	0x3e2b0e18	0.16704595
155	0x3c841fa8	0.016128376
156	0xbd48d687	-0.049032714
157	0xbe1a9bcb	-0.15098493
158	0x3dc02763	0.093825124
159	0x3d9dcb77	0.077048235
160	0x3ddb389d	0.107041575
161	0x3df0768a	0.117413595
162	0x3d4d1a86	0.050074123
163	0xbe0e8757	-0.13918816
164	0xbdfd5c9b	-0.12371179
165	0x3e2a791f	0.16647767
166	0x3d8fdbab	0.0702432
167	0xbe2207d2	-0.15823296
168	0xbdf44d7c	-0.119288415
169	0x3e146c25	0.14494379
170	0xbdaddf41	-0.08489848
171	0x3d7c856d	0.061650682
172	0xbd22916f	-0.039689478
173	0x3d9127f9	0.07087702
174	0xbd22318d	-0.039598037
175	0x3d4c7e30	0.04992503
176	0xbdd54636	-0.10413782
177	0x3dfdbc19	0.123893924
178	0xbda529ce	-0.08064614
179	0xbe3274a6	-0.1742731
180	0x3d30d3a1	0.043170575
181	0x3d82f4c6	0.06394343
182	0xbdcd86b0	-0.10035455
183	0xbd5ecd66	-0.054395102
184	0x3e13a11f	0.14416932
185	0xbd0248a3	-0.031807553
186	0x3dcfc175	0.10144321
187	0x3e268328	0.1626097
188	0x3daa3b2e	0.08312069
189	0x3ddd105a	0.107941344
190	0xbe044092	-0.12915257
191	0xbdde743c	-0.10862014
192	0xbd0b7bd5	-0.034053642
193	0xbd36f551	-0.044667546
194	0xbc1f75e4	-0.009732697
195	0x3de1e79c	0.11030504
196	0xbe2f9634	-0.17147142
197	0x3de2e21b	0.110782824
198	0x3e239b71	0.15977265
199	0x3de405ee	0.111339435
200	0x3e016195	0.12634881
201	0x3e14944d	0.14509697
202	0xbcf6c743	-0.030124312
203	0xbd634e9a	-0.055494882
204	0xbe133348	-0.14375031
205	0x3e022d6b	0.12712638
206	0x3d1e1dc6	0.038602613
207	0x3aa6274d	0.0012676507
208	0xbdc67862	-0.0969093
209	0x3cc4f960	0.024044693
210	0xbde54297	-0.11194342
211	0xbe309994	-0.17246085
212	0xbd7cd543	-0.06172682
213	0x3d37ec95	0.044903357
214	0xbe1d36fe	-0.15353009
215	0x3e223cd4	0.15843517
216	0x3d44317c	0.047898754
217	0xbdabbf42	-0.08386089
218	0x3bd720d5	0.006565193
219	0xbd744990	-0.059640467
220	0x3dfe44de	0.12415479
221	0xbe0a32a4	-0.1349588
222	0x3e179646	0.14803419
223	0xbdc2bc9e	-0.09508632
224	0x3e1ddb38	0.15415657
225	0xbdea1d2d	-0.11431346
226	0xbe0df400	-0.1386261
227	0xbd94a0e0	-0.07257247
228	0xbc66b85d	-0.014082042
229	0xbd8a714f	-0.06759893
230	0xbe23c573	-0.1599329
231	0xbe18cfe6	-0.14923057
232	0x3e26bbe9	0.1628262
233	0xbe2ad28a	-0.16681877
234	0x3cf2db2b	0.029645523
235	0xbe2012e3	-0.15632205
236	0x3e24e8ce	0.16104433
237	0xbde88015	-0.11352555
238	0x3e254c49	0.16142382
239	0x3e0b5d9e	0.13609931
240	0xbe20dca1	-0.15709163
241	0xbda64fc5	-0.081206836
242	0xbd92a7c5	-0.07160906
243	0x3dc65dd5	0.09685866
244	0xbd05a37c	-0.032626614
245	0x3cba903f	0.02277386
246	0xbdaac505	-0.0833836
247	0xbd3abdcf	-0.04559117
248	0x3e01f3a4	0.12690598
249	0xbe13360d	-0.14376087
250	0x3c1117ca	0.008855769
251	0x3d9a230e	0.075262174
252	0xbca58751	-0.020206125
253	0x3d7ffdf3	0.062498044
254	0xbda9178a	-0.08256443
255	0xbdbb8613	-0.09156432

decoder.W_d.bias f4 [16]
0	0x3ebdb9f3	0.3705593
1	0xbe331e93	-0.17492132
2	0xbda6ab92	-0.08138193
3	0xbe52563c	-0.20540708
4	0xbe3861ed	-0.18006106
5	0x3e3b6e7b	0.18303864
6	0xbe1bcf1d	-0.15215726
7	0x3e8d1bf9	0.27560404
8	0xbe637a46	-0.22214612
9	0xbe2f6ec1	-0.17132093
10	0x3e8d355e	0.27579778
11	0x3e2aa704	0.16665274
12	0xbe0c2095	-0.13684304
13	0xbe08fe1f	-0.1337819
14	0xbe9b259e	-0.30302137
15	0xbe8cc7f7	-0.2749631

decoder.U_d.weight f4 [16, 16]
0	0xbed40d1e	-0.41416258
1	0x400d010f	2.2031896
2	0xbf1d4f24	-0.61448884
3	0x402c0ceb	2.6882885
4	0xbebcdd75	-0.36887708
5	0x3f2742ab	0.653361
6	0x3cb92de9	0.0226049
7	0xbe512fa7	-0.20428334
8	0x3e67e9e2	0.22647813
9	0x3f5281a6	0.8222908
10	0xbf0a3992	-0.53994095
11	0xbec63433	-0.387117
12	0x3efbd44a	0.491854
13	0x3eb3a71c	0.35088432
14	0xbf041c44	-0.5160563
15	0x3cee2a7c	0.029072993
16	0x3f138c3e	0.5763587
17	0xc012aabc	-2.2916708
18	0x3e9ea0be	0.30982012
19	0xc0261897	-2.5952508
20	0x3e5c5c6a	0.21519628
21	0xbf1ca18d	-0.61184007
22	0xbe449e16	-0.1920093
23	0x3e668012	0.22509792
24	0xbec392ac	-0.3819784
25	0xbf09f6c7	-0.5389218
26	0x3f1342a0	0.57523537
27	0x3d619864	0.05507697
28	0xbe6f052e	-0.2334182
29	0xbeea98e2	-0.45819765
30	0x3e74e4ba	0.23915377
31	0xbe4173a5	-0.18891771
32	0x3dbabc26	0.09117918
33	0xc0169075	-2.352567
34	0x3f11b8c6	0.56922567
35	0xc00da0ac	-2.2129316
36	0x3cd963b3	0.026536798
37	0xbee58be4	-0.4483329
38	0x3dc6fd66	0.09716301
39	0x3e3cdf5b	0.18444578
40	0xbede4909	-0.43415096
41	0xbf12d686	-0.57358587
42	0x3ea0ec75	0.31430402
43	0x3e38a81e	0.18032882
44	0xbe12affd	-0.14324947
45	0x3d2dad98	0.04240188
46	0x3ec6afbe	0.38805956
47	0xbd9267db	-0.07148715
48	0x3efe06c0	0.49614525
49	0xc0077383	-2.1164253
50	0x3f422702	0.7584077
51	0xc00f2c88	-2.237093
52	0x3d49523c	0.04915069
53	0xbf18d0f5	-0.59693843
54	0xbe9ffa33	-0.31245574
55	0x3ecb3e46	0.39695948
56	0xbea12031	-0.31469873
57	0xbf12a5d0	-0.5728426
58	0x3ed33c59	0.4125698
59	0x3d046a80	0.03232813
60	0xbc4e2228	-0.012581386
61	0xbee80451	-0.45315793
62	0x3edb9177	0.42884418
63	0xbcb849f7	-0.022496207
64	0x3ec51fad	0.3850073
65	0xc0088ccb	-2.1335933
66	0x3f3e10da	0.74244463
67	0xc01ecb8b	-2.4811733
68	0x3eae3e7f	0.34032056
69	0xbf0a468d	-0.540139
70	0xbdcdd87e	-0.10051058
71	0x3eec7313	0.46181545
72	0xbe1d830a	-0.15382019
73	0xbf3bf7ad	-0.734248
74	0x3f02885f	0.50989336
75	0x3e0dce78	0.13848293
76	0xbd9d61ae	-0.076846465
77	0x3b0c9b38	0.0021454822
78	0x3e894614	0.26811278
79	0xbea9c78e	-0.3316006
80	0xbeb3be64	-0.35106194
81	0x4020e57c	2.5140066
82	0xbec3a43d	-0.3821124
83	0x4015ff97	2.343725
84	0xbee67c75	-0.45016828
85	0x3e8563d4	0.26052725
86	0x3e99524b	0.29945597
87	0xbe2f8078	-0.1713885
88	0x3f0969bd	0.5367697
89	0x3f080d2a	0.53145087
90	0xbe82fe00	-0.25584412
91	0xbe07e5f1	-0.1327131
92	0x3e613afd	0.21995158
93	0x3ccf2db8	0.025290355
94	0xbe82a1ee	-0.25514168
95	0x3df181b2	0.117923155
96	0x3f02094b	0.5079543
97	0xc00cb7e7	-2.1987245
98	0x3f382394	0.7192929
99	0xc013e543	-2.310868
100	0x3e55581a	0.2083439
101	0xbef55ace	-0.4792084
102	0xbd396b06	-0.04526808
103	0x3de26273	0.11053934
104	0xbe4ebd5f	-0.20189427
105	0xbecbeaea	-0.39827663
106	0x3ea0f761	0.31438735
107	0x3e5e2544	0.21693903
108	0xbee696d5	-0.4503695
109	0x3bee3dc5	0.007270547
110	0x3e6af67a	0.22945586
111	0xbecb58a5	-0.39716068
112	0xbf074b7f	-0.5284957
113	0x40165ddb	2.3494785
114	0xbf19bf14	-0.6005719
115	0x401a689f	2.4126356
116	0xbebf95bf	-0.37418935
117	0x3f2ceb5e	0.6754664
118	0x3e22c6e2	0.1589618
119	0xbf13b620	-0.57699776
120	0x3ef64bbf	0.48104665
121	0x3f1c641a	0.6109024
122	0xbeabeb2e	-0.33577865
123	0xbec6ed1c	-0.38852775
124	0x3dbd405e	0.09240793
125	0x3e81b7c7	0.25335523
126	0xbea3735b	-0.31923947
127	0x3d37cc71	0.044872705
128	0x3e43e33e	0.19129655
129	0xc017dd8d	-2.3728974
130	0x3f226e88	0.6344991
131	0xc020f95e	-2.5152202
132	0x3eaa8688	0.33305764
133	0xbf3e6f9b	-0.74389046
134	0xbe875ac7	-0.26436445
135	0x3f0f8f1a	0.5607773
136	0xbef9f81c	-0.48822105
137	0xbf09da9b	-0.5384919
138	0x3edffb85	0.43746582
139	0x3d3e1dda	0.046415187
140	0xbe063027	-0.13104306
141	0xbdbdfba1	-0.0927651
142	0x3f0e3eea	0.5556475
143	0xbd1137a3	-0.03545345
144	0x3eb64ed0	0.35607004
145	0xc00ac736	-2.1684089
146	0x3f1f9234	0.62332463
147	0xc02cba1a	-2.6988587
148	0x3e0cbe0d	0.13744374
149	0xbf1c9a40	-0.61172867
150	0xbe887a82	-0.26655966
151	0x3deed163	0.11661031
152	0xbee9d89a	-0.45673066
153	0xbf58b893	-0.8465664
154	0x3ef92dcb	0.4866775
155	0xbd27bddb	-0.040952545
156	0xbe886286	-0.26637667
157	0xbeb92cfe	-0.3616714
158	0x3e99f62b	0.30070624
159	0xbdca81b5	-0.09888021
160	0xbe804c85	-0.2505838
161	0x40089343	2.1339881
162	0xbf3b6b4d	-0.73210603
163	0x4016ec34	2.3581667
164	0xbe2ab7cf	-0.1667168
165	0x3eea7b97	0.45797417
166	0x3e51b17b	0.2047786
167	0xbe1b2d93	-0.15154104
168	0x3e3a8572	0.18214968
169	0x3edf9bcf	0.4367356
170	0xbe2e2af0	-0.17008567
171	0x3d110234	0.03540249
172	0x3ee9e31a	0.45681077
173	0x3ee06383	0.4382592
174	0xbed14f64	-0.40880883
175	0x3e4625ca	0.19350353
176	0xbdec718e	-0.11545096
177	0x40277876	2.6167274
178	0xbf39849c	-0.7246797
179	0x4017c67e	2.37149
180	0xbde56995	-0.11201779
181	0x3f2792ff	0.65458673
182	0x3d3f471f	0.046698686
183	0xbf0a9ad4	-0.541425
184	0x3f055583	0.52083606
185	0x3ebdf23d	0.37098876
186	0xbea9b7cf	-0.33148047
187	0xbd7e0f0a	-0.06202606
188	0x3e9f349c	0.31094825
189	0x3e802f30	0.25036
190	0xbe3fe4f5	-0.18739684
191	0x3eaec405	0.34133926
192	0x3eaa6b87	0.33285162
193	0xc02151a8	-2.520609
194	0x3ee9bc3f	0.45651433
195	0xc01bbc3b	-2.4333637
196	0x3ec15c1a	0.3776558
197	0xbeb1c9ff	-0.34724423
198	0xbe2ab9ca	-0.16672435
199	0x3e5cbfe5	0.21557577
200	0xbe8713f6	-0.26382416
201	0xbf286928	-0.65785456
202	0x3e8d8900	0.27643585
203	0x3ebd0307	0.36916372
204	0xbe91ce4a	-0.284777
205	0xbe75d1e6	-0.24005851
206	0x3ed46965	0.4148666
207	0xbedda559	-0.43290213
208	0x3ed8cf84	0.42345822
209	0xc0213410	-2.5188026
210	0x3f32c298	0.69828176
211	0xc0142cb8	-2.3152294
212	0x3e875837	0.2643449
213	0xbf29dcce	-0.66352546
214	0xbe82f237	-0.2557542
215	0x3e3619cc	0.17783278
216	0xbe850b71	-0.25985292
217	0xbeed3647	-0.46330473
218	0x3ed97f74	0.42480052
219	0xbd3e5226	-0.04646506
220	0xbecd6d9e	-0.40122694
221	0xbe853c3f	-0.26022527
222	0x3ef144d3	0.4712282
223	0xbe6abc94	-0.229235
224	0x3ef39cd5	0.4758059
225	0xc0178572	-2.3675199
226	0x3f09331e	0.53593624
227	0xc02874f7	-2.632139
228	0x3ec8510a	0.39124328
229	0xbf3a1776	-0.7269205
230	0xbe72d88f	-0.23715423
231	0x3f19095e	0.5977992
232	0xbf15accc	-0.5846679
233	0xbee324ec	-0.44364107
234	0x3e22ef76	0.1591166
235	0x3ecac93b	0.39606652
236	0xbf001138	-0.50026274
237	0xbd75cb7d	-0.060008515
238	0x3f022d3c	0.5085027
239	0xbeea5905	-0.45771042
240	0x3d8d2c87	0.068932585
241	0xc0156842	-2.3344884
242	0x3ee31916	0.44355077
243	0xc016b21f	-2.3546216
244	0x3dd0528f	0.10171997
245	0xbed6067d	-0.41801825
246	0xbe260fea	-0.16217008
247	0x3e5fe116	0.21863207
248	0xbea7a9db	-0.32746777
249	0xbed666d8	-0.4187534
250	0x3eced993	0.4040037
251	0x3cad25d6	0.021136206
252	0xbf016407	-0.50543255
253	0xbe2fb7ca	-0.17159954
254	0x3ef0c688	0.47026467
255	0xbda93323	-0.08261707

decoder.U_d.bias f4 [16]
0	0x3d876491	0.066109784
1	0xbe75d948	-0.24008667
2	0xbe107125	-0.14105661
3	0xbe239c59	-0.1597761
4	0xbe4a7311	-0.19770457
5	0x3db279d4	0.08714643
6	0xbe65537b	-0.22395127
7	0x3df8ae3a	0.12142606
8	0xbdf98baf	-0.12184846
9	0xbe51528b	-0.20441644
10	0x3e0057f4	0.12533551
11	0x3e7e09d7	0.24808441
12	0xbe995e60	-0.29954815
13	0xbe90ef35	-0.283075
14	0xbe597cee	-0.21239063
15	0xbca23aab	-0.019803366

decoder.v_d.weight f4 [1, 16]
0	0xbf1c5b2e	-0.6107663
1	0x3f30830b	0.68949956
2	0x3ef5ea1e	0.4803018
3	0x3f14f34c	0.5818374
4	0x3f2bf711	0.6717387
5	0xbf3c1886	-0.7347492
6	0x3f1d013a	0.61329997
7	0xbf0fbd76	-0.5614847
8	0x3f2a94ef	0.66633505
9	0x3f16c0ea	0.58888113
10	0xbef655a8	-0.48112226
11	0xbf1f7ef2	-0.6230308
12	0x3f016f83	0.5056078
13	0x3f1e157f	0.6175155
14	0x3f1f2674	0.6216805
15	0x3f26ad11	0.6510783

decoder.w_tilde.weight f4 [1, 17]
0	0xbe655b93	-0.22398214
1	0x3ec0b9a3	0.3764163
2	0xbecdd71b	-0.40203175
3	0x3ee161bd	0.4401988
4	0xbe5eca57	-0.21756874
5	0x3ec5c3b4	0.38625872
6	0xbe1e9656	-0.15487036
7	0x3da55d47	0.08074432
8	0x3cee8615	0.02911667
9	0x3de11bf9	0.109916635
10	0x3e437cb4	0.19090539
11	0xbe73a05c	-0.23791641
12	0x3cce3070	0.025169581
13	0x3e7b12a2	0.24518827
14	0x3e4301df	0.19043683
15	0x3da2918e	0.079379186
16	0xbf3eed29	-0.7458063

decoder.lstm.weight_ih_l0 f4 [64, 1]
0	0xbe935f5c	-0.2878369
1	0xbed1921e	-0.4093179
2	0x3eaabf0e	0.33348888
3	0xbeb057a7	-0.34441873
4	0x3e060c78	0.13090694
5	0xbe32f1e2	-0.17475083
6	0xbeb02d36	-0.34409493
7	0xbec77024	-0.38952744
8	0x3ea6ff0e	0.32616466
9	0xbe22ef10	-0.15911508
10	0xbed1b5d4	-0.40959036
11	0xbe63256c	-0.22182244
12	0x3f059567	0.52181095
13	0x3c67f250	0.014156893
14	0xbecd0097	-0.40039513
15	0xbf1b92ba	-0.6077076
16	0x3d9b67c4	0.07588151
17	0x3e463abc	0.19358343
18	0x3e36316c	0.1779229
19	0xbe0bb46c	-0.13643044
20	0xbe70907e	-0.2349262
21	0xbe105afa	-0.14097205
22	0xbe6110a8	-0.2197901
23	0x3e20d816	0.1570743
24	0xbe1a3514	-0.1505931
25	0x3d03e1a0	0.032197595
26	0x3e5e5f70	0.21716094
27	0x3da0f2a0	0.07858777
28	0xbe500d14	-0.20317489
29	0xbb9fbc80	-0.004874766
30	0x3e6bfade	0.23044917
31	0x3d1b4d30	0.03791541
32	0x3e132c5d	0.14372392
33	0x3eea6015	0.4577643
34	0xbd8f4abc	-0.06996676
35	0xbeadc337	-0.33938
36	0xb947b534	-0.00019045622
37	0x3ebbf326	0.36708945
38	0xbea06ab9	-0.31331423
39	0xbede814c	-0.4345802
40	0xbaaf1b28	-0.0013359534
41	0xbeffbcc9	-0.4994872
42	0x3ec1300b	0.37731966
43	0x3af76077	0.0018873353
44	0x3ed568c7	0.416815
45	0x3e61bb78	0.2204417
46	0x3eee9bac	0.46603143
47	0xbf12361c	-0.57113814
48	0xbd8a1eb2	-0.06744136
49	0xbec557d1	-0.3854356
50	0x3c78c3b1	0.015183375
51	0xbe9baf9a	-0.3040741
52	0x3ded1cb3	0.115777396
53	0xbe4e61e9	-0.20154537
54	0xbd81bbd1	-0.06334651
55	0xbf1aa828	-0.60412836
56	0x3eb00c2f	0.34384295
57	0xbf05cb75	-0.52263576
58	0xbef04479	-0.4692724
59	0xbe839ade	-0.25704092
60	0x3ee65b20	0.44991398
61	0xbdc233e7	-0.09482556
62	0xbe84a56d	-0.2590746
63	0xbf1850e1	-0.5949841

decoder.lstm.weight_hh_l0 f4 [64, 16]
0	0xbdf34ff4	-0.11880484
1	0xbe4a9100	-0.19781876
2	0x3e1ac364	0.15113598
3	0xbe7b1122	-0.24518254
4	0xbe696f76	-0.22796425
5	0xbc681b00	-0.014166594
6	0x3d775918	0.0603877
7	0x3da5f7b4	0.08103886
8	0xbd25a268	-0.040438086
9	0x3cfa40f0	0.030548543
10	0x3d186988	0.037210017
11	0x3d6e9040	0.058243036
12	0xbd94daf4	-0.072683245
13	0x3e2b7282	0.167429
14	0x3c2a5ea0	0.010398537
15	0x3e035944	0.12827021
16	0x3d883288	0.06650263
17	0xbe141356	-0.14460501
18	0xbdf28168	-0.118410885
19	0xbe1c8ffc	-0.152893
20	0xbd185e98	-0.037199587
21	0x3c94aba0	0.018148243
22	0xbc2c8de0	-0.0105318725
23	0x3e54c342	0.2077761
24	0x3e601ab8	0.21885192
25	0x3d685440	0.056720972
26	0x3bb3fa40	0.0054924786
27	0xbe1e92a8	-0.15485632
28	0x3e24140a	0.1602327
29	0xbdf01e50	-0.11724532
30	0xbe540bee	-0.20707676
31	0x3df844a4	0.12122467
32	0x3e1a2564	0.15053326
33	0x3df6b324	0.12045887
34	0x3cd2b4d0	0.025720984
35	0xbe015f84	-0.12634093
36	0x3e1ff60e	0.15621206
37	0x3e6bf040	0.23040867
38	0x3de9ed3c	0.11422202
39	0x3e10abfe	0.1412811
40	0xbde8f8f8	-0.11375612
41	0x3dcca6a4	0.09992722
42	0xbddd98cc	-0.10820159
43	0xbd87d6d0	-0.06632769
44	0x3dc895e4	0.09794214
45	0x3db486c0	0.08814764
46	0x3e13e7b6	0.1444386
47	0xbcd81730	-0.026378244
48	0xbd80ea5c	-0.062947005
49	0x3d6b1a58	0.05739817
50	0x3e031402	0.12800601
51	0x3d3cc900	0.046090126
52	0xbe3bd6ca	-0.18343654
53	0x3e68d2f6	0.22736725
54	0x3de50c24	0.11183956
55	0x3db24fb0	0.087066054
56	0xbd5386e0	-0.0516423
57	0x3e69f00e	0.2284548
58	0x3b97ed80	0.0046364665
59	0xbbb8fd40	-0.005645424
60	0x3ddd7964	0.10814169
61	0xbc8a08c0	-0.016849875
62	0x3d34d3f8	0.04414746
63	0x3a2c4800	0.0006572008
64	0x3d729e80	0.05923319
65	0x3baf6e80	0.005353749
66	0xbe229368	-0.15876544
67	0xbd961704	-0.07328609
68	0x3e5f64d0	0.218158
69	0x3e27492e	0.1633651
70	0xbcd61e00	-0.026137352
71	0x3ca35c10	0.01994136
72	0xbe26fa62	-0.16306451
73	0x3e3afc96	0.18260416
74	0xbe75aa6e	-0.23990795
75	0x3dfeaaf8	0.124349535
76	0x3e383a22	0.17990926
77	0x3d653ab0	0.055964172
78	0x3de63b04	0.11241725
79	0xbe694ff6	-0.22784409
80	0xbda61c70	-0.08110893
81	0xbdf040d0	-0.11731112
82	0x3dd530ec	0.10409722
83	0xbe606ea8	-0.21917212
84	0xbe1f8210	-0.15576959
85	0x3dc82370	0.09772384
86	0x3d7bbb28	0.061457783
87	0xbe7193c6	-0.23591527
88	0x3e3a9e70	0.18224502
89	0x3e1ce7e8	0.1532284
90	0x3d373dc0	0.044736624
91	0x3c881430	0.016611189
92	0xbe4d2296	-0.20032725
93	0xbe7cc72e	-0.24685356
94	0xbe44a1de	-0.19202372
95	0xbe37ebe8	-0.17961085
96	0xbe274216	-0.16333804
97	0xbe05fe98	-0.13085401
98	0x3e7126a4	0.23549896
99	0xbe7c6846	-0.24649152
100	0x3e5d0826	0.2158514
101	0x3e5b5c78	0.21421993
102	0x3d1521c8	0.03640917
103	0x3c483420	0.012219459
104	0x3daa99fc	0.083301514
105	0x3ceb9f90	0.028762609
106	0xbe471a86	-0.19443712
107	0xbe4e7d50	-0.2016499
108	0x3e722692	0.23647526
109	0xbdb462c4	-0.088079005
110	0x3e07de40	0.13268375
111	0x3dbe8af0	0.09303844
112	0xbe00f274	-0.12592489
113	0xbcafa6e0	-0.021441877
114	0xbd41c848	-0.047310144
115	0x3e705f44	0.23473841
116	0x3cba7e60	0.022765338
117	0x3da3c924	0.07997349
118	0xbe1b78b4	-0.15182763
119	0xbe02c21a	-0.12769356
120	0xbe3fb872	-0.18722704
121	0x3de98c58	0.114037216
122	0xbe51683a	-0.20449916
123	0x3df7503c	0.1207585
124	0x3e00576c	0.12533349
125	0x3d2c90d8	0.04213032
126	0xbda033a4	-0.0782235
127	0x3e1781ee	0.14795658
128	0xbe3fc3cc	-0.18727034
129	0x3e2d9d16	0.16954455
130	0x3c07be80	0.008285165
131	0xbe4e1a88	-0.20127308
132	0x3daa9078	0.083283365
133	0xbdf8fd0c	-0.1215764
134	0x3e4bc7c2	0.1990042
135	0xbe50e504	-0.20399863
136	0x3e2a2d92	0.16618946
137	0x3d519160	0.05116403
138	0xbe7eba60	-0.24875784
139	0x3dae9e5c	0.085262984
140	0xbdac3500	-0.084085464
141	0x3db2a1e8	0.087222874
142	0x3cc23470	0.023706645
143	0xbe0873de	-0.1332545
144	0x3d625a00	0.055261612
145	0xbe0e61e8	-0.13904536
146	0xbd4f0160	-0.05053842
147	0xbbc1f680	-0.0059192777
148	0x3df4f594	0.11960903
149	0x3cfb1cc0	0.030653358
150	0xbe7654b6	-0.24055752
151	0x3dcce094	0.100037724
152	0xbd18b068	-0.03727761
153	0xbe1d7218	-0.15375555
154	0x3e7072a6	0.23481235
155	0x3d88b4ac	0.066750854
156	0x3df3ef5c	0.119108886
157	0xbb145980	-0.0022636354
158	0xbe65e838	-0.22451866
159	0x3e2b8c1a	0.16752663
160	0x3d9d10ac	0.076691955
161	0xbdd89c10	-0.105766416
162	0x3e5f61ec	0.21814698
163	0xbe55294c	-0.20816535
164	0x3e3c7536	0.18404087
165	0x3dfeb2b8	0.12436432
166	0x3e2b2388	0.16712773
167	0x3c820840	0.015873075
168	0xbe212f3c	-0.15740675
169	0x3cf989f0	0.030461282
170	0xbe23618c	-0.1595518
171	0xbd56d538	-0.052449435
172	0xbdc9d814	-0.09855667
173	0xbe3e4f24	-0.18584877
174	0x3e523c52	0.20530823
175	0xbe5eb982	-0.21750453
176	0x3e30e9c0	0.17276669
177	0xbd9910b8	-0.07473892
178	0xbe291d2c	-0.16515034
179	0x3db3a8d8	0.08772439
180	0xbdf38ea4	-0.11892441
181	0x3e45f14e	0.19330332
182	0x3e15be8e	0.14623472
183	0x3e5dc3fc	0.21656793
184	0x3bbcc900	0.0057612658
185	0xbe7dcd22	-0.24785283
186	0x3d437d38	0.04772684
187	0xbd5995d0	-0.053121388
188	0x3da40a40	0.080097675
189	0x3d379388	0.04481843
190	0xbe5ef11e	-0.21771666
191	0x3e1e1b14	0.15440017
192	0xbe382ace	-0.17985079
193	0xbe66171e	-0.22469756
194	0xbd5e3288	-0.05424741
195	0x3e777216	0.24164614
196	0xbe25ad06	-0.16179284
197	0xbb28d900	-0.0025764108
198	0xbe1bbd82	-0.1520901
199	0x3e16d656	0.147302
200	0xbda0482c	-0.07826266
201	0xbe4f970c	-0.20272464
202	0x3dd10d74	0.10207644
203	0xbe3d94ae	-0.18513748
204	0x3e4b662e	0.19863197
205	0x3df21a84	0.11821464
206	0x3cc1fd80	0.023680449
207	0x3dbb7ab8	0.09154266
208	0xbe11cbce	-0.14237902
209	0x3e5f8b5a	0.21830502
210	0x3c29b3c0	0.010357797
211	0xbe48cb44	-0.1960879
212	0x3d419ab0	0.047266662
213	0xbe40f326	-0.18842754
214	0xbd113738	-0.03545305
215	0xbe3bfc40	-0.18357944
216	0xbe7d9db6	-0.24767193
217	0x3d86d418	0.065834224
218	0xbe51c7d4	-0.20486385
219	0x3e1ec83a	0.15506068
220	0x3e44dca6	0.19224796
221	0x3da78a7c	0.08180711
222	0xbd01bd48	-0.031674653
223	0xbd957a7c	-0.07298753
224	0xbdb4c32c	-0.088262886
225	0xbb754b00	-0.0037428737
226	0x3e1d1bd4	0.15342647
227	0x3e259a1e	0.16172072
228	0x3d9a19a8	0.07524425
229	0x3e5b48f4	0.21414548
230	0xbe66825a	-0.22510663
231	0x3a93f300	0.001128763
232	0x3e6355da	0.22200719
233	0xbd25d950	-0.04049045
234	0xbd8b4028	-0.06799346
235	0x3c9680f0	0.018372029
236	0xbd9b3ac8	-0.07579571
237	0x3e642746	0.22280607
238	0xbe75e3f4	-0.24012738
239	0xbe249518	-0.160725
240	0xbdacbbfc	-0.08434293
241	0xbd093fc0	-0.033508062
242	0xbe0d345c	-0.13789505
243	0x3e5a2616	0.21303591
244	0xbb70ca00	-0.0036741495
245	0x3e6c469c	0.2307381
246	0xbe19d160	-0.15021276
247	0xbdbb8a90	-0.09157288
248	0xbe54c8b2	-0.20779684
249	0x3dcb0418	0.0991289
250	0x3dc835ec	0.0977591
251	0xbe576230	-0.2103355
252	0xbe7fe222	-0.24988607
253	0x3e2c2b34	0.16813356
254	0x3d26ae48	0.04069355
255	0x3d965d30	0.07341993

decoder.lstm.bias_ih_l0 f4 [64]
0	0x3e238a8d	0.15970822
1	0x3e153b94	0.14573509
2	0xbe0d8335	-0.13819583
3	0x3d8bc967	0.06825524
4	0xbe992ce1	-0.29917052
5	0x3e8ae986	0.2713129
6	0x3e62d676	0.22152123
7	0x3e541ffa	0.20715323
8	0xbf54c0de	-0.8310679
9	0x3dfd0064	0.1235359
10	0xbd879377	-0.066199236
11	0x3e12c6e5	0.14333685
12	0x3f37d39b	0.7180726
13	0xbe5f9aae	-0.2183635
14	0x3f23d7d2	0.6400119
15	0x3e16ea47	0.14737807
16	0x3e50db1c	0.20396084
17	0x3e0f66d8	0.14004076
18	0x3dcd6774	0.10029498
19	0x3e357834	0.17721635
20	0xbe1b4a72	-0.15165117
21	0x3dd8f39c	0.1059334
22	0xbdf45898	-0.119309604
23	0xbd1a8068	-0.037720114
24	0xbd94c844	-0.0726476
25	0x3d9b1b28	0.07573539
26	0x3e7dcfe2	0.24786332
27	0x3e5d64dc	0.21620506
28	0xbdfb7398	-0.12277907
29	0x3e4f8a0a	0.20267501
30	0xbdaf0278	-0.08545393
31	0xbd09cda8	-0.033643395
32	0xbdb8379d	-0.089949824
33	0xbe369c21	-0.17832996
34	0xbaf7972c	-0.0018889657
35	0xbd99a954	-0.07503
36	0xbce0533b	-0.027383437
37	0x3e7eda93	0.24888067
38	0xbe20da41	-0.15708257
39	0x3d90c9d5	0.070697464
40	0xbdd5f91a	-0.10447903
41	0x3c9c5e38	0.019087896
42	0xbd93b849	-0.07212884
43	0xbe21136d	-0.15730067
44	0x3e142ce8	0.14470255
45	0xbe217158	-0.15765893
46	0xbdc782d9	-0.09741754
47	0xbdeda613	-0.11603942
48	0x3e59a19c	0.21253055
49	0x3d18499f	0.037179586
50	0xbeb29431	-0.34878686
51	0x3dbd1b22	0.09233691
52	0xbe23b8eb	-0.1598851
53	0x3e9f5882	0.31122214
54	0x3dcda99a	0.100421146
55	0x3e2dd8e9	0.16977276
56	0xbf5323a0	-0.82476234
57	0x3d8c3b21	0.068472154
58	0x3e855563	0.26041707
59	0xbea05358	-0.31313586
60	0x3f05f032	0.52319634
61	0x3d9215f6	0.07133095
62	0x3eea785d	0.45794955
63	0x3e00164d	0.12508507

decoder.lstm.bias_hh_l0 f4 [64]
0	0xbe6f2e73	-0.23357563
1	0xbe0926f1	-0.13393761
2	0xbeb56cde	-0.35434622
3	0x3dd7a9b3	0.105304144
4	0xbf0c6f47	-0.54857296
5	0xbd2d5595	-0.042317946
6	0x3e0f7897	0.14010845
7	0x3db032d8	0.08603448
8	0xbec133af	-0.37734744
9	0x3e64656e	0.22304317
10	0xbe09f67a	-0.1347293
11	0xbe9d29ff	-0.30696103
12	0x3f66e03a	0.9018589
13	0x3cb21b88	0.021741644
14	0x3f1f6839	0.62268406
15	0x3ee618d5	0.4494082
16	0xbd2a8f68	-0.04164067
17	0x3ce22440	0.027605176
18	0xbe7eebca	-0.24894634
19	0xbe6a9b10	-0.22910714
20	0xbe7bbf52	-0.24584702
21	0x3db361ac	0.08758864
22	0x3e2c400a	0.16821304
23	0xbe0efb00	-0.13962936
24	0x3de20348	0.11035782
25	0x3e7cec58	0.24699533
26	0x3d7839a8	0.06060186
27	0x3c25d6c0	0.010122001
28	0xbd8096a0	-0.062787294
29	0x3d2c73b8	0.042102545
30	0x3e433186	0.1906186
31	0x3e23b93a	0.15988627
32	0xbe5ce8ee	-0.2157323
33	0x3df20d91	0.11818994
34	0xbd45623f	-0.048189398
35	0x3e2dec8e	0.1698477
36	0x3cdf712b	0.027275642
37	0xbdde1c85	-0.108452834
38	0x3b791151	0.0038004706
39	0xbd98a0fd	-0.07452581
40	0x3dd4583d	0.103683926
41	0xbd3928e4	-0.045205012
42	0x3ca8860d	0.020571733
43	0xbd463928	-0.048394352
44	0x3e2284ce	0.15870973
45	0xbd6e9f71	-0.058257524
46	0x3e8df2c8	0.2772429
47	0x3d672b49	0.056437764
48	0xbe2a9fe7	-0.1666256
49	0x3d357601	0.04430199
50	0xbe9ca19e	-0.30592054
51	0x3d1ca27d	0.0382409
52	0xbe558543	-0.20851617
53	0xbcc7c8ba	-0.024387706
54	0x3e9ac899	0.3023117
55	0xbbfd37a9	-0.0077275825
56	0xbf1932cc	-0.59843135
57	0x3b3db767	0.0028948428
58	0x3d64a463	0.055820834
59	0x3ca511e0	0.020150125
60	0x3f299298	0.6623931
61	0x3e34c76e	0.17654201
62	0x3f205b08	0.626389
63	0x3eb78848	0.35846162
