weights/DARNN_L3_HDE32_HDD32_BS32_E50_s2.pth (torch, 106930 bytes, 22 tensors)

encoder.lstm.weight_ih_l0 f4 [128, 81]
000000 7c e9 63 3c a6 ca e9 bd cc 1d 8b 3e 6e d3 f4 3c
       0.0139106475 -0.11415605 0.2717117 0.029885974
000010 d9 77 2e bc ef 29 85 3e 74 c2 1b 3e ae 17 0c be
       -0.010648691 0.26008555 0.15210897 -0.13680908
000020 12 9a 48 3d 93 d4 07 be 01 98 a5 3d 10 69 a4 3d
       0.048975058 -0.13264684 0.08085633 0.080278516
000030 a3 3c d4 3d 35 f5 cf 3d e1 32 89 3e 11 42 73 3e
       0.10363128 0.101541914 0.2679663 0.23755671
000040 e5 0c ab 3d 15 24 c6 bc db 1c 02 bd 39 c5 01 3d
       0.08352069 -0.024187127 -0.0317658 0.031682227
000050 e6 7a 15 be 61 b1 9a 3d 46 e3 e8 bd d2 fe 43 3e
       -0.14597663 0.075533636 -0.11371474 0.19140175
000060 4f 02 0a be 57 97 ce 3d b7 37 d1 3d 51 4a 20 be
       -0.13477443 0.100874595 0.10215705 -0.1565335
000070 d8 67 47 3d 25 05 8d bd 59 21 21 be ff c4 c6 bd
       0.048683017 -0.06885747 -0.15735377 -0.09705543
000080 e1 2c db bd 25 0e 3e 3e f7 3c a0 bd 63 19 19 be
       -0.10701919 0.18560083 -0.07824128 -0.1495109
000090 19 0a fe 3c 5a 63 4b 3d c4 a4 a8 3d 98 a7 1c bd
       0.031010674 0.049655296 0.082345515 -0.038245767
0000a0 79 20 42 3d c5 69 fe bc 11 0d 4d 3e 3f 33 97 3e
       0.04739425 -0.031056294 0.20024516 0.29531285
0000b0 be 9e a9 bd 5a 52 c8 3b ce 58 12 3e 9b 9a 9c 3d
       -0.08282231 0.0061133327 0.14291689 0.07646676
0000c0 48 d3 6b 3d 2f 93 33 3e d9 86 0d 3d c2 b6 ba 3d
       0.05757454 0.17536615 0.03455243 0.091168895
0000d0 23 e2 34 3e 9f 2e 31 3e 7e 77 3c bd f2 b8 b1 3d
       0.1766439 0.17302941 -0.046012394 0.08677854
0000e0 a0 d9 85 3c 77 04 02 3d af 6a 3c be 25 26 ca 3e
       0.016339123 0.03174254 -0.18400072 0.39482227
0000f0 35 52 21 3e c0 28 54 be 7f ab 33 3e 87 f1 44 3d
       0.15754016 -0.2071867 0.1754589 0.0480819
000100 22 4a db 3d b9 4f c7 3d 92 e7 14 3e 43 52 4c be
       0.10707499 0.09732003 0.14541462 -0.19953255
000110 63 d4 f5 bc f7 bc 02 bd ae d1 86 be 42 0a 6f 3e
       -0.0300085 -0.031918492 -0.26331848 0.23343757
000120 47 61 5f 3d 9a 1b 14 be d7 92 88 bd 14 a0 a4 bc
       0.05453613 -0.14463654 -0.066686325 -0.020095862
000130 ec 2c 7e 3d 60 8f 6f 3c f9 4e 82 be 59 0c 49 be
       0.06205456 0.014621586 -0.25450876 -0.19633617
000140 7f 15 cc 3e 95 8f 69 3e 05 05 d0 3d 45 50 ea 3e
       0.3986015 0.22808678 0.101572074 0.45764366
000150 ce 93 d2 3e 12 6c 8e 3d 45 a0 c6 3e 72 fa 52 3e
       0.4112839 0.069542065 0.3879415 0.2060335
000160 70 89 11 3e 83 ec 4d 3e e7 97 6a 3e b3 94 2d 3e
       0.14212584 0.20109753 0.22909509 0.16951256
000170 c9 27 9a 3e ce f4 cf 3e 85 5f b0 3e 27 e5 00 3f
       0.3010848 0.4061646 0.34447876 0.5034966
000180 2c ac ae 3e 26 de 26 3e 9a 69 9a 3e 72 6c 39 3e
       0.34115732 0.1629568 0.30158693 0.18107775
000190 22 a0 10 3e 11 13 8e 3e a0 42 b5 3d 66 6e 82 3e
       0.14123586 0.27748922 0.08850598 0.25474852
0001a0 a3 08 b9 3e 85 fa 51 3e bf ac a7 3e 43 0d 02 3f
       0.36139402 0.20505722 0.32748982 0.50801486
0001b0 50 46 f9 3c 45 02 c9 3e 29 2a be 3e b9 08 12 3e
       0.030429035 0.39259544 0.3714154 0.1426114
0001c0 a0 8a 22 3e 94 80 32 3e eb 07 86 3e 59 be c3 3d
       0.15873194 0.17431861 0.26177916 0.0955779
0001d0 31 68 03 3e 0a 09 d0 3e 56 ac f3 3e fe 14 d6 3e
       0.12832715 0.40631896 0.4759242 0.4181289
0001e0 f0 34 ca 3e 64 b8 d1 3e bb 41 58 3e 01 f0 fc 3e
       0.39493513 0.4096099 0.21118824 0.49401858
0001f0 dd 30 f7 3e 83 6a 99 3d a4 40 39 3e 85 67 e9 3e
       0.48279467 0.074910186 0.18091065 0.45586792
000200 5d f2 9f 3d e6 f3 83 3e 34 4c 6b 3e 12 27 c9 3e
       0.07809899 0.25772017 0.22978288 0.3928762
000210 05 8a 41 3e f3 58 27 3d ad 68 a5 3e 46 2b aa 3e
       0.18900307 0.040856313 0.32306424 0.3323614
000220 11 4b ba 3e 05 9c c3 3d 83 12 ac 3e 94 95 43 3e
       0.36385396 0.09551243 0.33607873 0.19100028
000230 20 47 6b 3e 3b c2 99 3e d8 06 38 3e af b4 e5 3e
       0.22976351 0.30031 0.1797136 0.44864413
000240 bd 02 16 3e 72 d4 a1 3e 7f 7c 24 3e 1e 9e e8 3e
       0.14649482 0.31607395 0.16063116 0.45433134
000250 d8 78 c3 3e 58 0a 5d 3e 8f 11 81 3d 93 27 fe 3d
       0.38178134 0.21585977 0.06302177 0.12409892
000260 1c 73 20 3e ea f7 ce 3e f6 19 d2 3d de 4c df 3c
       0.1566891 0.40423518 0.10258858 0.027258333
000270 f4 2a 0e 3e 8a c6 93 3e b4 40 03 3f 09 b8 ac bd
       0.13883573 0.2886241 0.51270604 -0.084335394
000280 45 5e 1a 3e d7 e8 0f 3f 5c 30 7a 3c 76 70 4c be
       0.15075023 0.5621466 0.015270319 -0.19964775
000290 e7 50 3f 3e 74 f6 86 3e d5 5b 01 be 28 b6 30 3e
       0.18683206 0.26359904 -0.12632687 0.17256987
0002a0 54 90 fb bc 6e a2 0f be 11 21 79 bd e4 e4 b2 3d
       -0.03070847 -0.14026806 -0.06082255 0.08735064
0002b0 ff f2 4b 3e 5e b8 85 bc bc 99 3d 3b 0a 27 3b 3d
       0.19916914 -0.016323265 0.0028930744 0.045691527
0002c0 f9 d6 56 3d a4 47 8b 3e e4 66 4a 3e e5 fe 8c 3e
       0.052451108 0.27203095 0.19765812 0.2753822
0002d0 6d 2c 90 bd 9c eb 8b bd bd f4 45 3e dd 4c 44 3e
       -0.070397235 -0.06832048 0.19331641 0.19169946
0002e0 41 8a 43 be a3 50 5e bd 30 5c 20 be 31 be 17 3e
       -0.19095708 -0.05427612 -0.15660167 0.14818646
0002f0 48 1c 85 3e e0 6f 07 3e 89 3c 3f 3e 11 4f f7 bd
       0.2599814 0.1322627 0.18675436 -0.120756276
000300 27 27 4b 3e 53 f2 44 3d 01 af d3 bd 2c 72 22 3c
       0.19839154 0.04808266 -0.10336114 0.009914916
000310 e2 7e f9 3c fc f2 fb bd 20 93 c0 3d 42 ce 97 3e
       0.03045601 -0.12302205 0.09403062 0.2964955
000320 4e 82 10 3d 53 05 8a bd c1 37 41 3d 06 f4 22 bc
       0.03528052 -0.06739297 0.04717231 -0.009945875
000330 73 4e e4 3d ea eb a6 3e 50 77 7d 3d 20 ff 3e bd
       0.111477755 0.32601863 0.061881363 -0.046630025
000340 47 0e a9 3d 5f 82 4e bb 26 0c 3c bc c5 9b aa 3d
       0.08254676 -0.0031510813 -0.011477506 0.08330492
000350 9d 5b f0 3d 65 2b 6f bd e9 3a 68 bd c9 3f ac 3d
       0.11736224 -0.058390994 -0.056696806 0.084106036
000360 a8 8d a8 3c 2f ae b1 3d 54 2e aa 3d aa 3a f1 3d
       0.02057536 0.08675801 0.08309618 0.117787674
000370 cf 08 f1 bc 87 da 8c 3d fd cb 90 3e 05 ca d2 3d
       -0.029423146 0.06877618 0.2828063 0.102924384
000380 dd b3 30 3e 6c 9a df bd 6f 8e 82 ba 23 1d 90 3e
       0.17256112 -0.109181255 -0.0009960661 0.2814723
000390 54 76 38 3e 76 c2 e2 bd 93 1a eb 3d 66 fc 00 be
       0.18013889 -0.11072247 0.11479678 -0.12596282
0003a0 80 fd 4d 3d cf fb 0a 3e 64 d7 40 3e ab 14 a0 bd
       0.050290585 0.1357262 0.18832165 -0.07816442
0003b0 6f 0c c4 bd e0 ee 5e bc b9 e4 65 bc e6 b2 a1 3d
       -0.09572684 -0.013606757 -0.0140315825 0.0789545
0003c0 82 cd 84 be b3 05 b2 3d 56 34 b4 3d 3f b5 a8 bd
       -0.2593804 0.08692493 0.08799045 -0.08237695
0003d0 5e 9e 93 3e e6 ef b4 3d 4c 0f 2f 3d 23 ad 3b 3d
       0.28831762 0.088348195 0.042739198 0.045819413
0003e0 be 12 fd bc 54 74 4c 3c 0a 83 7f bd ab 2a 1e be
       -0.030892726 0.012478907 -0.062380828 -0.15445964
0003f0 d5 f1 9a 3c c1 0c e4 bd 2a c2 af bd 0b 29 c1 3d
       0.018914143 -0.11135245 -0.08581956 0.094316565

encoder.lstm.weight_hh_l0 f4 [128, 32]
000000 3a ae 86 be 23 dc 99 be 2d 78 81 be d4 fa ce 3e
       -0.263048 -0.30050763 -0.25287 0.40425742
000010 ab 45 ae 3e 20 e0 61 3e 9e c2 29 3d 8a 3f bc 3e
       0.34037527 0.22058153 0.041445367 0.36767226
000020 8f 46 8b 3e a7 bb aa be f2 67 e3 bd 2d ca 82 be
       0.2720227 -0.33346292 -0.1110381 -0.25544873
000030 60 ef 7f be 0a 66 bf 3e b6 3d ad 3e f1 b8 8e 3e
       -0.24993658 0.37382537 0.33836144 0.27875474
000040 0e 90 41 be 1e d8 08 3e 38 42 ab be ab 2c b8 be
       -0.18902609 0.13363692 -0.33448958 -0.3597158
000050 db 0a 09 be 8f 47 8a 3e ec c1 9c be 84 1f 25 be
       -0.13383047 0.2700772 -0.306167 -0.16125304
000060 bf a3 52 3c d4 95 bc be 04 93 44 3e 01 ec b3 3e
       0.012856423 -0.3683306 0.19196707 0.35140994
000070 0f 7a 69 3e c9 f4 a6 3e e0 7b 81 3d a5 3b cf be
       0.22800468 0.3260863 0.063224554 -0.40475193
000080 3b bb 47 3e 13 2e 11 be 58 f7 b0 3d bd a4 fa 3e
       0.19505017 -0.14177732 0.08640927 0.4895381
000090 16 2c 9c 3e ec 03 c6 bd 09 50 20 3e 62 2d a0 bd
       0.30502385 -0.09668717 0.15655531 -0.07821156
0000a0 df 58 8d be 8e ba 82 be 09 2a 4a 3d df bb b2 be
       -0.27606866 -0.25532955 0.049356494 -0.3490896
0000b0 fa c8 8c bc 9f 48 0c 3f 29 35 46 3e a2 f4 da 3b
       -0.017185677 0.5479831 0.19356216 0.0066819945
0000c0 a4 0d 0f be c0 c6 a4 3e 21 51 fa be c4 41 a2 bb
       -0.13970047 0.32182884 -0.4889002 -0.0049516875
0000d0 e6 1f f5 bc 9f 30 d9 bd 6f db 83 be d2 61 fb bd
       -0.029922437 -0.10604977 -0.25753352 -0.12274517
0000e0 61 7f 5f bd fa 70 9b bd 9f 32 14 3e 5f ef ed 3d
       -0.054564837 -0.07589908 0.14472435 0.11617922
0000f0 2f e9 dd 3e 8f fb 45 3e f5 37 ac 3b ce d7 62 be
       0.43341967 0.19334243 0.005255694 -0.22152635
000100 33 09 7d be 2a ab fe 3d a2 21 7b bc a7 5a c7 3e
       -0.2471054 0.12434991 -0.015327843 0.3893635
000110 cf b0 ba 3d 15 f2 14 3e 3e 4c b7 bd 5e 03 61 3c
       0.09115755 0.14545472 -0.08950089 0.013733713
000120 6f c3 fd 3d 74 6c 47 bd bf 57 c2 3d e5 7c 28 3e
       0.123907916 -0.048687413 0.094893925 0.16453893
000130 5f 0d f8 3d f2 c5 55 3e a5 e7 a6 3d dd df 3c 3e
       0.12111925 0.20876291 0.081496514 0.18444772
000140 ef 0c 79 3d 19 56 07 3e aa b7 89 be 34 9c aa 3d
       0.06080335 0.13216437 -0.26897937 0.08330575
000150 0d ff 0e 3e c2 20 9e 3d 13 49 20 be 66 6f e9 bd
       0.13964482 0.07721092 -0.15652876 -0.11398201
000160 ce 54 50 bd bd e8 9b be 0c f8 16 be 3e 1a 40 3e
       -0.050862126 -0.30451003 -0.1474306 0.1876001
000170 6a 15 db bc 7f 82 65 3d cb c5 b3 bd af 5e c7 3c
       -0.02674361 0.056032654 -0.087779604 0.02433714
000180 9e 90 61 be 10 26 1c 3f 34 07 07 be b1 da 9f 3d
       -0.22027823 0.6099558 -0.13186342 0.07805384
000190 3d c8 c0 be a6 7c 01 3f fd c4 30 bf 4a 4c ef bd
       -0.3765277 0.50580823 -0.6905058 -0.11684473
0001a0 c4 72 45 be 9b c0 0a 3f d2 d5 b5 3e 87 c7 c8 3e
       -0.19282061 0.5420014 0.35514694 0.39214727
0001b0 2f a8 4c 3e 3b 23 84 3d ac 83 1d bc 1b 80 7f 3e
       0.19986032 0.06452032 -0.009613913 0.24951212
0001c0 f9 90 92 3e be 69 b2 be 24 a8 01 bd b8 66 82 3e
       0.2862623 -0.348463 -0.031654492 0.25468993
0001d0 0b a1 eb bb 4c 3f 99 3d 65 82 4c bd 5c ef bc 3e
       -0.0071908287 0.07482776 -0.04992904 0.36901367
0001e0 bc 11 ca be da 65 aa be 78 5e 6f bc 60 69 73 be
       -0.39466655 -0.33280832 -0.014609925 -0.23770666
0001f0 24 20 b2 be 4d 73 6a be de 00 21 3e c9 7f 0e be
       -0.34790146 -0.22895546 0.15722987 -0.13915934
000200 b1 ba 9e bd 02 6a 15 3e c9 fa c3 bd 7f b5 24 be
       -0.07750452 0.1459122 -0.09569318 -0.1608486
000210 84 c7 28 be d7 ea a0 3e b3 9a 8f be 59 a3 3a be
       -0.16482359 0.3142917 -0.28047714 -0.18226375
000220 51 72 55 3d 3c 23 d8 bd 42 a8 8b 3b b3 5b 9f be
       0.052110974 -0.105535954 0.0042620013 -0.31124648
000230 36 85 54 3d 1b 3b 30 3a 39 30 6e 3e e0 b8 aa 3d
       0.051884852 0.00067226746 0.23260583 0.08336043
000240 34 17 2e 3c 14 58 d4 bc 86 ef 07 be fc 3d aa be
       0.010625649 -0.025920905 -0.13274965 -0.33250415
000250 12 45 8c 3c 05 2a f3 bd e4 92 3e 3d ab f8 d0 bc
       0.017122779 -0.11873249 0.046526805 -0.0255092
000260 7f 32 8f bd 04 c6 c1 3c 72 e6 b6 3d 6c 49 db 3c
       -0.06992053 0.023653992 0.08930673 0.026768409
000270 9c 0b d6 bd 3a d0 ab 3c 35 0b 83 3e d1 00 5c 3d
       -0.10451433 0.020973314 0.25594488 0.053711716
000280 4e af 27 bf 12 5d e2 be 3b 3b fb be 34 6c 9b 3e
       -0.6550187 -0.44211632 -0.49068627 0.3035599
000290 98 11 52 3c b9 d7 14 3e f4 f4 2f be 2c d2 72 3e
       0.0128215775 0.14535417 -0.17183286 0.23712987
0002a0 d4 37 83 3e 43 a8 ea be 2b 38 13 be a2 22 3c be
       0.2562853 -0.45831499 -0.14376895 -0.18372586
0002b0 f4 df a9 be 5f ea a9 3d c1 26 83 3e 2c e6 0d 3e
       -0.33178675 0.08296656 0.25615504 0.13857335
0002c0 4c 41 21 be c1 6b 1d be f7 d9 d6 bb fe f6 09 bf
       -0.15747565 -0.15373136 -0.006556745 -0.53892505
0002d0 de 3d 17 be 21 8c c4 3e 3b 0f 14 be 19 f1 10 be
       -0.14769694 0.3838816 -0.14458935 -0.14154471
0002e0 4d 2d 88 3e 70 31 4e be b9 61 62 3e 22 16 bc 3e
       0.26597062 -0.20136046 0.2210759 0.36735636
0002f0 7f 5e e3 3e da c1 37 3d e1 ba 1e 3f 49 1b 41 be
       0.44408032 0.044862606 0.62003905 -0.18858065
000300 5c f5 c2 be cb c0 4b be 42 8d 58 be 10 b5 9b 3e
       -0.3807782 -0.19897763 -0.21147636 0.30411577
000310 12 bf 03 3e 45 7b 2f 3e 15 2c 2e be 9b 61 30 3e
       0.12865856 0.17136867 -0.17009003 0.17224734
000320 b0 a6 17 3f 51 f5 c7 be 91 fe ce bc d9 b9 8f be
       0.5923872 -0.3905435 -0.025267871 -0.28071478
000330 95 3b cc be 55 b1 34 3d de 73 b3 3e e3 0b a7 3d
       -0.39889207 0.04411443 0.35049337 0.08156564
000340 8c 73 d4 be 05 ef 01 3d 49 77 24 bd 95 98 04 bf
       -0.41494405 0.031722087 -0.04015282 -0.5179532
000350 8e fa 24 be 74 a1 c5 3e c2 ba 43 be 96 57 8a be
       -0.16111204 0.3859974 -0.19114211 -0.27019948
000360 14 38 1d 3e c2 9e 01 bf 8a 1e 19 3f 8a 3c bd 3e
       0.15353423 -0.5063287 0.59812224 0.3696025
000370 de e2 03 3f b5 06 83 3e 31 7c e1 3e 35 83 6a be
       0.51518047 0.25591055 0.44040063 -0.22901614
000380 38 fe bc bd c1 85 00 3e a4 5c 72 3c 7c 51 a2 bd
       -0.09228176 0.12551023 0.014792595 -0.07925698
000390 43 d7 e5 bd 3b b0 c4 3e 3e 52 7b be 3d 0e 02 be
       -0.112226985 0.38415703 -0.24543092 -0.12700744
0003a0 b8 31 17 be df 6a b7 3c 9d 46 5e bd 93 5c 2e 3d
       -0.1476506 0.022389827 -0.05426656 0.042568754
0003b0 64 ef 35 3e 75 27 a6 bb 6f 69 8b 3e f6 4a 44 bc
       0.17767102 -0.0050706216 0.27228877 -0.011980763
0003c0 f0 94 50 3c 1b 29 9f be a9 ef bc bd 0b 46 63 bd
       0.012730822 -0.31086048 -0.09225399 -0.05548672
0003d0 8c f5 0d 3d 0c 8c bd 3c b6 33 13 3b e4 d5 20 3e
       0.034658 0.023138069 0.0022461242 0.15706593
0003e0 71 51 d7 bd 08 b1 89 be b2 d8 bb bc 67 a4 0c be
       -0.105135806 -0.26892877 -0.022930477 -0.1373459
0003f0 82 2d 57 bc 7a c5 79 be 7d 54 53 3e ef 5d 75 3d
       -0.0131334085 -0.24391738 0.20637698 0.059904035

encoder.lstm.bias_ih_l0 f4 [128]
000000 7c 5b ab 3d 24 23 bb 3e 6d c7 0d 3e 40 ce 74 bd
       0.08367059 0.36550248 0.13845606 -0.059767008
000010 2d 67 06 3d e2 07 ce 3d a4 5a 90 3e 59 94 67 be
       0.03281324 0.10060097 0.28194153 -0.22615184
000020 ad c3 51 3c 78 0e 63 3e 5d 09 22 be b5 55 2b 3e
       0.012803 0.22173488 -0.15823884 0.16731913
000030 6c 81 37 3e 89 40 8d 3e f9 c4 09 3d 02 7b 72 3d
       0.17920464 0.275883 0.033635113 0.05919934
000040 8f c5 76 3e 12 e7 da 3d de 50 c6 bc 01 00 bb 3e
       0.240988 0.106886044 -0.024208482 0.3652344
000050 93 a8 45 3e c7 aa af 3c 0d 11 52 3d 25 8f cd 3e
       0.19302587 0.021443738 0.051285792 0.40148273
000060 74 95 2f 3e 5a 66 5a bd d1 f9 e2 3c 2d f2 09 3d
       0.17146856 -0.053320266 0.027707012 0.033678222
000070 d0 5e 26 3f 15 5b 9f bd 66 16 b5 3d 9f e5 89 3d
       0.6498842 -0.077810444 0.08842163 0.0673325
000080 cf 60 29 be f0 1f 4c be c5 f1 cb 3d 91 f2 bd be
       -0.16540836 -0.19934058 0.09958223 -0.37099126
000090 92 41 84 bd ad cd 56 bd 44 77 ff 3c ef c1 84 bd
       -0.06457819 -0.05244224 0.0311848 -0.064823024
0000a0 1d a3 48 3d 74 4c 2d be 3b d1 65 be e5 51 af bd
       0.048983682 -0.16923696 -0.22443096 -0.08560542
0000b0 13 6d 80 be 73 6f f0 be 40 fb 59 be b9 08 3f 3b
       -0.25083217 -0.4696003 -0.2128725 0.0029149486
0000c0 4f cf b1 bd f0 f7 6e bc 3b b6 a5 bd 15 0c 66 bd
       -0.08682119 -0.01458548 -0.08091398 -0.056163866
0000d0 ea b2 94 3c c7 f7 3c 3c ba a1 32 bc 5c 08 8f be
       0.01815172 0.011533684 -0.010902816 -0.27936065
0000e0 4e db 93 3c fe d9 b8 be cb bd ea bd 07 06 9b bd
       0.018048909 -0.36103815 -0.114619814 -0.07569509
0000f0 87 99 f6 3c c0 6e 52 bd eb b7 b5 bd 7c 9c 72 bd
       0.030102504 -0.05137515 -0.0887297 -0.059231266
000100 73 29 99 3d a3 1a 70 bd 16 58 d0 bd 1d fc 8a 3d
       0.07478609 -0.058619153 -0.10173051 0.06786368
000110 78 a2 94 3d 69 f6 5f 3d 59 f7 55 3e ee 55 89 bc
       0.07257551 0.054678354 0.20895137 -0.016764607
000120 05 cd 51 be 4e b4 55 3e 1b 4a ef bc 96 6c ad 3d
       -0.20488365 0.20869562 -0.02921014 0.08467977
000130 9e 86 95 3d 8c 51 a5 3d 2c ca 0b be 5a 49 26 3d
       0.07301067 0.080721945 -0.13651341 0.040597297
000140 13 ae b8 3d 45 b9 31 3d b7 cc 75 bc 7c b0 91 bd
       0.09017577 0.043389577 -0.015002421 -0.0711374
000150 b7 db 02 bd 41 56 d8 bd ee 32 70 bd bf b3 5f 3c
       -0.031947818 -0.105633266 -0.05864232 0.013653695
000160 d7 73 44 bc 19 bd 94 3d 9a dc 45 be b8 01 51 be
       -0.011990509 0.0726263 -0.19322434 -0.20410812
000170 7b 13 f6 bd fb 79 77 3d 37 5c 2b be 1e 97 12 3e
       -0.12015434 0.060419064 -0.16734396 0.14315459
000180 1c 39 81 3d 60 50 d1 3e d1 95 00 be 0a 71 42 3e
       0.06309721 0.40881634 -0.1255715 0.18988433
000190 16 e2 31 be 6e 3c 27 3b 35 72 52 3e 1f 7a 4d be
       -0.17371401 0.0025518197 0.20551379 -0.20066117
0001a0 5c 7c 02 3e fa dd 9f 3e d5 11 6b bd 92 0f be 3e
       0.12742752 0.31224042 -0.057390053 0.37121254
0001b0 41 09 8c bd 33 8c 1e 3e 21 dd dc 3d 3b 09 6b 3b
       -0.068377025 0.1548317 0.107843645 0.0035863656
0001c0 73 4e 45 bc fb 03 42 3e d9 96 27 3e a9 bf b1 3e
       -0.0120426295 0.18946831 0.16366138 0.34716538
0001d0 fb cb a5 3d 3b d9 d9 3a d3 f3 79 be f4 da c5 3e
       0.08095547 0.0016620526 -0.24409418 0.3864361
0001e0 47 52 ca bd cb 45 5b 3d 57 ac ad 3e 21 56 0c 3d
       -0.098789744 0.053533357 0.33920547 0.034261826
0001f0 75 20 3a 3f cc e8 e0 3d 76 fa a1 3d 2e b0 2c bb
       0.72705775 0.109819025 0.079091 -0.0026350128

encoder.lstm.bias_hh_l0 f4 [128]
000000 cf 46 14 3c 45 fd bc 3e 1c 94 41 3d 92 cb 85 3d
       0.009050085 0.3691198 0.04726039 0.065329686
000010 65 7b 47 3d d3 ce 03 3e 43 33 36 3e 15 a7 c8 3d
       0.048701663 0.12871866 0.17792992 0.09797493
000020 14 fc 8c 3d 53 91 92 3e 53 bf 56 bd 2c dc df 3e
       0.068840176 0.286265 -0.052428555 0.43722665
000030 70 9e ff 3d 5f 90 af bc f8 76 74 bd e0 ac c1 bd
       0.124813914 -0.021431146 -0.05968377 -0.094568014
000040 e8 e9 8f 3d d0 e3 7a bc ee e0 3e 3e a2 83 ab 3e
       0.07027036 -0.015313104 0.18640491 0.33498865
000050 fd 69 37 3e b2 26 37 3e c3 cc fa bd 43 1e e9 3e
       0.17911525 0.17885855 -0.122460864 0.455309
000060 b9 d8 70 bd f9 49 1c be 8d b1 d7 3c 9f 60 27 3d
       -0.058800433 -0.15262593 0.02632978 0.04086363
000070 87 ea 2b 3f 20 d6 83 3d f0 23 80 bd da da 18 bd
       0.67154735 0.064373255 -0.062568545 -0.037318088
000080 1a bb 5f be 44 02 b0 be 2d 3f fa bd c6 a7 68 be
       -0.21848717 -0.3437673 -0.12219081 -0.2272025
000090 b6 6f 84 be 42 cd cf 3c 12 df 2b 3e 47 df 63 be
       -0.2586648 0.02536643 0.16784313 -0.22253142
0000a0 93 6e 92 bd 08 20 3e be 61 f6 a2 be 44 ee 4a be
       -0.071499966 -0.18566906 -0.31828597 -0.19817454
0000b0 7c 1b 20 be 4b 8d e8 be 3c bd 26 be e4 d5 2d be
       -0.15635484 -0.45420298 -0.16283125 -0.16976124
0000c0 37 3e 77 bd 1a 17 f3 3d 53 05 75 bd e3 98 2c be
       -0.060362067 0.11869641 -0.05981953 -0.16855197
0000d0 51 99 02 3d 00 1a 6f 3c 87 eb 95 be 14 8a 6c bd
       0.031884495 0.014593601 -0.29281256 -0.05774887
0000e0 77 ce 46 bd b2 9a 90 be 2f ba 74 bd d0 34 45 3c
       -0.048536744 -0.28243023 -0.05974787 0.012036517
0000f0 a0 57 96 3c bf 2a 86 be b1 70 03 bc d8 9d 3a 3e
       0.01835233 -0.26204488 -0.008022473 0.18224275
000100 95 58 98 bd 48 d4 21 3e 0f cf 0d 3e bf d9 06 3e
       -0.07438771 0.15803635 0.13848518 0.13169001
000110 9d a4 81 bd 8c f6 44 be c1 15 bb bd fd f3 85 3b
       -0.063302256 -0.19234675 -0.091350086 0.0040879236
000120 47 1f f2 3d 68 de 20 bd 22 1f c2 3d 91 3f c1 bc
       0.11822372 -0.039274603 0.09478594 -0.023589881
000130 94 23 c3 bc 2e 6f e1 3d 6c 0d 0f 3e 48 2f 56 3d
       -0.023820676 0.11007534 0.13969964 0.052291185
000140 1f 39 41 bb 61 7d a8 3d 3c 93 ef bd 92 87 d5 3d
       -0.002948351 0.08227039 -0.116980046 0.104262486
000150 5c de da 3d 19 df d8 3d ec cf 1b ba 6c 32 0d 3e
       0.10686943 0.105894275 -0.00059437635 0.13788766
000160 1e 9a b7 bd 51 3d d4 bd 68 67 15 3e c0 c9 8d 3d
       -0.089649424 -0.10363258 0.14590228 0.069232464
000170 08 70 d4 3d 6b d0 af bd 2e 2b f9 3d 9b 5b ed bd
       0.10372931 -0.085846744 0.12166439 -0.11589738
000180 bd d9 41 3e 9f a8 c6 3e e9 8e 23 bd d8 95 62 bc
       0.18930717 0.38800523 -0.03993121 -0.013829671
000190 43 dd 16 be 3a 76 2f bd d5 9a dd bc 5d bb 0d bd
       -0.14732842 -0.04283736 -0.027051369 -0.03460251
0001a0 a7 56 16 bd dc fe b8 3e 41 b5 aa be 13 09 a3 3e
       -0.036703732 0.36131942 -0.3334141 0.3184286
0001b0 e5 6d 48 3e 39 6c 7e 3d 3c d5 90 bd 33 e1 80 bd
       0.19573171 0.062114928 -0.07071921 -0.06292953
0001c0 57 3e 89 bd 3c 20 08 3e 25 2d f2 3d 68 c8 90 3e
       -0.067013435 0.13293546 0.11825017 0.28277898
0001d0 ef d3 fd 3c bb ef 05 be 9c 1b 82 3d ae c8 83 3e
       0.030984847 -0.13079731 0.06352922 0.25739044
0001e0 e5 eb 0b be 17 eb d8 3c 8a f6 18 3e c8 a4 43 3e
       -0.13664205 0.026479287 0.14937797 0.19105828
0001f0 87 40 4e 3f ef 71 17 be b0 77 81 3d 76 8e 26 be
       0.8056721 -0.14789556 0.06321657 -0.16265282

encoder.U_e.weight f4 [3, 3]
000000 c9 b5 64 3e 2a 80 b4 3e 93 6e 3c be a1 ad 01 3e
       0.2233497 0.3525403 -0.18401556 0.1266389
000010 32 79 e7 bd d8 a3 a4 3e a6 65 0c 3f 90 8e 6a bd
       -0.11302413 0.32156253 0.54842603 -0.057264864
000020 9d 92 ac be
       -0.33705607

encoder.U_e.bias f4 [3]
000000 42 ba 6a bf ce cf d1 be ca 6f c5 be
       -0.91690457 -0.40978855 -0.3856185

encoder.W_e.weight f4 [3, 64]
000000 3c 71 d4 3e da df 99 3d fc 23 94 3e cb cf c5 be
       0.4149264 0.075133994 0.28933704 -0.38635096
000010 65 89 93 3c 42 23 7a 3c 5c ef d8 bd ab 7b 3e be
       0.01800985 0.015267195 -0.10592529 -0.18601863
000020 d1 2a 07 be 95 e8 31 bd c3 04 63 3d 20 a0 b3 3b
       -0.13199927 -0.043434698 0.055424463 0.005481735
000030 44 06 b0 3d ad bc e7 be 96 04 83 be 4a b3 02 bf
       0.08594945 -0.45261136 -0.25589436 -0.51054823
000040 85 62 59 3e e0 87 6e bd 2b df 0f 3f 3a 72 a1 3e
       0.21228988 -0.05823505 0.561999 0.3153246
000050 5d 31 60 3e 3a d6 0b bf 8f 3b 8c 3e 9f de 61 3e
       0.2189383 -0.5462376 0.2738919 0.2205758
000060 1c dd b6 3d 8b 04 30 3f c7 3d be be e4 72 fd bd
       0.08928892 0.6875693 -0.37156507 -0.12375429
000070 3f 9b d8 3c cd 4f 49 bd bc b8 fd bd be e3 b9 3e
       0.026441215 -0.04914837 -0.12388751 0.36306566
000080 0a f8 4b 3e ca ae 13 3e 40 8a 8b 3e ef ad b0 be
       0.19918838 0.14422145 0.27253914 -0.345077
000090 fa f8 1b be ab 84 bc 3d 83 3b c0 bd 36 a4 6f be
       -0.15231696 0.09204992 -0.09386351 -0.23402485
0000a0 49 57 b6 bd 7b 12 49 3e 48 42 11 3e 1e d2 75 3d
       -0.08903367 0.19635956 0.1418544 0.060014836
0000b0 1a e9 6c 3e 4f 82 0d bf 20 ca 8c be 3d 48 d5 be
       0.23135796 -0.5527696 -0.2749796 -0.41656676
0000c0 e6 8c 4e 3d 39 28 60 be e5 ef c7 3e a2 be c4 3e
       0.05042734 -0.21890344 0.39050213 0.3842669
0000d0 2e 2a d9 3d dd 6d 12 bf 88 ec dc 3e 54 a6 82 3e
       0.10603748 -0.5719889 0.4314921 0.25517523
0000e0 3f 53 2f bd a4 38 14 3f b7 68 96 be f9 2a 04 bc
       -0.042804 0.57898927 -0.29376766 -0.008066886
0000f0 17 b4 77 bd f2 ad a7 bc c1 e5 15 be 25 d4 a3 3e
       -0.06047448 -0.020468686 -0.14638425 0.3199779
000100 9e 01 8a 3e 25 0a 2c 3d b2 e0 87 3e 39 72 ed bd
       0.2695436 0.042001862 0.26538616 -0.11594052
000110 62 77 95 bc 3b 93 3e bd 72 1d 27 3d 75 ae 18 be
       -0.018245403 -0.04652713 0.040799566 -0.149103
000120 5f 7d e9 bd e0 4a 90 bd ac 33 1e 3d 23 e4 84 3d
       -0.11400866 -0.07045531 0.038623497 0.06488826
000130 bb 9d 5b 3e f6 03 a4 be 67 1d 90 be a3 31 32 be
       0.21446888 -0.32034272 -0.28147432 -0.17401747
000140 d2 2d bb 3d b6 d4 43 be 8f 88 ac 3e 27 4b ac 3d
       0.09139599 -0.19124112 0.33697936 0.08412772
000150 c1 a0 53 3c eb 96 cf be 31 74 84 3e 2f 8e 41 3d
       0.012916745 -0.4054483 0.25869897 0.047254737
000160 e5 a9 d1 3d 42 ca 9a 3e 6e 34 8a be e8 ba cc bd
       0.10237483 0.30232435 -0.26993126 -0.09996587
000170 2b eb db bd bc 3e 1c bd f7 97 04 be 60 ab ba 3e
       -0.10738214 -0.038145766 -0.12948595 0.36458874
000180 c4 29 1f 3e 1e ac 1c 3e 68 4b 50 3e 98 1b f6 bd
       0.15543276 0.15300032 0.20341265 -0.12016982
000190 8b c2 13 bd f1 e2 57 bd 8a 14 80 3d 18 63 90 be
       -0.036074203 -0.052706663 0.062539175 -0.28200603
0001a0 0c ae 6f be c2 42 bc 3d 2a 81 59 bd 39 d6 f2 3d
       -0.23406237 0.091924205 -0.053101696 0.11857266
0001b0 9e c4 51 3c f0 b5 95 be f2 3b 31 be 63 4f c1 be
       0.012803225 -0.2924037 -0.17308024 -0.3775588
0001c0 01 e8 06 3e 7e a0 16 be 91 df cc 3e 0e c9 a5 3e
       0.1317444 -0.1470966 0.40014318 0.32379955
0001d0 2f 68 ad 3d ec b8 92 be 2b 0d 5f 3e 08 5e 90 3e
       0.08467137 -0.2865671 0.21782367 0.2819674
0001e0 40 0a a9 3c 69 a5 01 3f 26 31 be bd a0 6e df 3b
       0.02063477 0.5064302 -0.09286718 0.0068186074
0001f0 04 e6 2e bd 47 d7 03 be 33 51 38 be 46 93 a6 3e
       -0.04269983 -0.1287509 -0.17999725 0.32534236
000200 47 d3 b8 3e 90 09 8f 3e 83 03 49 3e 75 77 0c bf
       0.36098692 0.27936983 0.19630246 -0.54869777
000210 64 5e 81 be ac 7f f2 3e de d8 20 bf 29 2d 9d be
       -0.25267327 0.4736303 -0.62830913 -0.30698517
000220 f5 75 31 be 6b 4d 61 3e a3 3c 9b 3e 93 ca 84 3e
       -0.17330153 0.22002189 0.303197 0.25935802
000230 6f 81 3d 3e 2e 66 f0 be 62 1a 66 be 5a 25 16 bf
       0.18506406 -0.46952957 -0.22471002 -0.58650744
000240 9c 91 30 3e e1 94 46 bf 15 ec cf 3e 75 37 f2 3d
       0.17243046 -0.7757092 0.40609804 0.11826984
000250 2b 1a 4d 3e e5 3c e2 be 17 d0 d3 3e 46 7c a9 3e
       0.20029514 -0.44187084 0.41369697 0.33102626
000260 7c f9 20 bd 15 92 ee 3e 47 28 a5 be 70 6e c6 bd
       -0.039300427 0.46595827 -0.32257292 -0.09689033
000270 90 fd ac be 44 53 ac be c9 01 bf 3e 32 7e 83 3e
       -0.33787203 -0.33657277 0.3730605 0.25682217
000280 01 71 ba 3e 37 6d ce 3e 5e 95 c8 3e 8d 00 41 bf
       0.3641434 0.403177 0.39176458 -0.75391465
000290 bb 4f d0 be d5 4c 03 3f 94 70 20 bf a6 bd d1 be
       -0.4068583 0.5128911 -0.6267178 -0.40965003
0002a0 43 8b 50 be b7 e2 00 3e 09 50 bb 3e bb d3 71 3e
       -0.20365624 0.12586485 0.365845 0.23615925
0002b0 51 56 c2 3e a9 35 f4 be 6a 45 e6 be 02 63 4c bf
       0.3795648 -0.4769719 -0.44974834 -0.79838574
0002c0 e5 ef b0 3e 89 cd 1d bf 24 4b cb 3e 15 51 77 3e
       0.34558025 -0.61641747 0.39705765 0.24152024
0002d0 30 b1 ac 3e eb b6 2e bf 15 f2 16 3f d6 45 01 3f
       0.33728933 -0.6824786 0.5896314 0.50497186
0002e0 bc 83 2c be 6f 68 06 3f 83 9d 9c be 38 a5 0e be
       -0.16847128 0.52503103 -0.30588922 -0.13930213
0002f0 0f ff 92 be 87 81 db be cc 52 4d 3e 9e e9 2c 3e
       -0.2871022 -0.4287226 0.20051116 0.16885993

encoder.W_e.bias f4 [3]
000000 73 2c 16 bf 1d 25 ac be 50 49 33 bf
       -0.58661574 -0.33622065 -0.7003374

encoder.v_e.weight f4 [1, 3]
000000 75 87 f5 3e a4 76 94 bb e8 27 15 3e
       0.47954908 -0.0045307446 0.14566004

decoder.W_d.weight f4 [32, 64]
000000 c0 5f 13 bb bc 87 c5 3d b4 4a 64 bd 18 9b 39 3d
       -0.0022487491 0.0964503 -0.055735305 0.045313925
000010 12 98 81 3d c0 33 fd bd 68 9d e4 bc 20 8b 83 3d
       0.06327833 -0.12363386 -0.027907088 0.0642302
000020 b8 e9 1e bd 9c 7a d1 3d 7c 1b 07 3d e0 61 66 3d
       -0.03879711 0.10228464 0.032985196 0.056245685
000030 a8 77 64 bd 8a 4c a7 3d 04 dc 7d 3d b4 7d 2c 3d
       -0.055778176 0.081688955 0.0619774 0.042112067
000040 ea 3e a4 bd 18 52 68 3d 60 b8 f8 bb f4 bd 37 bd
       -0.080198124 0.056718916 -0.0075903386 -0.044858888
000050 5c 82 b3 3d c0 95 89 3b b0 4c 7c bc 36 97 be 3d
       0.087650985 0.00419876 -0.015399143 0.09306185
000060 00 a7 0d bb 0c 55 9e bd 18 a9 99 bc 46 0b ff 3d
       -0.0021614432 -0.07731065 -0.018757388 0.12453322
000070 f2 bb c6 3d 3c 15 70 3d d8 e1 e6 bd 98 c7 82 bc
       0.097038165 0.058614 -0.11273545 -0.015964314
000080 da 8f ce bd 04 ea 7f bd d8 cd bb 3d 3a 11 a7 bd
       -0.10086031 -0.062479034 0.09170121 -0.081575826
000090 d8 ac ac bd b2 c8 e5 bd 10 23 68 3c 7e e7 dc 3d
       -0.08431405 -0.1121992 0.014168516 0.10786341
0000a0 b0 84 4c 3d 88 03 d5 bc 96 59 bb bd 8c b1 4a 3d
       0.04993123 -0.02600266 -0.091479465 0.04948573
0000b0 26 2e f3 bd 80 d5 a4 bd ca 09 e0 bd 40 03 42 3c
       -0.118740365 -0.080485344 -0.10939367 0.011841595
0000c0 12 c1 b5 bd 28 6d 71 3d 80 cd a7 ba 08 dd da bc
       -0.08874716 0.05894199 -0.0012802333 -0.026716724
0000d0 ee 69 ac 3d 02 ee ab 3d 48 bc fa bd 90 89 8a 3d
       0.08418642 0.08395006 -0.12242943 0.06764519
0000e0 c0 55 34 3c 50 dd ac bd f0 b7 17 bc 96 23 8b 3d
       0.0110067725 -0.084406495 -0.009260163 0.06793897
0000f0 3c ab 76 bd d0 35 e1 3c 00 ac f4 3d e0 5b 7b 3d
       -0.060221896 0.02749148 0.11946869 0.061366916
000100 10 70 55 bc 90 6c 92 3d 38 28 95 bd e6 d7 ad bd
       -0.013027206 0.07149613 -0.07283062 -0.08488445
000110 2c ab 87 3d ec 8b 97 bd a8 a6 a7 bc c0 03 27 bb
       0.06624445 -0.07399735 -0.02046521 -0.0025484413
000120 60 b6 89 bb 30 02 57 3d 56 c0 b0 3d a8 8a be 3d
       -0.004202649 0.05249232 0.08630435 0.0930379
000130 a2 eb c5 bd 70 3d 7a 3c 90 9c c0 bc 26 ec c4 3d
       -0.09664084 0.015273437 -0.023512155 0.09615354
000140 72 f5 87 3d 04 da ab bd 56 28 c4 3d 70 81 2c bc
       0.06638612 -0.083911926 0.09578006 -0.010528907
000150 08 bc b7 3d 5c eb f5 bd 78 6e 65 3d 34 fd 61 bd
       0.08971411 -0.12007782 0.056013554 -0.055173114
000160 08 df 86 bc 18 42 c1 3c 78 40 4a 3d ea cf fa 3d
       -0.016463771 0.023591086 0.04937789 0.12246688
000170 78 ea 3a bd dc c5 0f 3d d8 fc 8e 3d 68 4c 94 bc
       -0.045633763 0.035100803 0.0698182 -0.01810284
000180 24 31 50 bd b0 e3 02 3d c8 07 3f bd c0 8e 87 3c
       -0.050828114 0.03195542 -0.04663828 0.01654756
000190 12 8d 9b 3d 5c da 1a bd 88 ec 58 bd b2 65 9a bd
       0.075952664 -0.0378059 -0.05295995 -0.07538928
0001a0 78 20 b1 3c b8 9b 80 bc a0 62 fd bd 68 59 06 bd
       0.021621928 -0.015699252 -0.12372327 -0.03280011
0001b0 34 35 9e bd 42 0b da bd 68 df 67 bd 00 94 e2 3b
       -0.077249914 -0.106466785 -0.05660954 0.0069146156
0001c0 74 0a 54 3d 98 7e 4b bd 88 d1 8a bc ac b6 63 3d
       0.05176778 -0.049681276 -0.016945615 0.05559413
0001d0 90 6c 48 bc f6 e5 a8 3d 48 fc c3 3d b8 51 db bc
       -0.012232915 0.082469866 0.09569603 -0.026772365
0001e0 0a 2d f5 bd 26 fc ba 3d 60 eb 7e 3d 1c 30 2d 3d
       -0.11971481 0.09130125 0.06223619 0.04228221
0001f0 f2 a0 81 bd b4 48 de bd b0 a9 5d 3d b0 9f de 3d
       -0.06329526 -0.10853711 0.054116905 0.10870302
000200 32 a2 e7 bd 84 5e 91 3d 28 b0 35 3d d6 eb c9 3d
       -0.11310233 0.070981055 0.04435745 0.09859435
000210 10 61 4a bd 32 6e cd 3d 4e 21 b7 bd ba 73 e5 bd
       -0.049408972 0.10030784 -0.08941899 -0.11203714
000220 30 bc 73 3d 4a 64 aa 3d c0 b4 79 bb 4e 97 80 3d
       0.05950564 0.0831991 -0.003810212 0.06278859
000230 40 a5 c1 3b a8 91 97 3d 90 af 93 bd 00 0c 73 bb
       0.005909592 0.074008286 -0.0721122 -0.003708601
000240 b4 9f f8 bd 10 ff ec 3d 54 ce 36 bd d8 fd d9 bc
       -0.12139836 0.11572087 -0.044630364 -0.0266103
000250 6a 7f 9a 3d 16 57 d3 bd 2c f0 89 3d f8 f1 9a 3d
       0.075438336 -0.10319345 0.06735262 0.07565683
000260 68 de 42 bd b0 bb 46 bc 00 3b 35 3a 78 91 fa 3c
       -0.047575384 -0.012129709 0.0006913394 0.030586943
000270 40 56 e4 3d 48 95 1b bd ac 93 59 bd 60 c1 56 3c
       0.111492634 -0.037984163 -0.053119346 0.013107628
000280 2e 7e f5 3d 6e ca 8a 3d 3c 3d fb 3d e8 d9 e6 3c
       0.119869575 0.06776892 0.12267539 0.028180078
000290 78 30 66 bd c0 4f 0c bd d0 fe 4e bc be ae 91 bd
       -0.056198567 -0.034255743 -0.012633994 -0.071134076
0002a0 a0 f5 c1 bd 50 d1 56 bc 98 2c f5 bd 1c 0b 6c bd
       -0.094706774 -0.013111427 -0.11971396 -0.057627782
0002b0 c0 72 a5 bc ba 71 89 3d 12 83 f9 3d b2 c5 a6 bd
       -0.020196319 0.06711145 0.12183203 -0.08143176
0002c0 84 7c a7 bd 00 20 25 b9 ec ed e6 bd 60 af f0 bb
       -0.08178046 -0.00015747547 -0.11275849 -0.007345125
0002d0 cc e7 76 3d 4e 62 8c bd 6c 00 8a bd 48 b0 a8 bd
       0.060279652 -0.06854688 -0.06738362 -0.08236748
0002e0 4c d6 b6 3d d0 a4 9b 3c 90 c4 db 3d 80 6f 12 bd
       0.08927593 0.018999487 0.10730851 -0.035750866
0002f0 a8 fd e5 bc 2e 33 cb 3d 10 dc 84 3d e0 46 c4 bc
       -0.028075054 0.09921871 0.06487286 -0.023959577
000300 a4 9e 06 bd c4 72 50 bd 12 78 8c 3d 28 b4 f8 3c
       -0.032866135 -0.0508907 0.06858839 0.030359343
000310 20 c9 de bb d4 7f a1 3d 5a 6f ba 3d fc 0d 0c 3d
       -0.0067988783 0.078857094 0.0910327 0.034193024
000320 a8 d8 66 bd 18 3c db bc 24 03 ad bd 10 83 a6 3d
       -0.056358963 -0.026762053 -0.08447865 0.08130467
000330 e2 c0 94 3d b0 1d 93 bd 08 cb a7 bc 16 73 aa bd
       0.07263352 -0.07183397 -0.020482555 -0.08322732
000340 78 3e 54 bd b0 03 97 3d 90 c6 e2 3c 88 89 2c 3d
       -0.051817387 0.0737375 0.027682573 0.042123348
000350 90 8b 31 3d e8 c8 43 3d de c8 da bd 36 a3 f5 bd
       0.043345988 0.04779902 -0.106828436 -0.11994021
000360 a0 70 9b bd dc 6c 34 bd e0 a7 b5 3c 10 4a 41 3c
       -0.07589841 -0.04404913 0.022174776 0.011797443
000370 22 5f a8 3d 98 14 b4 3c c0 35 7a 3d 64 91 34 bd
       0.0822127 0.021982476 0.061086416 -0.044083968
000380 08 15 3e 3d 58 41 8f bc 80 00 93 3c 80 5b 19 3b
       0.046406776 -0.017487213 0.017944574 0.0023400486
000390 52 05 ae 3d f4 ef 36 bd 78 52 b6 3d 20 78 14 bc
       0.084971085 -0.04466243 0.089024484 -0.009061843
0003a0 50 ed 31 3d 64 b1 43 3d 6a f1 db bd c0 74 a3 3b
       0.04343921 0.047776595 -0.107394055 0.004988283
0003b0 6c b4 8f 3d a0 15 70 bc 86 15 9f 3d c8 29 be 3d
       0.070168346 -0.014653593 0.07767777 0.09285313
0003c0 fc d6 89 3d e0 6a 50 bd 2c da 37 3d 54 44 8a bd
       0.06730458 -0.050883174 0.0448858 -0.06751314
0003d0 00 b3 3e ba 6e 30 96 3d 1c 70 eb bd 68 92 c0 3c
       -0.0007274598 0.07333456 -0.114959925 0.023507312
0003e0 18 91 2e 3d 34 ce d6 3d 5c c7 95 bd a0 6d 0b bc
       0.04261884 0.10488549 -0.073134154 -0.008510023
0003f0 18 08 fe 3c e8 6b 01 3d a0 ff 62 3c c0 eb 8d 3c
       0.031009719 0.031597048 0.013854891 0.017324328

decoder.W_d.bias f4 [32]
000000 cc 1a b3 bd f6 ec 1d bd e3 9a 47 3d 0a fb 9d 3d
       -0.087453455 -0.03855606 0.048731696 0.077138975
000010 0a 3c 5e 3d f9 fb 32 bd ef d4 ab 3d e6 c4 54 bd
       0.054256476 -0.04369733 0.08390223 -0.05194559
000020 23 a7 b4 bd d2 5b 17 3d 08 0a 9c bd 5b 90 5b bd
       -0.08820941 0.0369528 -0.07619101 -0.053604465
000030 e6 e4 ae bd d8 01 e8 bd d9 91 3a 3d dc 30 89 bd
       -0.08539753 -0.11328477 0.045549247 -0.06698772
000040 4d 12 70 bb fe 79 5e 3d 4c 5a 6d bc 2f ba f4 3c
       -0.0036632002 0.05431556 -0.0144868605 0.029873936
000050 6f 90 40 bc 17 5f 22 3d 3f 4e 44 3d 34 b1 6f 3d
       -0.011753186 0.039641466 0.047926184 0.058518603
000060 7f 4f e0 3c 64 d1 f2 3a 44 c8 1c 3e 64 15 86 3c
       0.027381657 0.0018525538 0.1531077 0.016367622
000070 ab b4 2d bd f2 fd 59 3d 29 ae 57 bd 4f 0f b4 bc
       -0.042408627 0.053220697 -0.052656326 -0.021979956

decoder.U_d.weight f4 [32, 32]
000000 bb 17 f3 bd a2 52 87 bf 62 22 6c be 3a fa 9c bd
       -0.118697606 -1.0572093 -0.23059991 -0.076649144
000010 09 56 45 3e 70 f2 32 3e 2b 58 d9 be 24 d3 0e 3e
       0.19271101 0.17475295 -0.4245008 0.13947731
000020 d1 45 91 3e 48 19 25 bf 50 74 0e bd 44 a4 a5 be
       0.28373578 -0.644917 -0.034778893 -0.32351887
000030 ca fa a6 bd 29 74 fc bd f3 b4 96 3e 65 d3 88 3e
       -0.08153303 -0.12326843 0.29434928 0.2672378
000040 00 28 a6 bd fd 82 49 be 2b cf 8c 3d 00 52 89 be
       -0.08113098 -0.19678874 0.06875452 -0.26820374
000050 4a 5d c0 be 2e 20 97 3e 7f 1f d8 3b 06 ba 23 bf
       -0.37571174 0.2951674 0.0065955515 -0.63955724
000060 49 72 9b 3e 93 42 c6 3c 05 f4 4f 3e da 0a 95 3e
       0.3036063 0.024201667 0.2030793 0.29109842
000070 0b c6 56 3f 25 69 c3 3e a9 cf f3 3e 83 6a 2b be
       0.8389594 0.38166156 0.4761937 -0.1673985
000080 c8 65 3b 3e fd 7c a3 3f 7f b0 d3 3e 4b d2 92 3e
       0.18300545 1.2772518 0.41345593 0.28676066
000090 ec 1e 58 3c f1 7e 8d be be c8 c9 3d a1 69 79 be
       0.013190966 -0.2763591 0.09852742 -0.243567
0000a0 c5 01 d5 be b3 da 2c 3f 6b 73 af 3d 02 88 f8 3e
       -0.41602913 0.6752121 0.08566936 0.48541266
0000b0 dd 72 b9 3e e6 75 05 3e 16 4c 98 be ef 96 9a be
       0.36220446 0.13033256 -0.2974555 -0.30193278
0000c0 25 eb 4e 3e 1a 7b 1a 3d aa be 04 be 5f 80 30 3f
       0.20206888 0.037715055 -0.12963358 0.6894588
0000d0 ab 08 0a 3e 34 e7 a6 be 79 29 6c 3d d6 0d 5c 3f
       0.13479869 -0.3259827 0.05765674 0.8595861
0000e0 ee eb 55 bd 3e 0b e1 3d f9 3a de be 6c 77 d7 bd
       -0.052226953 0.109884724 -0.43404368 -0.10520825
0000f0 c4 c0 4d bf 5f f5 02 bf 02 30 9f be 8f f5 6f be
       -0.8037226 -0.51155657 -0.31091315 -0.23433517
000100 d4 89 58 be 83 75 9f bf 02 ca b6 be dd 6d 83 be
       -0.21146327 -1.2457737 -0.35700995 -0.25669757
000110 0a 5f f0 3d 07 4c 48 3e 69 d1 67 be 50 67 43 3c
       0.11736877 0.19560252 -0.22638477 0.011926487
000120 5c 4b c8 3e ce 7f 48 bf 05 b7 bc be fb bb ba be
       0.39119995 -0.78320014 -0.36858383 -0.36471543
000130 bc 74 c5 be 09 35 25 be 45 a2 59 3e 79 f7 80 3e
       -0.38565624 -0.16133513 0.21253307 0.25188807
000140 4f 80 ba bd 8d 7a 7a be b3 f7 9c 3e 41 b3 3d bf
       -0.09106504 -0.24460812 0.3065773 -0.74101645
000150 aa fb 38 bc 3f 99 61 3e 58 27 c6 3d f1 54 3d bf
       -0.01129047 0.22031115 0.09675473 -0.73957735
000160 23 99 80 3d 1e 31 ea bc d5 70 b9 3e f9 a6 d9 3e
       0.062792085 -0.028587874 0.36218897 0.42510203
000170 89 76 6f 3f 6a 51 26 3f 04 60 39 3e e8 56 5f 3e
       0.93540245 0.6496798 0.18103033 0.21810496
000180 a0 86 64 3e 5e 85 84 3f 38 ab 8b 3e ed 3d 8a 3e
       0.2231698 1.03532 0.27279067 0.2700037
000190 fc 59 aa ba 0e 91 ad be 5f 7a 26 bd d0 39 45 bd
       -0.0012996788 -0.3389973 -0.040644046 -0.048150837
0001a0 1d 2a 47 bd 19 78 40 3f cf 14 eb 3d a8 5f 85 3e
       -0.048624147 0.75183254 0.11478578 0.26049542
0001b0 55 5c 16 3e 3a 29 1a 3e 41 31 75 be 05 bf fe bd
       0.1468366 0.15054789 -0.2394457 -0.12438778
0001c0 f9 7d 81 3e 06 4f f8 3d 4f a8 2d be cf 5d 85 3e
       0.25291422 0.121244475 -0.16958736 0.26048133
0001d0 aa 3e 57 3c ba 3b bd be d4 50 61 bd fb 33 36 3f
       0.013137499 -0.3695963 -0.055008724 0.71173066
0001e0 4e a5 2b bc ad 38 9a bc 72 a6 61 be 34 2d f0 bd
       -0.010476423 -0.018825853 -0.2203615 -0.11727372
0001f0 e6 7e 37 bf d7 84 ea be 5e 85 d9 bd 0c 05 2c be
       -0.71678007 -0.45804474 -0.10621141 -0.167988
000200 c3 f2 87 bd a7 2c 1c bf ca fa 05 3d 48 cd 34 3e
       -0.066381 -0.61005634 0.032709874 0.17656434
000210 7f 3b 61 bd c4 aa 8c 3d 61 9b 56 bd 08 d1 a0 3c
       -0.05498838 0.068685085 -0.052394275 0.019630924
000220 7a 32 b9 3d 21 a6 17 bf 11 cf 9c 3d 70 6f 23 bd
       0.09042831 -0.5923787 0.07656682 -0.039901197
000230 69 10 3e 3d 55 78 34 3e 4f ee f3 bc 05 6b c4 3d
       0.04640237 0.17624028 -0.02977672 0.09590725
000240 a7 dc 10 be f1 c4 b9 bd d0 6e 07 3e 23 28 22 be
       -0.14146672 -0.09070767 0.13225865 -0.15835623
000250 68 54 94 bc 3a fc a1 bd e0 2f 90 3d fb 0a 21 be
       -0.018106654 -0.079094365 0.070403814 -0.15726845
000260 5a b3 1b 3c 51 38 fb 3d d2 8a da 3d b1 b2 2a 3e
       0.00950321 0.12266601 0.10671009 0.16669728
000270 f9 75 05 3f dc 75 ce 3e 77 24 09 bd a1 74 2f bd
       0.52133137 0.40324295 -0.03348204 -0.042835835
000280 8f 76 fd be f1 bb 98 bf b5 41 dc be c9 91 c5 bd
       -0.49504516 -1.1932355 -0.4301888 -0.09646947
000290 86 29 10 bd 9d 06 bc 3e 76 60 31 be 85 e5 29 3e
       -0.03519585 0.36723796 -0.17321953 0.16591461
0002a0 25 87 c3 3e 12 ec 06 bf ba 9a 8c bc e4 d2 15 bf
       0.38189045 -0.52703965 -0.017163623 -0.5852492
0002b0 af 77 12 be de a5 03 bd 86 5f 0e 3e 31 44 d5 3d
       -0.14303468 -0.032140605 0.13903627 0.10413397
0002c0 cb 14 57 be 2e 89 7e bd c5 da a1 3d 66 fb 26 bf
       -0.21004026 -0.062142543 0.07903055 -0.65227354
0002d0 2e 7b 69 be 5f 11 8e 3d dc 06 82 bd 55 c8 36 bf
       -0.22800896 0.06936907 -0.063489646 -0.7139943
0002e0 50 28 56 3e 14 9d 83 bd e4 9d d4 3e eb 90 b4 3e
       0.20913815 -0.06426445 0.4152671 0.35266814
0002f0 36 61 3c 3f 3f 3c 19 3f a1 80 bc 3e 3c e0 b8 bd
       0.7358583 0.59857553 0.36816886 -0.09027144
000300 0e fb 54 be 75 d6 5d bf c2 c0 c7 bd 86 c6 27 bd
       -0.20798895 -0.8665536 -0.097535625 -0.04096081
000310 32 5d 35 bd 03 58 e7 3d df c8 ab be 0a e0 b6 3d
       -0.04427833 0.11296084 -0.3355169 0.08929451
000320 ee fc bb 3e 03 18 18 bf 7d c2 42 be d6 5d 90 be
       0.36716408 -0.5941164 -0.19019504 -0.2819659
000330 9c c9 6e be c1 c4 85 3d 7f 6e 80 3e 6f a3 94 3e
       -0.23319095 0.065316685 0.25084302 0.2903094
000340 09 c3 19 be 5e 6f 28 3b 11 0c dd 3d 53 44 c5 be
       -0.15015806 0.0025701146 0.10793317 -0.3852869
000350 92 97 91 be 71 bf 3d 3e 6a 57 97 bd c2 f5 ab be
       -0.2843595 0.1853006 -0.0738972 -0.33585936
000360 05 42 74 3e 21 60 1f be 7f f1 9c 3e d8 de 5e 3e
       0.2385331 -0.15564014 0.30652997 0.21764696
000370 19 bc 55 3f bb 78 1f 3f 91 7f b1 3e 6f 3d cf 3c
       0.8349014 0.62293595 0.34667638 0.025297849
000380 4d 50 c6 bd 86 11 9e bf 54 7c 6f be fe 07 5c be
       -0.09683285 -1.2349098 -0.23387271 -0.21487424
000390 3c 37 03 be 83 f0 50 3e 19 84 e7 bd 67 8b 3f bd
       -0.12814039 0.20404248 -0.113044925 -0.046763804
0003a0 53 a7 12 3e b0 c7 45 bf 36 68 9b be a3 ed 01 be
       0.14321642 -0.77257824 -0.30352944 -0.12688307
0003b0 1b f9 66 be 5e b9 3a be 38 5b 87 3e 83 a0 aa bb
       -0.22555964 -0.18234774 0.26436782 -0.005207123
0003c0 5c 61 c7 be c2 ce 33 3c 67 92 b3 3d cd 67 01 bf
       -0.38941467 0.010974588 0.087681584 -0.5054901
0003d0 7e 14 91 bd 83 fc 41 3e 1e 38 a4 3c 2a 6f 3c bf
       -0.07083987 0.18943982 0.02004629 -0.7360712
0003e0 f4 f3 76 3e 60 7e 48 bd 4a 4d 8f 3e 4a eb 3f 3e
       0.24116498 -0.048948646 0.27988654 0.187421
0003f0 e4 b0 2f 3f f4 d1 c8 3e 98 4c b0 3e 5a b9 41 3c
       0.6862929 0.39222682 0.34433436 0.011823976

decoder.U_d.bias f4 [32]
000000 68 cd 19 3d c9 e4 07 3e cb 00 0c be 7c 95 8a 3c
       0.037549406 0.13270868 -0.13672177 0.016916983
000010 67 4d 95 bd 64 a9 8d bc f1 16 4c be 8a 29 25 bc
       -0.07290154 -0.017292686 -0.19930626 -0.010080704
000020 ac b8 05 3e a9 0e 31 3d 90 c2 31 bd 27 f1 09 3e
       0.13058728 0.04322687 -0.04339844 0.13470899
000030 b2 74 16 3e 37 d1 69 3d 6d 2f 3e 3d a5 ed f3 3d
       0.14692953 0.05708429 0.046431947 0.119105615
000040 4b 59 b7 bd 28 d4 f1 bc 48 8b d6 bd d9 a0 47 bd
       -0.08952578 -0.02952011 -0.104757845 -0.04873738
000050 2d b5 bc 3d e8 92 ca bd 04 ec 1b 3d 3d e4 42 3d
       0.09214244 -0.098913014 0.03806688 0.047580946
000060 2b 8f 70 3d 01 7c ee bd be a9 bf bd fc d7 5a 3d
       0.058730286 -0.116447456 -0.09358548 0.053428635
000070 26 6d 38 3e f8 bc cc bc 0e db 04 3e 58 e7 9e bc
       0.18010387 -0.024992451 0.12974188 -0.019397423

decoder.v_d.weight f4 [1, 32]
000000 f1 ba e2 be ff 7e 1d 3f b0 c2 21 bf 5d b4 fd 3e
       -0.4428325 0.61521906 -0.63187695 0.4955167
000010 7e df 22 bf 73 b9 09 bf eb 6b cb be a1 5e 18 bf
       -0.6362227 -0.537986 -0.39730772 -0.5951939
000020 ab 4f fc 3e c5 aa 08 3f 96 b1 01 3f 51 39 31 3f
       0.49279532 0.53385574 0.506616 0.6922808
000030 64 fe b2 be 7b 95 04 bf 67 72 83 3f 1c a0 ce 3e
       -0.3495971 -0.5179059 1.0269288 0.4035653
000040 d8 d4 11 bf 8a 1a 47 3f 0a 90 54 bf b7 ac 20 bf
       -0.569654 0.7777487 -0.83032286 -0.6276354
000050 88 85 cc 3e 01 d4 1a bf c7 5b 7a 3f 20 94 05 3f
       0.39945626 -0.6047974 0.9779629 0.52179146
000060 b6 75 17 3f d8 4b 20 bf 4e 28 ec 3e 03 bf 14 3f
       0.5916399 -0.6261573 0.461245 0.5810396
000070 64 51 de 3e 89 1a 02 3f 25 fd 80 3f 93 58 df be
       0.4342147 0.5082174 1.0077254 -0.43622264

decoder.w_tilde.weight f4 [1, 33]
000000 3e af 44 3e 00 5e c6 3d 65 f6 04 3e 39 6e 19 be
       0.19207475 0.09685898 0.12984617 -0.14983453
000010 c1 4c 10 3d 20 f2 15 be f0 bb 9e 3e d4 64 01 bd
       0.03522945 -0.14643145 0.3100276 -0.031590298
000020 31 9a 1e be e8 ea aa 3d 96 b3 77 3d 76 97 b9 3e
       -0.15488507 0.08345586 0.060474 0.36248368
000030 84 25 01 3e d4 cd ce bd 1f 24 28 bd 9f 69 56 bd
       0.12611967 -0.10097852 -0.041050073 -0.052346822
000040 67 f2 35 3e 6e a0 cd 3e 41 67 bd 3b c4 c8 3f 3e
       0.1776825 0.4016146 0.005780131 0.1872893
000050 93 1d 93 3d a4 0b ac bd 88 d2 5f 3d 18 7c 4a 3e
       0.07183375 -0.08400658 0.054644138 0.197739
000060 6e ff 96 bd 65 62 bb 3d dd 1a 02 be 2c 73 11 be
       -0.07372938 0.09149627 -0.1270556 -0.14204091
000070 ca e6 23 3d 42 20 4d bd 69 e0 3f be f0 eb 16 3e
       0.04001502 -0.05007959 -0.1873795 0.1473844
000080 bd bb 1f bf
       -0.6239584

decoder.lstm.weight_ih_l0 f4 [128, 1]
000000 80 3b 2d be 54 a1 23 3f 06 6f 68 be d2 b3 16 bc
       -0.16917229 0.6391804 -0.22698602 -0.009198146
000010 6f 24 d6 3c b2 8b db bd 1e ba 1f 3f a8 25 43 3c
       0.02614042 -0.10720004 0.6239337 0.011910833
000020 48 dc 40 bd fa af 48 be fe fa 2d be 03 17 19 3e
       -0.047085077 -0.1959838 -0.16990277 0.14950185
000030 65 c3 e4 be 45 5a 77 3f 51 92 85 3f a4 35 bb be
       -0.44680324 0.96622115 1.0435277 -0.36564362
000040 21 6c c0 be 86 f9 fd bd b5 45 cb be 6f 52 65 be
       -0.37582496 -0.124011084 -0.3970162 -0.22394727
000050 73 13 75 be e3 f6 91 be 01 37 8e be dc 5a 8e bd
       -0.239332 -0.28508672 -0.2777634 -0.06950924
000060 6d ad 82 be f2 61 c7 bd 50 c2 ee 3c 0a a2 89 be
       -0.25522938 -0.097354785 0.02914539 -0.26881438
000070 bb b2 e9 be 13 41 66 3f 78 39 86 be 70 a4 8e be
       -0.45644173 0.89943045 -0.2621572 -0.2785983
000080 a3 bd 87 bd 81 93 0a 3d 35 aa d8 bd 4a 98 e2 3d
       -0.06627967 0.033832077 -0.105793394 0.11064203
000090 d5 a5 21 bd 93 c4 42 3b 85 a2 24 3e 62 f3 cb 3d
       -0.03946479 0.0029719218 0.16077621 0.09958531
0000a0 14 62 61 3d 11 e0 2c 3e 0a ee ad 3d 83 8d 08 3e
       0.055025175 0.1688235 0.08492668 0.13335232
0000b0 c2 2f a1 3d e5 f1 ea 3d 30 b8 ee bc ba 7e f2 3d
       0.07870437 0.11471919 -0.029140562 0.118405774
0000c0 68 6c 98 3d 71 cc 31 3e 71 3f 0f bd 0e da 29 be
       0.07442552 0.17363144 -0.03497261 -0.16587088
0000d0 48 97 8e bc 61 10 0a bb c3 68 b1 3d dc 43 1c 3e
       -0.01740612 -0.0021066891 0.0866256 0.15260261
0000e0 ca 90 d1 3d 80 bb 3c bd 13 b8 3c 3d a6 f4 f0 3d
       0.102326944 -0.04607725 0.046073984 0.11765413
0000f0 cd e3 16 3e ed da 76 bd dc 7c e1 bd 39 d3 53 bd
       0.14735337 -0.060267378 -0.11010143 -0.05171511
000100 b7 b1 b1 3e 4a 2a de 3e 55 3f 54 be 74 d5 c6 3e
       0.34705898 0.4339164 -0.20727284 0.38834727
000110 51 2a ac ba 27 6c da 3e ca 16 c7 3e 76 f0 70 b9
       -0.001313517 0.4266064 0.38884574 -0.00022977762
000120 be 46 2a 3a 60 b0 d7 be 8e dc c3 3e 71 33 16 bf
       0.0006495527 -0.4212675 0.38254207 -0.58672243
000130 4a c7 d6 be f9 de 95 be 7d 43 b1 3e bb 7e 89 be
       -0.4194892 -0.29271677 0.34621802 -0.268545
000140 80 53 de 3e 92 01 9a be af 30 cf 3e 7d 51 9d 3e
       0.4342308 -0.30079323 0.4046683 0.30726233
000150 6e 78 ae 3e 77 57 ee be fc 0a 19 3f 72 84 84 3e
       0.34076256 -0.46551105 0.59782386 0.25882298
000160 9e 6f de bd 33 2c e5 be 13 08 dd 39 04 44 11 be
       -0.10861133 -0.44760284 0.0004215842 -0.14186102
000170 02 05 f2 3e f1 7f e8 3a 46 d3 b8 3e 0a 75 8a be
       0.47269446 0.0017738325 0.3609869 -0.2704242
000180 60 13 9e be 31 8c f6 3e b2 4c 81 be 9c 2a 36 be
       -0.30874157 0.48153833 -0.25253826 -0.17789692
000190 44 5d c9 bd c9 f8 a9 be d8 4e 25 3f 49 97 1c be
       -0.09832242 -0.3319762 0.6457343 -0.15292086
0001a0 18 56 9d 3d 7a 89 64 be 9b 6c 7d be 71 b1 1f 3e
       0.07682437 -0.22318068 -0.24748461 0.15595032
0001b0 46 68 88 be 45 91 44 3f 0f 1c 81 3f 77 31 07 be
       -0.26642054 0.76784164 1.0086688 -0.13202463
0001c0 70 7b ca be 72 c4 11 be c1 0f 1b be 05 6d c4 be
       -0.395473 -0.14235094 -0.15142728 -0.38364425
0001d0 ca 9b dc be a4 de e8 be 86 d9 82 be 19 97 4f be
       -0.43087608 -0.4548236 -0.25556582 -0.20272483
0001e0 25 d2 15 bd b8 67 3b be c2 ea 09 be d7 da b3 be
       -0.036577363 -0.18301284 -0.13468459 -0.351279
0001f0 57 30 9f be 84 f6 6d 3f 2e 33 18 be f8 27 a4 be
       -0.31091568 0.9295428 -0.14863274 -0.32061744
