weights/DARNN_L3_HDE64_HDD64_BS32_E50_s1.pth (torch, 312242 bytes, 22 tensors)

encoder.lstm.weight_ih_l0 f4 [256, 81]
0.15764901 0.081426434 0.09517084 0.11884698 -0.17056002 0.1914678 -0.056117997 0.1504755
0.09237573 0.081060305 0.07717413 0.029480433 0.21496822 -0.04900066 0.11773484 0.19270818
0.12828931 0.16140689 0.21703221 0.08171343 0.078149386 -0.058166917 0.039973248 -0.0064410875
0.016443303 0.058866583 0.23158109 0.1413717 -0.026992343 0.115339234 0.1387701 0.24339622
0.1155587 0.027226772 -0.14308424 -0.0671573 0.11466054 0.2273086 0.13630678 0.008269323
0.26716602 -0.006554515 0.15732855 0.12510577 0.012381215 0.19332147 0.045729585 0.003717625
0.08425816 0.058919996 0.0022106206 0.09468816 0.08606079 0.095202774 0.20803602 0.2077868
0.056684263 -0.043409362 0.18691789 0.19775772 0.037467048 0.011699598 0.21606897 0.165536
-0.07162449 0.036308505 0.14412908 0.11486756 0.069200985 -0.12440536 0.14593178 0.067719325
0.13465667 0.094231814 0.07022694 0.17898655 0.09573173 0.09431 -0.23590617 0.12309795
0.03355926 0.0122678485 0.15717019 0.16113551 0.16430323 -0.09189546 0.05370636 0.11087132
0.13466448 0.19719017 0.19391933 -0.017405132 0.12237328 0.25688303 -0.009360074 0.123190984
0.27485126 0.20669258 0.121198945 0.1671173 0.20661929 0.18305247 0.15032811 0.11096314
0.04262397 0.024986142 0.24211675 0.21231483 0.22116657 0.19495422 0.14189118 0.24965355
0.27658477 -0.011932701 0.19234936 0.097796395 0.11839767 0.15533942 0.17872101 0.03776559
0.029267179 0.23357567 0.23310792 0.047102675 0.23830855 0.023168629 0.0935082 0.13225612
0.10019739 0.24487408 0.04487851 0.1727664 0.33865598 0.16184217 0.23103465 0.2139635
0.19301821 0.1434502 0.035587475 0.0003544074 0.12421717 0.12769058 -0.09458344 0.21045937
0.1338205 0.0053216405 0.13132274 0.23249541 0.23306838 0.26098806 0.01186021 0.2737098
0.13197921 0.11132902 0.032878865 0.04844912 0.12897065 0.04177174 0.1534522 -0.069767095
-0.001876971 0.21190333 0.01964168 0.1060686 -0.037381057 0.03963337 -0.13934015 -0.028615974
-0.23160216 -0.059301 -0.049118146 0.07806932 0.042533837 -0.03014355 0.2120484 0.050594248
0.15715846 0.1151723 -0.057853233 0.16287969 -0.018310623 -0.03333365 -0.06725756 -0.06629962
-0.122765064 0.10603349 -0.13580543 -0.14436753 0.03748152 -0.04274767 0.07258205 -0.076491885
-0.05297236 0.016473372 0.040020183 -0.030061092 -0.01950425 0.0013879034 0.09885986 0.06213998
0.08442982 -0.08663129 0.15968028 -0.036594383 0.09175526 0.06906996 -0.016860643 0.015287074
0.033026688 0.0032341522 0.08485021 0.02103591 -0.045509018 0.13104862 0.07515349 0.09988398
0.038024846 -0.0768928 -0.08796722 0.065930165 -0.09026656 0.17329456 -0.075055175 -0.16238645
0.12070086 -0.0798699 -0.054475367 0.06848952 0.12931016 0.058168665 0.0034589549 -0.19922365
0.12446498 0.034587543 0.013420956 0.027196094 -0.13859433 0.11133259 0.054662876 -0.13523494
-0.25156504 -0.025798095 0.11959607 0.09233083 0.4329101 0.11001543 -0.12463679 -0.096085474
-0.009513388 -0.017627826 0.10839382 -0.045000963 0.114006706 0.32484046 0.10696937 0.07550321
00000000: be6e 213e e7c2 a63d eee8 c23d 0c66 f33d
00000010: 49a7 2ebe 2310 443e fcdb 65bd 4016 1a3e
00000020: 7d2f bd3d f202 a63d 780d 9e3d f380 f13c
00000030: a120 5c3e ebb4 48bd f71e f13d 4b55 453e
00000040: 465e 033e d947 253e b13d 5e3e 5f59 a73d
00000050: c90c a03d 6f40 6ebd fdba 233d c20f d3bb
00000060: 1bb4 863c 161e 713d 9823 6d3e bec3 103e
00000070: 0c1f ddbc fa36 ec3d c019 0e3e dc3c 793e
00000080: 0aaa ec3d ae0a df3c ad84 12be c489 89bd
00000090: 25d3 ea3d 96c3 683e 0194 0b3e 0e7c 073c
000000a0: fcc9 883e 42c7 d6bb bc1a 213e ba1b 003e
000000b0: 94da 4a3c 10f6 453e f24e 3b3d 66a3 733b
000000c0: 8b8f ac3d 1856 713d 0fe0 103b deeb c13d
000000d0: a440 b03d acf9 c23d 6507 553e 10c6 543e
000000e0: c22d 683d 04ce 31bd 6767 3f3e 0081 4a3e
000000f0: 0c77 193d acaf 3f3c 2f41 5d3e 4582 293e
00000100: dcaf 92bd 3ab8 143d 9396 133e af3f eb3d
00000110: 3fb9 8d3d 3dc8 febd 246f 153e 6eb0 8a3d
00000120: 70e3 093e 9cfc c03d 24d3 8f3d 4048 373e
00000130: ff0e c43d 9a25 c13d 6391 71be c71a fc3d
00000140: 6f75 093d 16ff 483c 39f1 203e b500 253e
00000150: 1b3f 283e b033 bcbd 33fb 5b3d 8110 e33d
00000160: 7ce5 093e 38ec 493e ca92 463e 3595 8ebc
00000170: d89e fa3d 2c86 833e ff5a 19bc 8e4b fc3d
00000180: 4eb9 8c3e 38a7 533e 2737 f83d cc20 2b3e
00000190: 0294 533e 1b72 3b3e 9def 193e a540 e33d
000001a0: 7996 2e3d bdaf cc3c 74ed 773e 0f69 593e
000001b0: 7d79 623e 14a2 473e ec4b 113e 2ea5 7f3e
000001c0: 859c 8d3e 6081 43bc 3bf7 443e 7a49 c83d
000001d0: 7a7a f23d 4c11 1f3e a402 373e 17b0 1a3d
000001e0: b9c1 ef3c 762e 6f3e d8b3 6e3e bcee 403d
000001f0: 2807 743e 23cc bd3c 3a81 bf3d 266e 073e
00000200: 4a34 cd3d 45c0 7a3e 87d2 373d ade9 303e
00000210: 5164 ad3e f4b9 253e 5994 6c3e 3f19 5b3e
00000220: 91a6 453e 9ce4 123e 2cc4 113d c2cf b939
00000230: 9265 fe3d 52c1 023e f6b4 c1bd a982 573e
00000240: 3e08 093e 2861 ae3b 7879 063e 4713 6e3e
00000250: 7aa9 6e3e 3aa0 853e 5451 423c b123 8c3e
00000260: 8f25 073e 7800 e43d fdab 063d 9672 463d
00000270: e210 043e d818 2b3d 9322 1d3e 0de2 8ebd
00000280: b204 f6ba 30fd 583e 97e7 a03c 7f3a d93d
00000290: e11c 19bd 9a56 223d 2faf 0ebe 0c6c eabc
000002a0: 1e29 6dbe 9be5 72bd 1c30 49bd cfe2 9f3d
000002b0: f637 2e3d 9bef f6bc 3723 593e ea3b 4f3d
000002c0: 26ee 203e 74df eb3d 83f7 6cbd efc9 263e
000002d0: 2900 96bc de88 08bd 55be 89bd 18c8 87bd
000002e0: 406c fbbd 1628 d93d 9410 0bbe 15d5 13be
000002f0: 3986 193d 2e18 2fbd e6a5 943d c7a7 9cbd
00000300: 8cf9 58bd 2af3 863c 34ec 233d ae42 f6bc
00000310: 60c7 9fbc 4fea b53a 0a77 ca3d 7e86 7e3d
00000320: 8be9 ac3d bf6b b1bd 3a83 233e fee3 15bd
00000330: 2fea bb3d 8d74 8d3d 551f 8abc a376 7a3c
00000340: fe46 073d 12f4 533b f2c5 ad3d 8053 ac3c
00000350: aa67 3abd 9c31 063e 13ea 993d f98f cc3d
00000360: f1bf 1b3d f979 9dbd 2828 b4bd 6506 873d
00000370: addd b8bd 2174 313e 87b6 99bd a248 26be
00000380: 0332 f73d d592 a3bd 9021 5fbd 3c44 8c3d
00000390: e269 043e 4442 6e3d a2af 623b 4901 4cbe
000003a0: 7fe7 fe3d abab 0d3d 92e3 5b3c 58ca de3c
000003b0: aceb 0dbe 5702 e43d 2ee6 5f3d 077b 0abe
000003c0: 22cd 80be 8756 d3bc c9ee f43d f217 bd3d
000003d0: 65a6 dd3e c54f e13d 9341 ffbd 76c8 c4bd
000003e0: 0bde 1bbc 3b68 90bc 94fd dd3d ee52 38bd
000003f0: 597c e93d 7d51 a63e c212 db3d 6da1 9a3d

encoder.lstm.weight_hh_l0 f4 [256, 64]
0.15680285 0.15801659 -0.04681501 0.10308229 0.02176159 -0.038732536 0.08715705 0.021993812
-0.13035682 0.21840021 -0.18044986 0.022168078 -0.27112994 0.026486706 -0.030416992 0.07992966
-0.21631087 -0.046576127 -0.1504763 0.030365203 0.047534395 -0.094447635 -0.12681349 0.091797344
-0.00039441074 0.1561731 -0.15386236 0.015711993 0.10509817 0.06364716 -0.069712155 -0.14417659
0.022625105 -0.095660865 0.045107424 -0.23174283 0.00045129313 -0.011020569 -0.09068821 -0.12695594
-0.047667384 0.00029068 -0.063811824 0.12417744 -0.07999799 0.24485826 0.025140667 0.05560178
-0.07149344 0.043961987 -0.13233459 -0.018356793 -0.11603931 0.038694955 -0.099648 -0.05214916
0.06411019 -0.05307156 -0.08337442 0.07462106 -0.0646977 0.007237968 -0.28304753 -0.1375204
0.05539101 -0.097327046 0.030986067 0.29362428 -0.09788791 0.222417 0.0977605 -0.15235865
0.16586615 0.4084869 -0.30008227 0.022910325 -0.07215022 -0.17937328 0.06538068 -0.33037063
-0.05259795 -0.10543127 0.1284626 0.09085102 -0.08164755 -0.056946114 0.18243265 0.1325285
0.02247462 0.1639301 -0.16509512 -0.111506976 -0.05384447 0.0160904 -0.04386875 -0.12252367
0.19480942 0.038262997 0.22582741 -0.08140333 -0.07981161 -0.023797277 0.13929544 0.06595168
0.009951478 0.039092045 0.038510635 -0.028577324 -0.042870484 -0.14893243 0.14720918 -0.12117851
-0.0255071 -0.10900249 0.019578123 0.022027824 0.08360273 -0.03429332 0.26553598 -0.18341288
-0.097983144 0.07808593 0.07170688 -0.047744866 -0.08549066 -0.23587224 -0.2083712 -0.069974735
0.14647736 -0.06284445 0.06957531 -0.073335655 -0.00041250358 0.068480924 0.10668258 -0.052000947
-0.058976214 -0.02145324 -0.0028039278 0.15869679 -0.024191292 -0.051788494 -0.09079164 -0.07712282
-0.015847594 0.12249873 -0.06636191 -0.10351821 0.004703722 0.011520911 0.009578689 -0.054087754
0.007959078 0.059795093 -0.11647399 -0.008168471 0.1726063 -0.10732272 -0.16960377 -0.18377845
-0.06797739 -0.11670024 -0.1059998 -0.17193761 -0.16057962 0.13274796 0.18260956 -0.14327987
-0.17001684 0.12528057 0.1908667 0.16251259 -0.15559542 0.09104493 -0.0065254755 -0.06034566
-0.17172898 -0.0820801 -0.028783502 -0.086894505 0.033658147 0.15406942 -0.09387318 0.067827344
-0.07133701 0.006086064 0.029622758 0.037202172 -0.07715938 0.14517464 0.011057889 -0.011844438
0.17386684 0.0010532473 0.11137086 0.07075798 0.15573232 0.07577197 0.066240996 0.0968435
-0.050532997 0.011029523 -0.15602042 0.047658622 -0.0550235 -0.035454948 -0.08580067 0.034310713
-0.075421676 0.1862952 0.08618905 -0.16762125 -0.13242708 -0.08333839 -0.12834938 0.14159542
-0.086411804 -0.059095234 -0.08957858 0.13180591 -0.01147165 -0.017874213 -0.14297536 -0.1350543
0.054652274 0.0047767945 -0.05304769 -0.17589006 -0.053850964 -0.008091108 0.1315696 -0.12806956
-0.0794623 0.16854173 -0.089003555 -0.03468697 -0.06549916 0.22856244 -0.0599335 -0.10243988
-0.11763083 0.02695231 -0.07399799 0.08990321 0.103609495 -0.050581876 0.10826145 -0.15988973
-0.13002428 -0.023098595 -0.20571941 0.030225705 0.031342573 -0.04921225 0.06918647 -0.04551064
00000000: ed90 203e 1acf 213e 19c1 3fbd cf1c d33d
00000010: 5d45 b23c 02a6 1ebd 657f b23d 5e2c b43c
00000020: 427c 05be 4ea4 5f3e d9c7 38be d499 b53c
00000030: 8bd1 8abe a6fa d83c 0e2d f9bc 29b2 a33d
00000040: 9980 5dbe 9cc6 3ebd 7616 1abe 72c0 f83c
00000050: 6db3 423d c36d c1bd 65db 01be 3f00 bc3d
00000060: eac8 ceb9 d7eb 1f3e 188e 1dbe 70b6 803c
00000070: b63d d73d 7159 823d 3fc5 8ebd 07a3 13be
00000080: 4958 b93c d8e9 c3bd 90c2 383d fe4d 6dbe
00000090: 8a9b ec39 9e8f 34bc beba b9bd bd00 02be
000000a0: e03e 43bd 6966 9839 c6af 82bd be50 fe3d
000000b0: fcd5 a3bd 20bc 7a3e cdf3 cd3c b1be 633d
000000c0: 276b 92bd 7c11 343d b882 07be fc60 96bc
000000d0: 05a6 edbd 9a7e 1e3d 4014 ccbd 5c9a 55bd
000000e0: 344c 833d 9061 59bd 35c0 aabd edd2 983d
000000f0: 3a80 84bd 7a2c ed3b 9beb 90be 26d2 0cbe
00000100: afe1 623d 6753 c7bd 7ed6 fd3c ec55 963e
00000110: 7579 c8bd 48c1 633e a836 c83d e803 1cbe
00000120: d1d8 293e 3225 d13e 62a4 99be 6fae bb3c
00000130: 7fc3 93bd a1ad 37be 4ee6 853d 5726 a9be
00000140: f370 57bd 5aec d7bd b38b 033e 1910 ba3d
00000150: d536 a7bd 5440 69bd a0cf 3a3e 8db5 073e
00000160: b21c b83c 4bdd 273e b20e 29be c55d e4bd
00000170: 058c 5cbd 04d0 833c b8af 33bd b1ed fabd
00000180: 1f7c 473e a9b9 1c3d 4d3f 673e cab6 a6bd
00000190: 4574 a3bd 82f2 c2bc 77a3 0e3e ad11 873d
000001a0: 860b 233c fb1e 203d 54bd 1d3d fe1a eabc
000001b0: f698 2fbd be81 18be 01be 163e 702c f8bd
000001c0: 44f4 d0bc b33c dfbd 4d62 a03c b273 b43c
000001d0: e837 ab3d 2777 0cbd 55f4 873e 96d0 3bbe
000001e0: 63ab c8bd 84eb 9f3d 0fdb 923d 1f90 43bd
000001f0: ba15 afbd 7e88 71be 435f 55be ea4e 8fbd
00000200: 29fe 153e 97b4 80bd 807d 8e3d 0131 96bd
00000210: 4b45 d8b9 ba3f 8c3d 667c da3d f2fe 54bd
00000220: 0b91 71bd b5be afbc 1ac2 37bb 6981 223e
00000230: d12c c6bc 2c20 54bd f8f0 b9bd 92f2 9dbd
00000240: d0d2 81bc 9de0 fa3d c1e8 87bd 5b01 d4bd
00000250: ae21 9a3b 34c2 3c3c efef 1c3c 1f8b 5dbd
00000260: cb66 023c b3eb 743d ea89 eebd 0dd5 05bc
00000270: b5bf 303e 04cc dbbd 9cac 2dbe 6b30 3cbe
00000280: bb37 8bbd 8900 efbd 6c16 d9bd 6a10 30be
00000290: fc6e 24be 15ef 073e 00fe 3a3e f5b7 12be
000002a0: e518 2ebe 8d49 003e 8f72 433e b369 263e
000002b0: 6854 1fbe c475 ba3d a8d3 d5bb 032d 77bd
000002c0: b9d9 2fbe 9d19 a8bd 61cb ebbc bff5 b1bd
000002d0: 20dd 093d 60c4 1d3e 9540 c0bd 10e9 8a3d
000002e0: 2319 92bd 9b6d c73b 6dab f23c 4e61 183d
000002f0: bd05 9ebd a9a8 143e 262c 353c 2c0f 42bc
00000300: 260a 323e 1d0d 8a3a 6816 e43d 8fe9 903d
00000310: 4b78 1f3e 562e 9b3d 5ca9 873d e355 c63d
00000320: b0fb 4ebd 2cb5 343c d1c3 1fbe b035 433d
00000330: 5260 61bd 3539 11bd 43b8 afbd 6489 0c3d
00000340: ae76 9abd 2bc4 3e3e e283 b03d e8a4 2bbe
00000350: f79a 07be 51ad aabd 056e 03be 64fe 103e
00000360: acf8 b0bd d80d 72bd f974 b7bd 21f8 063e
00000370: 96f3 3bbc f16c 92bc 2268 12be ad4b 0abe
00000380: 10db 5f3d a886 9c3b 8948 59bd 861c 34be
00000390: d492 5cbd 9190 04bc 2eba 063e ab24 03be
000003a0: 21bd a2bd 3496 2c3e 7f47 b6bd ed13 0ebd
000003b0: 6c24 86bd 460c 6a3e d47c 75bd 00cc d1bd
000003c0: 6fe8 f0bd 17cb dc3c 428c 97bd 2d1f b83d
000003d0: 3731 d43d f12e 4fbd 2eb8 dd3d 22ba 23be
000003e0: 1625 05be 4439 bdbc 1ca8 52be e69b f73c
000003f0: 1261 003d c992 49bd a3b1 8d3d 5d69 3abd

encoder.lstm.bias_ih_l0 f4 [256]
0.19436882 0.116034426 -0.20055857 -0.056029476 -0.0037363977 -0.13465504 0.1439149 0.041787557
0.13864264 -0.022783298 -0.0792736 0.0037046585 0.09166513 -0.1652257 -0.23570338 0.2578863
0.10283971 0.0367215 0.010338437 0.21401645 0.040881872 0.18313073 -0.103195645 -0.0986986
0.1254401 -0.051902834 0.0365902 0.05168299 -0.008328215 -0.15672871 0.08483076 0.19893827
-0.056778453 0.13911116 0.20881078 0.07889463 0.6621945 0.1636915 0.5294286 0.17366295
0.0073761013 0.086118735 0.29352832 0.36509073 0.11795147 0.2577165 0.0031939235 0.07125729
0.08293624 0.15195358 -0.13289158 -0.10910052 0.19255492 0.23219648 0.023623364 -0.087022275
-0.030969756 0.07512057 0.09288906 0.11025783 -0.11004677 0.16951454 -0.009024854 0.02384512
-0.17035507 -0.21805201 -0.10144355 0.07518071 -0.23657286 0.008663372 -0.09425649 -0.102456234
-0.18747047 0.31321618 -0.03297007 -0.11416021 -0.09906222 -0.084081575 -0.17032534 -0.21486965
-0.21577552 -0.05351289 0.04371228 -0.07795424 -0.11215808 -0.31356034 -0.21304913 0.043905854
-0.07090669 -0.20034033 -0.054716483 -0.002226258 -0.11329477 0.023473985 -0.13576965 -0.22397515
-0.21931246 -0.2989902 -0.074439 -0.2803515 -0.23571415 -0.04279212 -0.050790694 -0.113682546
-0.50545996 -0.2051227 -0.22678326 -0.049900513 -0.19004914 -0.057014033 -0.109319635 -0.14773731
-0.083896615 -0.251629 -0.19887006 -0.0015521912 -0.14152046 -0.17956355 -0.12987265 0.030545197
-0.1185426 -0.066652186 -0.032642487 -0.22939348 -0.08058063 -0.23635072 -0.07217946 -0.08306587
0.08513462 -0.018165912 0.008244749 -0.0520754 -0.06530403 -0.092039846 0.02259456 0.010816099
0.019719867 0.0068882364 0.010729831 0.041757368 -0.0744648 0.03310739 0.041921876 -0.02904125
0.10852528 0.018591613 0.044500522 -0.013262229 -0.10983346 -0.13674287 -0.055061612 -0.0052873413
-0.13275814 -0.04001276 -0.021288225 0.008840928 0.14167261 0.024492875 0.0020831777 -0.07785032
0.044574346 0.020967104 0.023860162 -0.061353162 0.008266915 0.055613946 0.03301232 -0.21957368
0.06550312 0.039314136 0.0767095 0.055546276 -0.045112435 -0.034600288 -0.13263564 -0.052310437
-0.049100526 -0.15963502 0.12659527 -0.061197788 -0.011704907 0.15660541 0.058224205 -0.02604854
0.011927012 -0.15904506 0.0051080175 -0.01651613 0.13376528 -0.019385496 -0.020660887 -0.026628664
0.14218701 0.11218239 -0.0046418738 -0.09357038 -0.12913427 -0.025606103 0.22737405 0.042988546
0.098095186 -0.15286653 -0.18107651 0.06833345 0.16829619 -0.026361588 -0.18541342 0.23546052
0.17423232 0.18222587 0.0011343467 0.1337185 0.07202931 0.13942805 0.005686944 -0.19631115
0.0349703 -0.03580483 -0.06340573 0.06515392 0.0683818 -0.059218448 0.072484344 0.33766943
0.14986292 0.084382154 0.16419318 0.12119183 0.5962865 0.15758245 0.5540118 0.17493801
-0.031478994 0.121772274 0.32746416 0.24880347 0.032843154 0.113386914 0.06966852 0.004552061
0.111759104 0.11698936 -0.05828059 -0.04128284 0.2928559 0.14877911 -0.09839221 -0.049051624
0.08489753 0.059454583 0.13522103 0.04257387 0.087736964 0.17721511 -0.042935226 -0.069809765
00000000: 9f08 473e 75a3 ed3d 3a5f 4dbe 2a7f 65bd
00000010: 5ade 74bb 03e3 09be 6d5e 133e 6e29 2b3d
00000020: 56f8 0d3e 0aa4 babc 325a a2bd dbc9 723b
00000030: edba bb3d ed30 29be 3a5c 71be ac09 843e
00000040: a09d d23d 4969 163d 8c62 293c 2127 5b3e
00000050: c073 273d 9f86 3b3e 3d58 d3bd 7e22 cabd
00000060: 5f73 003e 1198 54bd 9bdf 153d 8bb1 533d
00000070: 1173 08bc 7e7d 20be c0bb ad3d 79b6 4b3e
00000080: 8690 68bd 2873 0e3e 7ed2 553e 8293 a13d
00000090: 9485 293f bf9e 273e a288 073f b3d4 313e
000000a0: 39b3 f13b 055f b03d 5849 963e 2ced ba3e
000000b0: 8a90 f13d 6bf3 833e 2551 513b 58ef 913d
000000c0: 7ada a93d b899 1b3e bb14 08be 1870 dfbd
000000d0: 1e2d 453e eac4 6d3e c985 c13c bc38 b2bd
000000e0: 49b4 fdbc d0d8 993d 9f3c be3d dbce e13d
000000f0: 3360 e1bd 3895 2d3e fbdc 13bc d756 c33c
00000100: 8f71 2ebe 0749 5fbe a3c1 cfbd 58f8 993d
00000110: 2840 72be d1f0 0d3c 8c09 c1bd 93d4 d1bd
00000120: 42f8 3fbe df5d a03e a00b 07bd d4cc e9bd
00000130: 22e1 cabd f632 acbd c469 2ebe ca06 5cbe
00000140: 42f4 5cbe 5530 5bbd a60b 333d 79a6 9fbd
00000150: 23b3 e5bd fb8a a0be 8d29 5abe a0d6 333d
00000160: 8737 91bd 0426 4dbe 641e 60bd 69e6 11bb
00000170: 1707 e8bd 844c c03c 3307 0bbe be59 65be
00000180: 7293 60be 3e15 99be 7973 98bd 3b8a 8fbe
00000190: 0d5f 71be ca46 2fbd e709 50bd 65d2 e8bd
000001a0: d365 01bf af0b 52be df39 68be 7b64 4cbd
000001b0: 3e9c 42be 8c87 69bd f9e2 dfbd 7348 17be
000001c0: fdd1 abbd 84d5 80be 98a4 4bbe e572 cbba
000001d0: bdea 10be 82df 37be 56fd 04be ec39 fa3c
000001e0: 76c6 f2bd f180 88bd 21b4 05bd 20e6 6abe
000001f0: 7507 a5bd ec05 72be d3d2 93bd 701e aabd
00000200: 0f5b ae3d aed0 94bc fc14 073c 044d 55bd
00000210: 1fbe 85bd 637f bcbd 3a18 b93c 0236 313c
00000220: 8f8b a13c b7b6 e13b 2ccc 2f3c c609 2b3d
00000230: 0081 98bd 9d9b 073d 46b6 2b3d eae7 edbc
00000240: 8142 de3d 704d 983c 2e46 363d d249 59bc
00000250: 5df0 e0bd 5306 0cbe 4988 61bd 6f41 adbb
00000260: c0f1 07be 6be4 23bd a564 aebc 8ad9 103c
00000270: a012 113e 48a5 c83c ec85 083b fd6f 9fbd
00000280: 9793 363d 34c3 ab3c 6376 c33c 744d 7bbd
00000290: f471 073c 73cb 633d ed37 073d ecd7 60be
000002a0: 8026 863d dc07 213d df19 9d3d 7e84 633d
000002b0: d1c7 38bd 08b9 0dbd a3d1 07be 7843 56bd
000002c0: a21d 49bd 5d77 23be 31a2 013e 88aa 7abd
000002d0: f0c5 3fbc 2b5d 203e 817c 6e3d bf63 d5bc
000002e0: 8469 433c b5dc 22be 2861 a73b d64c 87bc
000002f0: c4f9 083e 55ce 9ebc 0541 a9bc 5b24 dabc
00000300: 7999 113e e2bf e53d dc1a 98bb d4a1 bfbd
00000310: c63b 04be e4c3 d1bc bed4 683e c214 303d
00000320: 21e6 c83d 0b89 1cbe 1f6c 39be 68f2 8b3d
00000330: d655 2c3e 42f4 d7bc 04dd 3dbe 901c 713e
00000340: f569 323e 6b99 3a3e 5cae 943a 81ed 083e
00000350: 1a84 933d 3ac6 0e3e 8b59 ba3b ca05 49be
00000360: 043d 0f3d 16a8 12bd ddda 81bd 6b6f 853d
00000370: c20b 8c3d 0b8f 72bd ac72 943d 02e3 ac3e
00000380: aa75 193e 8dd0 ac3d 4222 283e 6c33 f83d
00000390: 3ba6 183f 4b5d 213e b8d3 0d3f f322 333e
000003a0: 1ef0 00bd be63 f93d 62a9 a73e 56c6 7e3e
000003b0: 8b86 063d 6637 e83d 5eae 8e3d 7529 953b
000003c0: f5e1 e43d 1e98 ef3d a1b7 6ebd 3218 29bd
000003d0: 35f1 953e 8d59 183e db81 c9bd 5bea 48bd
000003e0: c2de ad3d a686 733d 6277 0a3e f061 2e3d
000003f0: 70af b33d e177 353e d9dc 2fbd 6cf8 8ebd

encoder.lstm.bias_hh_l0 f4 [256]
-0.0061497805 0.11641744 -0.04015935 -0.009332715 0.07543861 0.050308425 0.23913057 0.028614508
0.0936795 -0.09627497 -0.18505098 -0.005872373 0.21113631 -0.22776268 -0.053041272 0.22771949
0.0434805 0.14089386 -0.006241014 0.018530449 0.1028473 0.15957265 -0.031243406 -0.012874694
0.15283597 -0.023870291 -0.15182321 -0.0993573 0.0533523 -0.11705184 0.1720527 0.13591485
0.07792435 0.16801554 0.2664438 0.19281746 0.64316094 0.17969918 0.562694 0.2753954
0.16887635 0.20853837 0.21378578 0.35031086 0.14335947 0.20133112 0.006215353 0.077728964
0.036998473 0.07657445 -0.016477989 -0.029825248 0.31316385 0.17907083 -0.025712062 0.036885187
-0.045025785 0.1323123 0.013420722 0.25015417 -0.052834135 0.11853734 0.11993018 -0.03202545
-0.1894767 -0.13514818 -0.10889711 0.129139 -0.2071099 0.08335776 -0.14371812 -0.16811551
-0.19651279 0.37740618 0.04841929 -0.2689825 -0.11812536 -0.19552816 0.026779694 -0.17492856
-0.071312934 -0.11653435 -0.11117839 -0.06537444 -0.22384696 -0.2065832 -0.033668473 -0.14444701
-0.13672614 -0.18760477 -0.18371679 -0.050764717 -0.15678145 -0.098822 -0.07034578 -0.06667331
-0.32794496 -0.3327031 -0.036941916 -0.22732833 -0.08900639 -0.17286956 -0.14308842 -0.2565021
-0.6252738 -0.24026148 -0.22443607 0.046849415 -0.19120227 -0.16573352 -0.06269353 -0.096469186
-0.15319467 -0.049567327 0.03359553 -0.031821165 -0.31687954 -0.051844813 -0.059137635 0.24209222
-0.08439452 -0.26979044 -0.25384155 -0.06011568 -0.15004109 -0.33611357 -0.08438091 -0.0987329
0.04745127 -0.0645569 -0.05523519 0.036211945 0.07370288 0.05411096 0.06933998 -0.0520802
0.022992898 0.07717216 0.007598261 0.08971721 0.15705124 -0.010788617 -0.0893241 -0.0032523922
-0.04230583 0.13518146 0.018676031 -0.13991196 -0.014388322 -0.040116537 0.011609919 -0.0156052485
0.00086143735 -0.009125605 0.041742984 0.06432105 0.00066437584 0.029466623 -0.13444096 -0.13406199
0.004365724 -0.041999854 0.03703605 0.09844557 -0.21653034 0.09810863 0.1050516 0.013396059
-0.0051926156 0.044425454 0.087069064 0.09336258 -0.07753999 0.0071624233 0.083561756 -0.09227044
-0.07365699 0.040717907 -0.073589146 0.007279783 0.10945757 -0.023968931 -0.09996544 0.027286457
-0.10385817 0.012671693 -0.11000454 -0.13433583 -0.07091039 0.03062869 0.063126884 0.06489017
0.08775125 0.16263089 -0.06750322 0.056897264 -0.055418972 -0.022259597 0.0863372 -0.14621073
0.10792152 -0.036050297 -0.14458163 -0.040473208 0.07795144 -0.21744542 -0.20002775 0.1984818
-0.0024730554 0.06118141 -0.022132955 0.089405045 0.038524684 0.013894047 0.019873044 -0.08338974
0.026546177 -0.017426763 -0.07603392 0.06650473 0.05074029 0.0031640516 0.032280445 0.26926
0.044634607 0.084194995 0.34102064 -0.01759002 0.5793432 0.26970333 0.5704717 0.30332348
0.0842126 0.2342868 0.118857466 0.16405669 0.199017 0.26479235 0.11163718 0.055769525
0.122912236 0.18362853 -0.056442674 0.058290187 0.2617555 0.10967851 -0.08362166 0.032308444
0.10546231 0.22980216 0.0054900115 0.13937326 -0.018178917 0.1517962 -0.046607383 0.06377368
00000000: 1984 c9bb 446c ee3d 217e 24bd 3ee8 18bc
00000010: 8f7f 9a3d 3510 4e3d a5de 743e f968 ea3c
00000020: 0adb bf3d d02b c5bd 017e 3dbe 096d c0bb
00000030: 1e34 583e 9f3a 69be ce41 59bd 4c2f 693e
00000040: 9c18 323d 7b46 103e 6c81 ccbb 2bcd 973c
00000050: 9ba1 d23d 0367 233e 2cf2 ffbc 61f0 52bc
00000060: 0881 1c3e a18b c3bc 8b77 1bbe d77b cbbd
00000070: f187 5a3d e0b8 efbd 952e 303e 432d 0b3e
00000080: cd96 9f3d 440c 2c3e 526b 883e f171 453e
00000090: 32a6 243f 1003 383e b70c 103f a000 8d3e
000000a0: eced 2c3e 158b 553e a9ea 5a3e f25b b33e
000000b0: d3cc 123e bf29 4e3e 29aa cb3b 5d30 9f3d
000000c0: b68b 173d 11d3 9c3d d9fc 86bc 1454 f4bc
000000d0: 0357 a03e 585e 373e 1aa2 d2bc ec14 173d
000000e0: f56c 38bd e07c 073e 97e2 5b3c 3514 803e
000000f0: 9b68 58bd b4c3 f23d f49d f53d 1e2d 03bd
00000100: 2e06 42be 4964 0abe 7305 dfbd 043d 043e
00000110: 9e14 54be 79b7 aa3d d82a 13be 7926 2cbe
00000120: a63a 49be 623b c13e 4e53 463d 13b8 89be
00000130: b5eb f1bd 8938 48be 1761 db3c 7920 33be
00000140: 840c 92bd 90a9 eebd 7fb1 e3bd 09e3 85bd
00000150: 2338 65be 8c8a 53be f4e7 09bd ebe9 13be
00000160: f001 0cbe 771b 40be 4120 3cbe aaee 4fbd
00000170: 518b 20be 3063 cabd 7311 90bd 048c 88bd
00000180: 67e8 a7be 1058 aabe 6850 17bd c2c8 68be
00000190: fb48 b6bd b804 31be c585 12be 3e54 83be
000001a0: f211 20bf 1b07 76be 92d2 65be 2ce5 3f3d
000001b0: 87ca 43be 0cb6 29be 7765 80bd a391 c5bd
000001c0: 10df 1cbe 1c07 4bbd 779b 093d e956 02bd
000001d0: 093e a2be 3a5b 54bd 4e3a 72bd 06e7 773e
000001e0: 09d7 acbd f921 8abe 85f7 81be dc3b 76bd
000001f0: 5fa4 19be 1417 acbe e6cf acbd 7a34 cabd
00000200: 435c 423d 6836 84bd 4b3e 62bd fa52 143d
00000210: 89f1 963d 74a3 5d3d 1f02 8e3d 0c52 55bd
00000220: 9a5b bc3c 700c 9e3d d5fa f83b a8bd b73d
00000230: 0ad2 203e bdc2 30bc 8eef b6bd 1626 55bb
00000240: e148 2dbd 026d 0a3e 7afe 983c 1545 0fbe
00000250: ffbc 6bbc 3d51 24bd 8837 3e3c 28ad 7fbc
00000260: 15d2 613a 9083 15bc b1fa 2a3d c1ba 833d
00000270: 8229 2e3a fd63 f13c e4aa 09be 8c47 09be
00000280: 590e 8f3b 0a08 2cbd 1db3 173d d59d c93d
00000290: 21ba 5dbe 2ded c83d 4b25 d73d 257b 5b3c
000002a0: d126 aabb 77f7 353d 4451 b23d e134 bf3d
000002b0: 49cd 9ebd c3b2 ea3b 6d22 ab3d 49f8 bcbd
000002c0: 7ad9 96bd d2c7 263d e8b5 96bd 3f8b ee3b
000002d0: 4a2b e03d 7e5a c4bc aeba ccbd d987 df3c
000002e0: 98b3 d4bd ef9c 4f3c 0f4a e1bd 558f 09be
000002f0: 7739 91bd 05e9 fa3c ab48 813d 23e5 843d
00000300: edb6 b33d b688 263e 213f 8abd 1b0d 693d
00000310: 01ff 62bd c259 b6bc 8fd1 b03d 44b8 15be
00000320: f505 dd3d 7aa9 13bd 350d 14be 3cc7 25bd
00000330: 01a5 9f3d 03aa 5ebe 13d4 4cbe d03e 4b3e
00000340: fc12 22bb 5c99 7a3d 2c50 b5bc fe19 b73d
00000350: 0fcc 1d3d dba3 633c cbcc a23c 3dc8 aabd
00000360: 5e77 d93c 92c2 8ebc acb7 9bbd a233 883d
00000370: 0dd5 4f3d fa5b 4f3b 8038 043d 72dc 893e
00000380: c7d2 363d 6d6e ac3d 429a ae3e f218 90bc
00000390: d64f 143f 8e16 8a3e 6f0a 123f 374d 9b3e
000003a0: a877 ac3d e1e8 6f3e 8b6b f33d 7afe 273e
000003b0: 1dcb 4b3e dd92 873e 09a2 e43d 966e 643d
000003c0: 69b9 fb3d 1e09 3c3e 6f30 67bd b1c1 6e3d
000003d0: d104 863e 209f e03d d541 abbd dc55 043d
000003e0: a0fc d73d 4251 6b3e 8ee5 b33b ddb7 0e3e
000003f0: f4eb 94bc 7770 1b3e 62e7 3ebd c69b 823d

encoder.U_e.weight f4 [3, 3]
0.42347205 0.45340696 -0.40397415 0.028513256 -0.18427543 0.43589607 -0.50000197 -0.29460368
-0.28677967
00000000: 54d1 d83e f524 e83e b3d5 cebe a294 e93c
00000010: b3b2 3cbe c52d df3e 2100 00bf 4bd6 96be
00000020: c9d4 92be

encoder.U_e.bias f4 [3]
-0.45942843 -0.781615 -0.17606275
00000000: 343a ebbe ec17 48bf cb49 34be

encoder.W_e.weight f4 [3, 128]
-0.022607936 0.05019108 0.15482493 0.1759824 0.015607526 0.3006066 0.054307856 -0.026501477
0.23736937 0.18432027 -0.24402288 -0.105173916 -0.011859516 -0.1710558 0.20592666 0.05593221
-0.023970362 -0.09278948 0.25635132 0.09646106 -0.022785414 0.08363837 0.070154764 0.27013174
0.053639784 0.17188394 -0.13540435 -0.007849269 -0.037150756 0.19901985 0.07022616 0.12032881
0.077624984 -0.006265283 -0.0011350603 0.043478362 -0.0114437025 -0.016284052 -0.060894694 -0.12241913
0.2065924 -0.052792516 -0.014578762 0.0044392487 0.017531186 0.05141713 0.05223729 0.14631532
0.02118814 0.14144297 -0.09220011 -0.10104887 -0.14497541 -0.022626244 0.25812557 -0.21355349
0.006620413 -0.010305958 -0.033011902 0.09797062 -0.23183805 -0.03359636 -0.15172924 0.03722232
-0.1323868 0.054666016 0.1637755 0.13819174 -0.12736869 0.22942849 -0.010113821 -0.19800214
0.31619385 0.23427379 -0.24685146 -0.0018047392 0.07472996 -0.24154387 0.23663698 -0.098232724
-0.11767542 -0.041886143 0.29467434 0.114236616 -0.041153822 -0.0021747164 -0.049124055 0.13787298
0.1300656 0.22906418 -0.18763275 0.0009370405 -0.13061333 0.13026161 0.04655718 0.16842823
0.10773281 0.025537938 0.15003344 0.120308295 0.058185905 -0.20419808 -0.038367115 0.00065579166
0.29381576 0.042949248 0.026355911 -0.052971322 0.014886387 0.14614236 0.09254476 0.0800682
0.08032982 0.08503778 -0.11203737 0.019624112 -0.14754601 0.0103621585 0.28158247 -0.12683213
0.010817047 0.022134123 0.10319533 0.15375502 -0.20247169 -0.11487648 -0.12637666 -0.10315404
0.13745368 -0.32544035 -0.2393729 -0.071018815 0.14610264 -0.2144916 0.110999204 0.17487545
-0.07921145 -0.19025613 0.26580957 0.25933388 0.25835022 0.15263909 -0.14143008 0.26654857
0.36142668 0.105606265 -0.10573762 -0.09658913 -0.18454261 -0.2517718 -0.20358415 -0.3024158
-0.16640913 -0.34676167 0.21914324 0.17259178 0.23138346 -0.111554205 -0.096333824 -0.19189535
-0.11030463 -0.098704584 -0.062376007 0.047986094 -0.23872992 0.27994445 0.3636205 -0.110356495
-0.06303603 0.143034 0.25737235 0.18933298 -0.28837284 -0.20465396 -0.18698576 -0.11851108
-0.05746914 -0.26212826 0.30402014 -0.12508771 0.3338957 0.10566139 -0.1308352 0.12187374
-0.21458031 -0.23012406 -0.24955633 -0.28544047 0.10017028 0.09478669 0.3726019 0.37745523
0.27781704 -0.22688046 -0.28537512 -0.064227834 0.04749931 -0.24365962 0.081797905 0.122163214
-0.051402118 -0.14033298 0.235874 0.33603778 0.32699704 0.16546601 -0.17710556 0.16606764
0.33952713 0.24676141 -0.087197684 -0.23247418 -0.113918744 -0.27928242 -0.18982886 -0.35073406
-0.17142424 -0.32628432 0.2862482 0.15036216 0.24218237 -0.092419095 -0.20142189 -0.08927262
-0.13507679 -0.12145582 -0.10594218 0.058117695 -0.1254552 0.1931378 0.37470776 -0.23835482
-0.18127161 0.23005721 0.2557287 0.15489838 -0.33045053 -0.09917422 -0.10292326 -0.21657431
-0.15532084 -0.26971114 0.20529634 -0.23411065 0.314656 0.13874334 -0.14708655 0.09704983
-0.2186219 -0.23964444 -0.24114873 -0.20144351 0.2628951 0.14598893 0.34789756 0.30724096
00000000: 4734 b9bc 2995 4d3d 6d8a 1e3e bb34 343e
00000010: b5b6 7f3c 1ce9 993e ea71 5e3d a019 d9bc
00000020: f510 733e 74be 3c3e 22e1 79be 6c65 d7bd
00000030: 6a4e 42bc 4029 2fbe 70de 523e 2c19 653d
00000040: 7e5d c4bc 6908 bebd 7b40 833e 608d c53d
00000050: 7aa8 babc 984a ab3d 4dad 8f3d b54e 8a3e
00000060: 64b5 5b3d 5802 303e 70a7 0abe 389a 00bc
00000070: 642b 18bd dccb 4b3e bcd2 8f3d f36e f63d
00000080: d9f9 9e3d 014d cdbb 4ec6 94ba 5e16 323d
00000090: 5e7e 3bbc 2266 85bc b76c 79bd e1b6 fabd
000000a0: f58c 533e f73c 58bd c3db 6ebc 1e77 913b
000000b0: 909d 8f3c c59a 523d c5f6 553d afd3 153e
000000c0: c092 ad3c 6dd6 103e 69d3 bcbd b6f2 cebd
000000d0: 6f74 14be ac5a b9bc 0929 843e c4ad 5abe
000000e0: 0df0 d83b 52da 28bc 7d37 07bd d2a4 c83d
000000f0: f466 6dbe 569c 09bd e95e 1bbe 6e76 183d
00000100: 6890 07be 79e9 5f3d c4b4 273e 2382 0d3e
00000110: f06c 02be 4def 6a3e 71b4 25bc 13c1 4abe
00000120: 29e4 a13e 78e5 6f3e a1c6 7cbe 008d ecba
00000130: 050c 993d 4757 77be f750 723e 3d2e c9bd
00000140: d0ff f0bd ce90 2bbd 8edf 963e e3f4 e93d
00000150: e990 28bd b085 0ebb 4e36 49bd 932e 0d3e
00000160: eb2f 053e cd8f 6a3e cd22 40be b9a3 753a
00000170: 80bf 05be 4d63 053e beb2 3e3d 7378 2c3e
00000180: 05a3 dc3d f034 d13c 5ea2 193e 3264 f63d
00000190: 5854 6e3d 4d19 51be d626 1dbd 6fe9 2b3a
000001a0: 056f 963e 8deb 2f3d 5ae8 d73c 75f8 58bd
000001b0: 08e6 733c 58a6 153e 1b88 bd3d ccfa a33d
000001c0: f683 a43d 4a28 ae3d d973 e5bd bfc2 a03c
000001d0: 4d16 17be 0bc6 293c 942b 903e 48e0 01be
000001e0: fc39 313c 9f52 b53c 1358 d33d f571 1d3e
000001f0: bd54 4fbe 5c44 ebbd e268 01be 6d42 d3bd
00000200: a8c0 0c3e 1ea0 a6be 2b1e 75be 5072 91bd
00000210: ee9b 153e b0a3 5bbe 8d53 e33d 8d12 333e
00000220: 9d39 a2bd 81d2 42be 3118 883e 69c7 843e
00000230: 7b46 843e 6c4d 1c3e 0cd3 10be 0e79 883e
00000240: eb0c b93e 1948 d83d f78c d8bd 86d0 c5bd
00000250: bdf8 3cbe 3ce8 80be 5d78 50be 3ed6 9abe
00000260: 2867 2abe bf8a b1be 1667 603e e6bb 303e
00000270: c9ef 6c3e 8876 e4bd ab4a c5bd 3780 44be
00000280: 65e7 e1bd a125 cabd fc7d 7fbd 118d 443d
00000290: 9e75 74be e154 8f3e 772c ba3e 9602 e2bd
000002a0: 0919 81bd 8177 123e 4fc6 833e 81e0 413e
000002b0: 9ba5 93be cf90 51be 3279 3fbe f0b5 f2bd
000002c0: c364 6bbd ad35 86be 87a8 9b3e fe16 00be
000002d0: 61f4 aa3e 0065 d83d aaf9 05be f098 f93d
000002e0: f1ba 5bbe a4a5 6bbe b28b 7fbe 4125 92be
000002f0: 1326 cd3d 861f c23d adc5 be3e d041 c13e
00000300: 093e 8e3e 5a53 68be b01c 92be e289 83bd
00000310: a38e 423d e881 79be a985 a73d b530 fa3d
00000320: 078b 52bd 73b3 0fbe f488 713e 250d ac3e
00000330: 286c a73e ec6f 293e 295b 35be a30d 2a3e
00000340: 80d6 ad3e 06af 7c3e b394 b2bd b60d 6ebe
00000350: 3b4e e9bd 1bfe 8ebe 7f62 42be 6a93 b3be
00000360: d689 2fbe bd0e a7be 208f 923e 8af8 193e
00000370: a8fe 773e 3946 bdbd 8a41 4ebe 90d4 b6bd
00000380: 9251 0abe d4bd f8bd 37f8 d8bd d20c 6e3d
00000390: 5477 00be eac5 453e b2d9 bf3e 4913 74be
000003a0: 449f 39be 1e94 6b3e dfee 823e ae9d 1e3e
000003b0: d030 a9be da1b cbbd 6ec9 d2bd a8c5 5dbe
000003c0: 6d0c 1fbe 9417 8abe 3439 523e b4ba 6fbe
000003d0: 971a a13e bc12 0e3e db9d 16be 10c2 c63d
000003e0: 6bde 5fbe 5a65 75be b1ef 76be 3547 4ebe
000003f0: 309a 863e 1f7e 153e a11f b23e b04e 9d3e

encoder.W_e.bias f4 [3]
0.003651356 -0.6370279 0.38521284
00000000: 974b 6f3b 4314 23bf 9e3a c53e

encoder.v_e.weight f4 [1, 3]
-0.88481754 0.36672118 -0.2933857
00000000: 6783 62bf e1c2 bb3e a736 96be

decoder.W_d.weight f4 [64, 128]
-0.0790081 0.0860695 0.06725496 -0.06325777 -0.060802232 0.05919762 -0.017564183 -0.034346648
-0.05261172 0.0259888 -0.0086419685 -0.019043148 -0.07821377 -0.02746434 0.06720163 0.05893748
-0.021732295 -0.05584473 -0.006778699 0.087565124 -0.055455316 -0.0358317 0.06667266 0.027640292
0.009463843 -0.06769148 -0.07747311 0.0057075787 -0.024935793 -0.0031227863 -0.0103492215 -0.0007064865
-0.050822735 0.06081412 -0.07794301 -0.0013948815 0.051715814 0.081026465 -0.07130528 -0.037039958
0.060701385 0.006098122 -0.041164204 0.08655025 -0.004406516 0.015734693 0.05046611 -0.054881867
0.003677091 0.012796679 0.034631148 -0.028036462 0.031416178 -0.019535854 -0.0527966 -0.019604428
0.016183957 -0.009797594 -0.040815946 -0.04050885 -0.051138826 -0.044823058 -0.020317277 -0.024846083
-0.0129045425 0.03522166 -0.053476427 -0.065960705 -0.020067558 -0.030720944 -0.08768029 -0.014585307
-0.056538045 -0.011265073 -0.041082744 -0.065582395 0.04451707 0.016133033 -0.08378104 -0.02929736
0.020558305 0.07109945 -0.03200874 -0.038379878 0.004482549 0.028190983 -0.061961103 -0.05908965
-0.07006904 -0.069862194 -0.07980686 -0.05056229 -0.029580934 -0.05973146 0.05301795 -0.054562856
0.0703316 0.017059 0.069190204 -0.028845945 -0.014521054 0.06279151 -0.010773935 0.009916458
0.011890363 0.072525844 -0.07070322 -0.06423659 -0.0777864 -0.018370356 0.0072587305 0.06361806
-0.074252136 0.025315482 -0.056766376 0.035888232 0.014881662 0.013348381 0.0058284244 0.034702882
0.08037058 -0.010773303 0.078324765 0.043696977 -0.008437314 0.078350335 -0.08604065 0.0043089883
-0.052263662 0.08363353 -0.06808075 0.0038122246 0.03286318 -0.023830576 -0.07196555 0.0459384
0.016173694 -0.03212929 -0.06729426 -0.08351084 -0.0355127 -0.0037672117 0.08050368 0.020441106
0.070438996 0.021262031 0.03598837 -0.019758454 -0.024617584 0.00088915095 0.08229282 -0.06438374
0.06819008 0.0026707298 0.01657626 -0.059535258 0.08526751 0.052806165 0.06332789 -0.05607777
0.0205048 -0.0734507 -0.005593487 0.063134864 -0.03540057 0.009927764 -0.013025463 -0.008702386
0.01983321 -0.010687956 0.042709865 0.010366965 -0.071985185 -0.0037584873 -0.028011195 0.04020428
-0.061935753 0.06952664 -0.077494554 -0.04655465 -0.0548458 0.05691113 0.039644346 0.050842248
0.049555305 0.043260083 -0.02741878 0.03371362 0.03519794 -0.023937417 0.022819873 -0.0108603155
-0.035497036 -0.030803878 -0.036583696 0.05118932 0.033793606 0.01766329 -0.030995393 0.035015874
-0.030190567 0.047886364 -0.07992107 0.025374468 0.008031176 -0.03322944 0.07321643 -0.019777946
0.009382499 0.08603003 -0.023225358 0.029489422 0.076363005 0.009234069 -0.059577677 0.07614953
0.06981012 0.076915175 -0.024313863 -0.07021346 0.032142103 0.052977048 0.08667595 -0.03651697
0.041040674 0.033841938 -0.021184145 -0.05235533 -0.041097317 -0.062988356 -0.0048140865 0.07702772
-0.062897824 0.040069126 0.063092574 -0.05597882 0.076761134 -0.07222553 0.018472584 -0.023474751
-0.051906552 -0.04744914 -0.081481524 0.03824266 0.009184883 -0.08087292 -0.0080393 -0.026260784
0.08005483 -0.011177776 -0.07509319 -0.06405109 -0.018612722 -0.06295859 -0.035130505 -0.077896155
00000000: 00cf a1bd 3545 b03d f8bc 893d 4a8d 81bd
00000010: c30b 79bd 3479 723d c3e2 8fbc 12af 0cbd
00000020: 637f 57bd 77e6 d43c 0b97 0dbc 6000 9cbc
00000030: 8b2e a0bd e5fc e0bc 02a1 893d 6d68 713d
00000040: ed07 b2bc 72bd 64bd d91f debb 5855 b33d
00000050: 1d25 63bd 43c4 12bd ad8b 883d e56d e23c
00000060: 3c0e 1b3c d5a1 8abd 39aa 9ebd a406 bb3b
00000070: 2646 ccbc a9a7 4cbb c88f 29bc 8233 39ba
00000080: 802b 50bd 3a18 793d 96a0 9fbd 75d4 b6ba
00000090: f6d3 533d 34f1 a53d 8108 92bd 36b7 17bd
000000a0: 04a2 783d c1d2 c73b cc9b 28bd 4241 b13d
000000b0: 8964 90bb 0be6 803c 8db5 4e3d cfcb 60bd
000000c0: 5afb 703b 29a9 513c 64d9 0d3d b9ac e5bc
000000d0: 40ae 003d a809 a0bc 3f41 58bd 7799 a0bc
000000e0: 3894 843c 1686 20bc 9f2e 27bd 9cec 25bd
000000f0: f276 51bd 6298 37bd 6b70 a6bc 038a cbbc
00000100: 936d 53bc 9644 103d 190a 5bbd 6816 87bd
00000110: b864 a4bc 7daa fbbc b991 b3bd 36f7 6ebc
00000120: 7094 67bd 2491 38bc 6146 28bd 1050 86bd
00000130: 8857 363d 6c29 843c 6595 abbd 0401 f0bc
00000140: e469 a83c 979c 913d 991b 03bd 3834 1dbd
00000150: 59e2 923b c7f0 e63c edca 7dbd fd07 72bd
00000160: 5b80 8fbd e913 8fbd c771 a3bd 671a 4fbd
00000170: b753 f2bc faa8 74bd 5a29 593d 4d7d 5fbd
00000180: 040a 903d 51bf 8b3c 98b3 8d3d 554e ecbc
00000190: b7e9 6dbc d698 803d 2985 30bc a478 223c
000001a0: cccf 423c 6e88 943d dacc 90bd 798e 83bd
000001b0: 7a4e 9fbd 6e7d 96bc a5da ed3b 2f4a 823d
000001c0: 8111 98bd 6a62 cf3c dc83 68bd 8aff 123d
000001d0: 37d2 733c 2bb3 5a3c 5efc be3b 9c24 0e3d
000001e0: 5599 a43d 8282 30bc bc68 a03d 9afb 323d
000001f0: a93c 0abc 2476 a03d 1536 b0bd 6a32 8d3b
00000200: 6c12 56bd 0e48 ab3d ec6d 8bbd 84d6 793b
00000210: 8b9b 063d 5738 c3bc ad62 93bd e729 3c3d
00000220: b27e 843c 019a 03bd 93d1 89bd bb07 abbd
00000230: c475 11bd 53e3 76bb 1ddf a43d 1b74 a73c
00000240: 5242 903d b62d ae3c 8b68 133d 7bdc a1bc
00000250: d1aa c9bc e915 693a 2389 a83d 9fdb 83bd
00000260: 3ea7 8b3d 6907 2f3b f0ca 873c 3edb 73bd
00000270: bba0 ae3d 474b 583d 0eb2 813d ceb1 65bd
00000280: aff9 a73c 526d 96bd 9249 b7bb da4c 813d
00000290: 3000 11bd 0fa8 223c c068 55bc 7494 0ebc
000002a0: 4279 a23c 891c 2fbc 8af0 2e3d 34da 293c
000002b0: f86c 93bd f450 76bb bc77 e5bc 3ead 243d
000002c0: 58b0 7dbd fc63 8e3d 77b5 9ebd 17b0 3ebd
000002d0: fda5 60bd a51b 693d 1c62 223d f63f 503d
000002e0: 81fa 4a3d 7c31 313d 599d e0bc 4b17 0a3d
000002f0: b72b 103d 6718 c4bc bef0 ba3c 77ef 31bc
00000300: 5765 11bd 6a58 fcbc c9d8 15bd e4ab 513d
00000310: 2a6b 0a3d 9bb2 903c 0dea fdbc ce6c 0f3d
00000320: 3552 f7bc 7e24 443d a8ad a3bd 1ede cf3c
00000330: 3295 033c 981b 08bd 7ff2 953d 5c05 a2bc
00000340: 0eb9 193c 8330 b03d 1b43 bebc cd93 f13c
00000350: 3564 9c3d 7e4a 173c b907 74bd 49f4 9b3d
00000360: 9cf8 8e3d b485 9d3d de2d c7bc 13cc 8fbd
00000370: 70a7 033d 76fe 583d 2983 b13d d192 15bd
00000380: 441a 283d d89d 0a3d 5f8a adbc 8b72 56bd
00000390: a955 28bd 0a00 81bd 7cbf 9dbb b6c0 9d3d
000003a0: 93d0 80bd 861f 243d ae36 813d 0c4a 65bd
000003b0: f134 9d3d fbea 93bd d153 973c 1f4e c0bc
000003c0: f79b 54bd 085a 42bd c9df a6bd 56a4 1c3d
000003d0: 317c 163c b4a0 a5bd 45b7 03bc db20 d7bc
000003e0: c9f3 a33d fe22 37bc 75ca 99bd 382d 83bd
000003f0: b579 98bc 6ff0 80bd 01e5 0fbd 0588 9fbd

decoder.W_d.bias f4 [64]
0.013047852 0.12479348 0.039574012 -0.11365426 0.005216554 0.085710995 0.098290995 -0.048208084
0.069043696 0.08771998 0.040952597 -0.07645643 0.041540638 -0.09357139 0.02873836 -0.08153622
-0.020766852 -0.09147592 0.0447206 0.11447681 -0.090129755 0.009056417 -0.010576391 -0.03485396
0.0031109182 -0.0009410181 -0.099683575 -0.022962853 0.014428148 -0.05371603 -0.06581796 -0.005154619
0.12147815 0.14978454 -0.01885053 -0.0076863314 -0.05642161 0.056841105 -0.08442369 0.06184643
0.033302706 -0.0047362163 0.100610174 0.019628989 -0.0016427751 0.028575629 0.074476264 -0.08556849
0.019474946 -0.022751285 -0.05272475 0.0075594964 -0.007590491 -0.08501874 0.07339724 0.0043718787
0.059783902 -0.08511765 0.005034349 -0.034518395 -0.04691833 -0.056420494 0.019042136 0.09949098
00000000: a8c6 553c b993 ff3d 5c18 223d 91c3 e8bd
00000010: a0ef aa3b 3f89 af3d ca4c c93d d775 45bd
00000020: c866 8d3d 88a6 b33d e9bd 273d 3095 9cbd
00000030: 8426 2a3d 5ba2 bfbd b66c eb3c 76fc a6bd
00000040: 3f1f aabc ba57 bbbd f32c 373d d172 ea3d
00000050: f395 b8bd 5e61 143c 9948 2dbc 07c3 0ebd
00000060: 8ce0 4b3b a8ae 76ba e726 ccbd 981c bcbc
00000070: 0a64 6c3c 5705 5cbd 91cb 86bd 14e8 a8bb
00000080: 89c9 f83d 1e61 193e 6d6c 9abc 9fdd fbbb
00000090: 591a 67bd 38d2 683d 54e6 acbd af52 7d3d
000000a0: 6b68 083d 4332 9bbb b50c ce3d f9cc a03c
000000b0: 6352 d7ba 7017 ea3c 0387 983d 883e afbd
000000c0: ec89 9f3c e760 babc e8f5 57bd a7b5 f73b
000000d0: a7b9 f8bb 4e1e aebd 4b51 963d fa41 8f3b
000000e0: f7df 743d 2a52 aebd 2ef7 a43b 2963 0dbd
000000f0: 6f2d 40bd 2d19 67bd 41fe 9b3c edc1 cb3d

decoder.U_d.weight f4 [64, 64]
-0.15190232 0.29309168 0.30916065 -1.3001189 -0.19974202 -0.90992093 -0.27408716 0.52541405
-0.88718295 -1.567113 0.9228175 -0.009264101 -0.19590579 0.38582364 -0.5845371 -0.77067065
-0.40299115 -0.06524112 -0.9810854 0.08780151 0.14136246 0.12778798 0.31231523 -0.020324875
0.32032114 0.2295321 -0.3843175 -0.08287607 -0.38991356 -0.6588534 -0.12522344 0.2315225
0.29013103 0.18023707 0.7853108 -0.48241803 -0.12967409 -0.092292175 0.081064224 0.35178667
0.17715618 -0.17885955 0.117111206 0.8212296 0.039702546 -0.83627236 0.13530669 0.10946779
0.5726559 0.16837311 -0.25763503 0.23725837 -0.23063198 -0.20802534 -0.5825489 1.3275259
-0.111189716 0.060280282 -0.09281174 0.3882296 0.26122546 -0.39913756 -0.85756403 -0.5203354
-0.012893238 0.19625503 0.495385 -1.2041336 -0.35876125 -0.8378037 -0.08015901 0.35635003
-0.81288266 -1.5987679 0.9634674 -0.122193635 -0.09264641 0.5342226 -0.4428553 -0.8860515
-0.49491185 -0.27866128 -0.9985903 0.24230522 0.36869386 0.21890472 0.30266425 0.034957707
0.22148998 0.20829941 -0.45075735 -0.09741702 -0.2516113 -0.8396862 -0.008242373 0.15853709
0.31040537 0.26582417 0.8094593 -0.47843343 -0.021154568 -0.09752266 0.26104188 0.2736714
0.13892333 -0.10504501 0.15140334 0.81619143 0.14550246 -0.8421256 0.12842512 0.04847166
0.4384824 0.20179442 -0.23837695 0.45128888 -0.20407456 0.0123796025 -0.7751814 1.409091
-0.15987965 -0.049256675 0.0019988203 0.55084884 0.29982615 -0.4456991 -0.9984249 -0.49205995
-0.037375975 0.17919739 0.34137148 -1.1810738 -0.22133358 -0.8222848 -0.10998508 0.3875942
-0.83470196 -1.3812724 1.0022863 -0.00018279947 -0.006985782 0.47757724 -0.3331739 -0.8502739
-0.40710452 -0.119258694 -0.83843976 0.03373459 0.17044705 0.1804289 0.15500684 -0.16332805
0.13522908 0.088551514 -0.5448814 0.01283665 -0.27013922 -0.6993146 -0.19760607 0.02341109
0.22575527 0.27434865 0.9848599 -0.3453385 -0.10346133 -0.044271227 0.09046543 0.16795951
0.08973812 -0.09296203 0.2055567 0.77233446 0.116320066 -0.85303354 -0.009005612 0.039695103
0.4575956 0.25493065 -0.26359338 0.36919776 -0.16729586 0.055312514 -0.53154796 1.3527496
-0.28912634 -0.06508737 0.07968937 0.48403943 0.32072118 -0.3924886 -0.8398737 -0.40909767
0.24549949 -0.3734626 -0.43224806 1.3758341 0.4077042 0.7488051 0.20760022 -0.4960393
1.0504751 1.5553797 -0.9652509 0.2145948 0.1118029 -0.45732927 0.5703878 1.0253041
0.28046682 0.23172511 0.9605705 -0.20093639 -0.374668 -0.023527369 -0.17447169 0.006358867
-0.25896174 -0.085110426 0.40997666 0.02183529 0.36402386 0.76240575 -0.029978406 -0.26847893
-0.33857623 -0.354359 -0.93760675 0.55449206 -0.07468033 0.24723071 -0.13357405 -0.21578205
-0.19127497 0.054785375 -0.0242553 -0.7772376 -0.058179706 0.94475114 -0.013153012 -0.21699254
-0.4796791 -0.25868034 0.2711824 -0.48420024 0.2959583 0.26682258 0.6812615 -1.3081782
0.19757368 0.02023066 -0.112195075 -0.4873603 -0.48962256 0.5685677 0.98305357 0.69332755
00000000: 488c 1bbe 1d10 963e 4e4a 9e3e 4c6a a6bf
00000010: 2c89 4cbe 94f0 68bf 2755 8cbe 8981 063f
00000020: 6c1e 63bf 2997 c8bf c53d 6c3f 75c8 17bc
00000030: 879b 48be ad8a c53e 39a4 15bf ac4a 45bf
00000040: db54 cebe 239d 85bd 6a28 7bbf 47d1 b33d
00000050: 52c1 103e dada 023e c8e7 9f3e 5a80 a6bc
00000060: 2201 a43e 760a 6b3e 43c5 c4be eeba a9bd
00000070: c0a2 c7be 9eaa 28bf 933a 00be 3c14 6d3e
00000080: 0e8c 943e 1190 383e 210a 493f 7fff f6be
00000090: 49c9 04be ae03 bdbd 0005 a63d 621d b43e
000000a0: 6e68 353e f526 37be 00d8 ef3d 1a3c 523f
000000b0: 239f 223d f215 56bf d68d 0a3e a630 e03d
000000c0: 9499 123f 006a 2c3e bde8 83be dcf3 723e
000000d0: ca2a 6cbe 9804 55be ed21 15bf 5eec a93f
000000e0: 6fb7 e3bd 75e8 763d 1514 bebd 08c6 c63e
000000f0: 58bf 853e c25b ccbe 5189 5bbf b334 05bf
00000100: 293e 53bc 14f7 483e 1aa3 fd3e 0d21 9abf
00000110: 8eaf b7be 4e7a 56bf 682a a4bd 8373 b63e
00000120: 1419 50bf 6da4 ccbf cda5 763f a840 fabd
00000130: 67bd bdbd d0c2 083f eebd e2be 45d4 62bf
00000140: 1665 fdbe b1ac 8ebe 9da3 7fbf dc1e 783e
00000150: 71c5 bc3e 8f28 603e cff6 9a3e d02f 0f3d
00000160: 45ce 623e 714c 553e abc9 e6be 9382 c7bd
00000170: 32d3 80be adf5 56bf 050b 07bc 8c57 223e
00000180: 74ed 9e3e 1b1a 883e ba38 4f3f 3af5 f4be
00000190: 584c adbc f6b9 c7bd 48a7 853e a81e 8c3e
000001a0: eb41 0e3e d721 d7bd 7a09 1b3e ecf1 503f
000001b0: 99fe 143e 8b95 57bf e081 033e 388a 463d
000001c0: c480 e03e 32a3 4e3e 1619 74be 560f e73e
000001d0: ecf8 50be d1d3 4a3c 4a72 46bf 185d b43f
000001e0: 7eb7 23be 5ec1 49bd a4fe 023b 6e04 0d3f
000001f0: d082 993e ac32 e4be c698 7fbf 48ef fbbe
00000200: 8d17 19bd 857f 373e 3ec8 ae3e 6d2d 97bf
00000210: 45a5 62be 4281 52bf dc3f e1bd bf72 c63e
00000220: 07af 55bf 89cd b0bf eb4a 803f dcad 3fb9
00000230: fde8 e4bb 0185 f43e c595 aabe 8dab 59bf
00000240: 0170 d0be e73d f4bd fda3 56bf 482d 0a3d
00000250: ac89 2e3e 5bc2 383e 1dba 1e3e 783f 27be
00000260: 7e79 0a3e 7f5a b53d 597d 0bbf d050 523c
00000270: b04f 8abe 4806 33bf 3f59 4abe 9dc8 bf3c
00000280: 642c 673e 6d77 8c3e c71f 7c3f 35d0 b0be
00000290: 89e3 d3bd bf55 35bd f045 b93d 94fd 2b3e
000002a0: 9fc8 b73d e062 bebd 757d 523e b6b7 453f
000002b0: 3739 ee3d 6860 5abf 468c 13bc 5597 223d
000002c0: f849 ea3e 4586 823e b6f5 86be 7d07 bd3e
000002d0: 9b4f 2bbe 608f 623d 8713 08bf e626 ad3f
000002e0: 5e08 94be 874c 85bd 2e34 a33d 04d4 f73e
000002f0: 9135 a43e 44f4 c8be f601 57bf 4075 d1be
00000300: 3864 7b3e 7d36 bfbe 9e4f ddbe 551b b03f
00000310: 9bbe d03e b1b1 3f3f 2795 543e ddf8 fdbe
00000320: f875 863f af16 c73f af1a 77bf bdbe 5b3e
00000330: ebf8 e43d 1027 eabe ef04 123f 2a3d 833f
00000340: 5999 8f3e 5949 6d3e f3e7 753f 45c2 4dbe
00000350: 7cd4 bfbe 78bc c0bc b5a8 32be 0b5e d03b
00000360: a296 84be 604e aebd 76e8 d13e ecdf b23c
00000370: 5661 ba3e 062d 433f 4695 f5bc 1276 89be
00000380: dd59 adbe 8b6e b5be ff06 70bf 31f3 0d3f
00000390: 00f2 98bd 0c2a 7d3e a3c7 08be f8f5 5cbe
000003a0: 96dd 43be a166 603d 0db3 c6bc 0bf9 46bf
000003b0: d84d 6ebd 36db 713f bb7f 57bc 4b33 5ebe
000003c0: 8098 f5be c071 84be 6bd8 8a3e 18e9 f7be
000003d0: d987 973e f89c 883e 2767 2e3f 6272 a7bf
000003e0: c150 4a3e c5ba a53c 88c6 e5bd 4a87 f9be
000003f0: cfaf fabe a78d 113f 66a9 7b3f ea7d 313f

decoder.U_d.bias f4 [64]
0.10096939 -0.0078861285 0.07137742 0.0117612695 -0.11625304 0.020211535 0.008347242 -0.05333991
0.033860583 0.016645048 0.06927161 -0.02267121 0.06883816 -0.014761678 0.09090632 -0.02978283
-0.08763939 -0.028130125 0.060501352 0.005671345 -0.018975748 0.107900955 -0.10587031 -0.08255305
-0.122391135 0.10391857 -0.002526047 -0.076574 0.10163506 -0.053507093 -0.04438586 -0.09875577
-0.012070369 -0.047532346 -0.08740467 -0.10726178 -0.054584935 0.05671147 -0.02750594 0.052168764
0.082404085 -0.080137216 -0.0066833487 0.08438166 -0.109458186 -0.1504072 0.033587627 -0.019742971
-0.12767617 -0.085953265 -0.0631391 -0.11257127 0.10906593 -0.03253452 0.023593517 0.09951421
0.04762691 -0.023015944 0.11225898 -0.06827322 -0.066978745 -0.05798032 0.06759303 0.0089127915
00000000: 0ac9 ce3d d234 01bc 532e 923d 57b2 403c
00000010: 1316 eebd a992 a53c dfc2 083c f37a 5abd
00000020: 65b1 0a3d 325b 883c 46de 8d3d f9b8 b9bc
00000030: 05fb 8c3d f7da 71bc 182d ba3d 1ffb f3bc
00000040: 487c b3bd 2671 e6bc 44d0 773d b1d6 b93b
00000050: 0773 9bbc 2dfb dc3d 88d2 d8bd 9311 a9bd
00000060: 34a8 fabd 42d3 d43d 098c 25bb d4d2 9cbd
00000070: 0b26 d03d 412a 5bbd f3cd 35bd 7740 cabd
00000080: ccc2 45bc 47b1 42bd 3801 b3bd 10ac dbbd
00000090: 7494 5fbd 494a 683d 2354 e1bc eaae 553d
000000a0: 79c3 a83d fb1e a4bd feff dabb 4bd0 ac3d
000000b0: 9d2b e0bd 5804 1abe 2e93 093d 03bc a1bc
000000c0: 8bbd 02be 4408 b0bd 134f 81bd c48b e6bd
000000d0: f55d df3d eb42 05bd 3147 c13c 1bce cb3d
000000e0: 6f14 433d ef8b bcbc 09e8 e53d d4d2 8bbd
000000f0: 272c 89bd c67c 6dbd 376e 8a3d f506 123c

decoder.v_d.weight f4 [1, 64]
-1.3257222 -1.3764417 -1.2320791 1.280142 1.2508663 -1.2971687 -1.3255956 1.211723
-1.2614653 -1.4121358 -1.4050939 1.4394792 -1.497125 1.2662182 -1.3217331 1.2517443
1.3449674 1.3162707 -1.3275533 -1.3917081 1.2726767 -1.2685021 1.2854415 1.3928229
1.3861725 -1.2689924 1.3015473 1.184121 -1.2529036 1.2251917 1.3180834 1.2673726
-1.324443 -1.1873882 1.3644681 1.3602202 1.2292618 -1.2382225 1.3522055 -1.2385454
-1.272866 1.0266535 -1.0690323 -1.2808748 1.4833881 1.3745594 -1.333035 1.3953822
1.2739959 1.1977131 1.3911079 1.2137831 -1.2291472 1.3332378 -1.1742035 -1.2854506
-1.3208076 1.3391651 -1.3539801 1.1730242 1.2890271 1.3897274 -1.0407368 -1.4127812
00000000: 44b1 a9bf 3e2f b0bf c5b4 9dbf b1db a33f
00000010: 631c a03f a009 a6bf 1ead a9bf bd19 9b3f
00000020: b277 a1bf dec0 b4bf 1eda b3bf db40 b83f
00000030: cba1 bfbf 7013 a23f 8d2e a9bf 2839 a03f
00000040: e427 ac3f 8f7b a83f 44ed a9bf 7e23 b2bf
00000050: 12e7 a23f 475e a2bf 5989 a43f 0548 b23f
00000060: 1a6e b13f 586e a2bf 1a99 a63f 4791 973f
00000070: 255f a0bf 15d3 9c3f f5b6 a83f 4439 a23f
00000080: 5987 a9bf 56fc 97bf e4a6 ae3f b21b ae3f
00000090: 7358 9d3f 137e 9ebf 1215 ad3f a888 9ebf
000000a0: 46ed a2bf 6269 833f 0dd6 88bf b5f3 a3bf
000000b0: a9df bd3f 90f1 af3f e4a0 aabf e29b b23f
000000c0: 4c12 a33f aa4e 993f d30f b23f 3f5d 9b3f
000000d0: b254 9dbf 89a7 aa3f 4d4c 96bf a589 a4bf
000000e0: 3910 a9bf c369 ab3f 384f adbf a825 963f
000000f0: d7fe a43f 96e2 b13f dd36 85bf 04d6 b4bf
