weights/DARNN_L3_HDE64_HDD64_BS32_E50_s2.pth (torch, 312242 bytes, 22 tensors)

encoder.lstm.weight_ih_l0 f4 [256, 81]
00000000: 693f b3bc ea8d 36bd d294 18bc c3f1 963d
00000010: f747 83bd bb57 29bd 8902 77be 2d5e 44be
00000020: 1557 7b3d 4e2c 3cbe c2fd 8abd 417e 34bd
00000030: 483e 6cbd 2f12 803d 2af8 91bd dd65 c5bd
00000040: b98e 873d 95e7 86be 1a3a 2cbd ccae e03d
00000050: 48bb ebbd 2425 7dbe 30d8 79bd ea29 c53d
00000060: e808 78bd b13d 413d 4b02 be3c 61f7 39bd
00000070: 3e8e a6bd f1d8 18be 07fb 67be a43a a0bd
00000080: aa95 653c b218 3b3d 4c4f a3bd 47d0 cabd
00000090: 8fa6 a1bd bd35 b7bd fdc7 0fbe 9390 c4bd
000000a0: 2ca6 83bd 7a40 38be bf0d b239 e878 6abd
000000b0: 95bb 2ebd e457 ea3d 7e01 ed3c 8458 3cbe
000000c0: 75cb febd 308a 79bd 6cd7 f93d c6d2 5c3d
000000d0: 4a73 793c 1235 a43c 9e3d 02bd b89e 80bc
000000e0: 077b 303d aaa3 033d 3213 943d 16c7 af3d
000000f0: c960 b53c ddea 65be a808 a43d 852f a63d
00000100: e4cc 853d e15d 44bd 1463 1d3d 76eb 02be
00000110: 4e34 b3bd 7a51 de3d b64a 98bd 1edc 943d
00000120: 19a4 46be a0d8 143e 6611 503c 840f 02bd
00000130: d0ed 65bd e970 6abe f581 58be b64a 8bbc
00000140: 7490 183d 5617 1a3c bbe0 18bd 3075 9d3d
00000150: c1b0 953d 5197 0bbe f8d5 d43c 5dd2 5fbc
00000160: caba c5bd 4787 b6bc be77 9dbc ea35 b5bd
00000170: 4e12 a23d a917 403d 2807 223c b45e f73d
00000180: 6aff a8bc c024 9fbd b787 c1bd d3a1 85bc
00000190: 98d6 98bd 4cd4 39bc d8f5 23be 49c6 943d
000001a0: 0984 b13d b359 5a3d 58fd 913d 9bf7 423e
000001b0: 7f5b fabd 7174 8e3d 237a af3d 7009 f0bd
000001c0: d60f 7c3c 1f05 1abd 9818 d838 98b2 cebd
000001d0: 2f28 8abd be6a 103d 7831 ec3d 62f7 a43d
000001e0: d6d2 093e 5db6 e63d ef6c cebd 736e f23d
000001f0: f013 b03d 3233 9dbd 9c0e d9bc 0aac ee3d
00000200: b4ee 1bbe cec9 aabd bb51 9dbd 8c80 6a3d
00000210: c498 97bc 6659 0abe ea4c d93d ab77 ca3d
00000220: 90e2 c23d 99c5 01bd f951 c93d 30ea 813c
00000230: 3082 67bd 5196 073d a4a7 b5bb db61 f03d
00000240: bb2d ebbc 0e48 0e3d 0223 d6bd cc55 333e
00000250: 9172 1b3e f98e 20bd 1efe e33b eedb 09bd
00000260: ee98 edbd e3aa 2ebc af7a 413b 2691 eebd
00000270: 8a0b b6bd 83ce edbc 908c dc3d 23ab 93bd
00000280: 8f78 7bbc 70dc 183e 462a 4b3d c55f d7bb
00000290: 8a37 8a3d 5cca cc3d 3573 0bbe d27a 533d
000002a0: 7fcc e6bd bd8a c1bd 1f8a 01bd f071 2a3d
000002b0: 6902 d23d a331 c4bb 53b1 81bd 7cee 44bd
000002c0: cc7a 09bd 7edb fa3d 3fac de3d ddf4 c53d
000002d0: 19ed 28bd 956f 10bd 1301 a03d 5a47 1a3d
000002e0: eecb abbd fbea 61bd 21af 5bbc 314c 453d
000002f0: 4cd8 593e 6d06 a03d 2436 d23d b07e e7bd
00000300: 305a b73d 03d0 043e 93f2 6fbd 23d6 323d
00000310: 50ae 15bc f097 babd e952 6c3a 55b5 803e
00000320: bd50 3fbd daad b2bc 17ca d23c 6cbf b5bd
00000330: 69ac 9f3c 6cff cb3d 5b24 a83d 74b3 65bc
00000340: 725b ca3c c3e0 8ebd 4309 4bbd 1d1d 47bc
00000350: 15ad 343d bb22 63bc 4867 c7bd 7585 d73d
00000360: 6e90 6a3d 3172 e23c ae00 e63d 52b3 d93d
00000370: 6dc5 373d a1ec e1bb b582 373e 7b87 c93c
00000380: 627e 6b3d d072 67bd d58c b0bd 234a 083e
00000390: 701a 2a3e b342 00bd b7cc 6e3d d23a 4c3c
000003a0: be98 243d f5ac 7b3c 8568 4dbd 724d 4a3d
000003b0: 3fba 03bd eaf3 e8bb 9f2a 9dbd 26e6 32bd
000003c0: b18c 27be dfc8 f43d 2ba3 68bc bf46 a0bd
000003d0: 878e 2f3e baba e0bb b5ba b13c b853 5a3c
000003e0: 7156 67bd edff ebbd 6c75 92bc 3d35 1bbc
000003f0: 95c7 aa3d 3ecd 6bbe 2fad 94bd 4fec 0a3d
-0.021880822 -0.044568934 -0.009312825 0.07370331 -0.064102106 -0.041343432 -0.24122061 -0.1917655
0.061362345 -0.18376276 -0.06786682 -0.044065718 -0.057676584 0.06253468 -0.07127412 -0.096385695
0.06619019 -0.26348558 -0.042047597 0.1097084 -0.115103304 -0.247212 -0.060997188 0.09627135
-0.06055537 0.047177974 0.023194453 -0.045401935 -0.08132599 -0.14926507 -0.22654353 -0.07823685
0.0140127335 0.04567785 -0.07974109 -0.09903007 -0.07893097 -0.08945797 -0.14041133 -0.09597888
-0.06428179 -0.17993346 0.00033961047 -0.05724421 -0.04265936 0.11442545 0.028931376 -0.18393141
-0.1244115 -0.0609228 0.121992916 0.053911947 0.015225241 0.020044837 -0.031797044 -0.015700683
0.043086078 0.032138504 0.07230224 0.085828945 0.022140877 -0.22452874 0.080094635 0.081145324
0.065332204 -0.047941092 0.038424566 -0.12785134 -0.08750211 0.10855384 -0.07436125 0.072685465
-0.19398536 0.14535761 0.012699461 -0.031753078 -0.056135 -0.22894634 -0.21143325 -0.017003398
0.037247136 0.009404978 -0.037323695 0.07688367 0.07309104 -0.13631941 0.025980935 -0.013660994
-0.09654768 -0.022281302 -0.019222137 -0.08848174 0.079136476 0.046897564 0.0098894015 0.1207861
-0.020629603 -0.077706814 -0.09449714 -0.016312515 -0.074628055 -0.011342119 -0.1601175 0.072643824
0.08667762 0.0533082 0.071283996 0.19039766 -0.12224483 0.06955803 0.085682176 -0.1172055
0.015384635 -0.03760254 0.000103042636 -0.10092658 -0.06745946 0.035258047 0.11532873 0.08054997
0.13459334 0.11265252 -0.10079371 0.11837473 0.08597553 -0.0767578 -0.026496224 0.116539076
-0.15227777 -0.083392724 -0.076816045 0.057251498 -0.018505462 -0.13510665 0.10610373 0.09886106
0.095158696 -0.031682584 0.09830088 0.01585874 -0.05652064 0.033102337 -0.005543666 0.117374144
-0.02870833 0.034736685 -0.10455896 0.17513198 0.15180422 -0.03919885 0.0069577834 -0.033657007
-0.11601435 -0.01066086 0.0029522588 -0.116487786 -0.0888892 -0.029029137 0.10768998 -0.07210376
-0.015348568 0.1492784 0.049600862 -0.006572696 0.067488745 0.099995345 -0.13618167 0.051630802
-0.11269473 -0.0945029 -0.031625863 0.041612566 0.10254366 -0.0059873625 -0.0633265 -0.048079
-0.033564374 0.12248896 0.10872697 0.096658446 -0.04124174 -0.035262663 0.07812705 0.037665702
-0.08388506 -0.055155735 -0.013408453 0.048168365 0.21273917 0.078137256 0.10264233 -0.113034606
0.08952749 0.12969975 -0.058580946 0.043661248 -0.009135798 -0.09111011 0.000901504 0.25138345
-0.046707857 -0.021811415 0.02573113 -0.088744015 0.019491391 0.09960827 0.08210059 -0.014019836
0.024701808 -0.06976464 -0.04956938 -0.012152937 0.044110376 -0.013863261 -0.09736496 0.10523502
0.057266645 0.027642341 0.112305984 0.10629906 0.044866014 -0.0068946634 0.17920955 0.024600735
0.057493575 -0.056505978 -0.086206116 0.13309531 0.16611648 -0.03131361 0.0583007 0.012465196
0.04018473 0.01536106 -0.050148506 0.049390264 -0.03216004 -0.007109155 -0.07674145 -0.043676518
-0.16362263 0.119523756 -0.0141990585 -0.07825994 0.17144214 -0.006858197 0.021695474 0.013325624
-0.05647892 -0.11523423 -0.017878257 -0.009473142 0.083388485 -0.23027512 -0.07259595 0.033916768

encoder.lstm.weight_hh_l0 f4 [256, 64]
00000000: 5a91 433c 7e29 8a3d 4ba0 a8bc b200 853d
00000010: 7fd6 283d ab8f 0e3e f170 193e 0dbf df3d
00000020: 5f43 1c3e b54c 49be 351c ebbd 5e9a f33c
00000030: 8d3f 2bbd ed04 933d 2a4a d0bc 16a2 4abd
00000040: db70 99bd ab01 c73c a086 843e c4f2 8abd
00000050: 8b66 093d edc8 cabd d894 1cbd 3270 fdbd
00000060: 71b3 b73d 26bc dfbd 59a9 45bd e3a3 babd
00000070: b1d1 dc3c 8fac 653e ae76 df3d 1e92 023d
00000080: 44af 313e bc8b b43d eccd 413d 5ef3 bd3d
00000090: a933 87be e1c9 593d 10b1 eebd bfd7 993c
000000a0: 06d2 36bd 64ee 133e 10f5 a0bd 2f59 a73d
000000b0: 310c abbd da0f a93b 6f6a f93d 562c 8ebd
000000c0: 4ccb ec3c f120 043e c59a 5dbd a3ed 55bd
000000d0: fa04 ad3e e528 a53d 022a b43d ef1c 60bd
000000e0: 182e 97bd c03c 613e a887 e5bd 9175 61bd
000000f0: 478e 163d 37b3 403e 39d1 4f3d c7c0 96bd
00000100: 9649 aa3d d94c 943d 5b19 94bc 4dd9 82ba
00000110: 25d5 0f3e d1f5 ca3c 99ff 4dbc c76c ccbd
00000120: b8c4 373d cdac d3bd 3e2b 233d 8efc 4ebb
00000130: f877 24be 85e6 febd 11bf 483b cbf1 47bd
00000140: daf1 7ebd 43b2 d23d b4cf bc3d 7379 933d
00000150: 16ef 76bd ca00 77bd 65c9 6d3d f148 53bd
00000160: 968e 81bd 152c fbbc 22ac e23d e9ee 0e3d
00000170: 6f26 af3d e776 adbc e4b1 b2bd 0b1d 973d
00000180: 296f 073d 6cd8 053c 7a3e a73d 070e a4bd
00000190: 6d04 313d 9020 aabd 9228 ef3c 4a7d b43d
000001a0: 9647 8ebd 9d20 7dbd 1561 713d ec58 b93c
000001b0: fbf1 10be 2e20 4ebc c788 3ebc 22e1 d7bd
000001c0: 6459 303d e884 a9bd 7356 983c 4192 f2bd
000001d0: b858 3f3e 6b47 b5bd 969d e23c 93bd e7bd
000001e0: f127 a1bb 9d7a bd3c 133a 643d 62df 1c3e
000001f0: 0c7d 20bc 8431 aa3d 2b41 653d 2f37 56bc
00000200: 47a0 c03d 74d2 c8bc 6141 463d f0cd 9f3d
00000210: 7359 d73d 74d3 943d a44e 1ebe 7f73 f9bd
00000220: 25cb 3f3e 0a44 85bd 7907 8dbd e0b4 933d
00000230: de8a 3fbc b1c9 0abe c2bc 7c3c 832c 923d
00000240: 8b32 cf3c aeb5 f53c 5003 aabd 84db 7fbc
00000250: 75a7 c03d 4fa9 18be 802d bebb 4c46 b0bd
00000260: 1fb5 963b 538a c13d dcba 5ebc 57d3 1f3e
00000270: 5ca3 56bd 1370 80bd 681b 07be 26be b4bd
00000280: 333b fdbd 353a a13c e94d 9fbd 1b49 03be
00000290: 60af 62bd 031a 54be 9b39 9ebd 2432 cabd
000002a0: 4cc5 75bd aa2d 2fbd 36f5 d0bd 74f0 bdbd
000002b0: eae3 1ebd 7bc0 0abe bf0f 863d b939 b93d
000002c0: a294 81bb 1f74 1c3e 6a2f 653c 1d5b a43d
000002d0: 0db4 65bd 2019 eabc d349 c0bd a148 d1bd
000002e0: 8fdc 85bd 1d35 71bd ec25 bfbd 086a 013e
000002f0: cc16 ed3a 7f7f 0b3e 3d84 803d c145 163e
00000300: fa8b 5abd 3f08 8dbd dea0 1e3d a758 253e
00000310: 1b90 b63d e1d9 7cbd e446 2cbd 24e2 1fbe
00000320: 2394 0fbd 3a6a 943d 2c83 92bd cd25 37be
00000330: 08a9 0ebc c38a 303c 482d d7bb ab34 8d3c
00000340: 99b9 7a3d 3544 92bd 2809 7abd fa33 513c
00000350: db33 e53d 0b33 b13d cdc6 dabd 5b8c ba3d
00000360: 49e9 7b3d d18c e1bd fef5 123e 0999 0abd
00000370: 4b2b 85bd b700 98bb b2ce 193e 78a8 033d
00000380: e5a1 f73d ee70 153e d7b1 c23d 9e00 a9ba
00000390: 4842 db3d c36a 8b3e c74c 7cbd 2ebd 2a3c
000003a0: 5d60 7dbb 1445 093e 6b08 753d 57ee 9cbd
000003b0: 7533 d7bb f307 9a3d 6ea4 dd3d fe59 203e
000003c0: 0f9f 48bd b6a8 3a3e 51a2 d23d e267 e03d
000003d0: c591 e93d f955 debd 8a76 013e 9096 4a3d
000003e0: c6ba 88bd 4e6a 88bd 000d bfbd 3d6d 473e
000003f0: 436d 323e a7fe 933d 4600 fa39 1abf 59bd
0.01193651 0.06746195 -0.020584246 0.06494273 0.041220184 0.13921992 0.1498449 0.10925112
0.15260075 -0.19658168 -0.114799894 0.029736694 -0.041808654 0.07178674 -0.02542599 -0.049470983
-0.074922286 0.024292788 0.2588396 -0.06784585 0.03354506 -0.09901605 -0.038227886 -0.12374915
0.089697726 -0.10924558 -0.048257206 -0.0911329 0.026955457 0.22429107 0.10911308 0.03187763
0.17352015 0.08815715 0.047315523 0.09274934 -0.264066 0.053171042 -0.11654866 0.018779634
-0.044633888 0.14446408 -0.07859242 0.08171307 -0.08351935 0.0051593604 0.12178504 -0.0694205
0.028905533 0.12903191 -0.054102678 -0.05222858 0.3379286 0.08064441 0.08797075 -0.054715093
-0.073818386 0.2199583 -0.11207515 -0.05504376 0.03675678 0.18818365 0.05073664 -0.07360988
0.08314817 0.0724122 -0.018078497 -0.0009982974 0.14046152 0.024775418 -0.012573146 -0.09981685
0.04486534 -0.103356935 0.03983616 -0.003158364 -0.1606139 -0.12446312 0.0030631463 -0.048814576
-0.062242366 0.10287907 0.09219304 0.07200899 -0.060286604 -0.060303487 0.058053393 -0.051583234
-0.06326024 -0.030660668 0.11067988 0.03489581 0.085522525 -0.021174861 -0.08725336 0.073785864
0.033064995 0.008169275 0.08166213 -0.08010488 0.04321711 -0.08306992 0.02919415 0.088129595
-0.06947248 -0.06179868 0.058930475 0.022625409 -0.14154808 -0.012580914 -0.01162929 -0.105409876
0.043054 -0.08277303 0.01859591 -0.11844302 0.18686187 -0.088515125 0.027663033 -0.11315455
-0.0049180915 0.023129756 0.055719446 0.15319589 -0.0097954385 0.083102256 0.055970352 -0.01307468
0.094055705 -0.024514414 0.048402194 0.07802951 0.10515108 0.07266894 -0.15459687 -0.12180232
0.18729837 -0.06507118 -0.06886191 0.072122335 -0.011690823 -0.13553502 0.015425863 0.07137396
0.025292655 0.029993858 -0.08301413 -0.015616301 0.0940694 -0.14908336 -0.005803764 -0.08607158
0.004599228 0.094502114 -0.013594355 0.15607964 -0.052401885 -0.062713765 -0.13194048 -0.088253304
-0.12364807 0.019681076 -0.07778532 -0.12820856 -0.055343032 -0.20713048 -0.07725831 -0.09872845
-0.06000261 -0.042768158 -0.1020302 -0.092743784 -0.038791575 -0.13549988 0.06545972 0.09044213
-0.003954486 0.15278672 0.013988355 0.08025191 -0.056079913 -0.028576434 -0.09389081 -0.10218931
-0.06536209 -0.058888543 -0.09333405 0.12638104 0.0018088459 0.13622855 0.062752225 0.14675047
-0.05335615 -0.068863384 0.038727634 0.161471 0.08914205 -0.061731223 -0.042059794 -0.1561361
-0.035053384 0.072468236 -0.07153925 -0.17885514 -0.008707292 0.010775271 -0.0065666772 0.017237028
0.061212156 -0.07141916 -0.06104389 0.01276874 0.11191531 0.08652314 -0.106824495 0.09108802
0.061501775 -0.11013187 0.14351651 -0.033837352 -0.06502398 -0.004638757 0.15020254 0.032143086
0.12091426 0.1459386 0.095065765 -0.0012893861 0.107060015 0.2722989 -0.061596658 0.0104210805
-0.0038662173 0.13405257 0.05982248 -0.07662647 -0.0065674135 0.075210474 0.10822378 0.1565933
-0.048979815 0.1822842 0.10284866 0.10957314 0.114047565 -0.10856242 0.12642875 0.049459994
-0.06676249 -0.06660901 -0.093286514 0.19475265 0.17424493 0.072263055 0.0004768392 -0.053160764

encoder.lstm.bias_ih_l0 f4 [256]
00000000: f13b e8bc f184 0e3e 9032 2d3c a305 853e
00000010: 9367 ab3d db1d e4bd 7f5d 663f 9479 5abc
00000020: 9b49 283e 2092 d9be cea1 09bd 9570 cc3d
00000030: c52a d8bd 0757 443d 58ad 2b3e 3b65 80be
00000040: 675d 603e 6b76 453e 613a e3bd 137f 033e
00000050: 8ede ae3d 4bb0 aa3e e19b c0bd 1018 023e
00000060: 7671 04bf 81a1 7ebe addb 8cbc ba2a c73e
00000070: 77e7 653e 87b5 56be 7e30 93bc 506a 393d
00000080: e151 553e bda1 2a3e 8c13 3cbb dab2 fbbd
00000090: 30b4 d0bd 6d05 223e 3f9e 323e b721 803e
000000a0: 5963 983c e7be 9bbd d3b1 16bd fef8 84bc
000000b0: fd9c 37bd bf99 9fbc bc17 7dbd 2fca 92be
000000c0: 0035 08be de49 523e a99c 803d bad6 19be
000000d0: bc34 adb8 f36a 95be 4c10 df3e c523 37be
000000e0: bebe a3bd d5bb 1fbe 851b 633e f62d 2abe
000000f0: f795 4c3e bd4f 73bd c8d0 1b3f 3836 243d
00000100: b1b8 c9be 1a5d a5be 6968 d0bd d9bd 00bf
00000110: 1ea9 3fbd d712 af3d f945 51be 4a92 8ebe
00000120: 3476 b0be 78d0 46be 460c 7a3c 7a5b e5bd
00000130: 5ff3 90bd cb5a 27be 4f59 b4be 63bd 8dbd
00000140: 08e0 07be 0295 93bd e15e 8dbd d67d cdbd
00000150: 99dd 6fbe 97b1 69be 3049 eabd 4bd4 96be
00000160: 6eca 3bbd 5025 00be c442 983e e044 cabd
00000170: b0cf 0ebe 39f9 04bd 261d 56be df38 cebd
00000180: 0b9f 103d b78f 12be 2784 94be 4bed e2be
00000190: 2cd7 ebbc 1336 cb3d 7c21 46be abca 74bd
000001a0: 1aec 8cbd 75d1 2fbe 1042 44bd 7536 26be
000001b0: 31d5 d3be f16c f5bd ba93 22be 2aa3 6ebe
000001c0: deed 51be 207d 69be 363e d8be c08c e8bb
000001d0: a743 a53e a344 f1bd 7b91 063b 0d7b 7bbe
000001e0: 2164 28bd 7849 aabd fcbc 55be 665e af3d
000001f0: 186b 55be ea63 093e a0cf 45be 888c 57be
00000200: f1cc 5ebb 6b33 45bd 95c2 b8bc 3972 4b3d
00000210: c5d5 2abd c6a9 c4ba 3ac2 d4bd 8d38 3d3c
00000220: cbb2 f53d 0d58 5bbc 12bd be3b 6e52 2e3c
00000230: 3141 3f3d 948c a5bc 29c9 d33d a57b 513d
00000240: f3f2 fabc 7c95 523c 5dbe 43bd d195 94bc
00000250: e405 e2bc c7b4 5c3d e009 c93d 2fd2 f3bb
00000260: 0029 4b3d e7da d6bd 782e f93c 56b0 323e
00000270: c78d e63d 0016 083d 2493 4a3d 8d80 cdbd
00000280: 8210 0c3e 82b7 bbbb 44ce 87bc 789b d13c
00000290: 7e56 803c 58f4 b2bd 6bbd e5bd ccee 3a3d
000002a0: be59 a1bb e9e5 8b3d c902 5f3d 5453 71bc
000002b0: a662 ebbc a8a8 4bbd bcb2 2b3c 841d 243d
000002c0: f82c 0d3d 4bd9 a13d 6f68 173d 91c1 26bb
000002d0: e38e ecbc afbc 1dbc d5b9 e7b9 8457 373d
000002e0: f15c 4c3c 484d 26bd 5491 f3bd d258 08ba
000002f0: a133 493d 5378 30bd c6b8 ba3c b4b5 083e
00000300: 5540 c73d 5982 013d 4e30 d23d 87e4 8f3e
00000310: 49ed d03d 6419 29be a328 7e3f 7617 ae37
00000320: 1014 133e f24d 01bf 18ce eabd 33f4 003e
00000330: 6659 3abe 4720 be3c 29af 783e f48c 2cbd
00000340: 87f3 203e b73d 6a3e ef52 b3bd 6d02 443e
00000350: e575 163e ea49 683e ceba ba3d 654d 623e
00000360: 0181 19bf e453 66be b108 20be b11a 8f3e
00000370: 48eb 5d3e 0cca aebd 02d9 12be 52ec f03c
00000380: 9a61 7e3e 39f3 023d e9cd 62bc ed1e 90bc
00000390: d8a4 16be 6aad ec3b 943b 063e f194 1c3e
000003a0: 8f89 4fbb 14f3 1fbe 1fea 0dbd c640 dc3d
000003b0: 2de6 e43d 75aa 0c3e 5956 83bd 19a0 0abe
000003c0: caac 2b3d 29ae 063e 31c6 00bd 42d3 5fbe
000003d0: 7381 15bd a899 b5be 3c71 073f 9145 cdbd
000003e0: 2ad9 cd3c fbff 123d d699 853e 01a8 023d
000003f0: e6f4 6c3e 5672 1fbe 71a8 1e3f 3c11 dabb
-0.028348895 0.139179 0.010571137 0.25980863 0.083693646 -0.11138507 0.89986414 -0.013334651
0.16434328 -0.42494297 -0.033601575 0.09982411 -0.10555033 0.04793456 0.16765344 -0.25077233
0.2191063 0.19283454 -0.11095119 0.12841444 0.08538543 0.33337626 -0.094047315 0.12704492
-0.5173563 -0.24866296 -0.017194593 0.38899785 0.22451578 -0.20967685 -0.017967459 0.045267403
0.20832016 0.16663261 -0.0028698174 -0.122899726 -0.10190618 0.15822382 0.17443179 0.25025722
0.01860206 -0.07604771 -0.03679068 -0.01623201 -0.04482745 -0.019482492 -0.061790213 -0.2866988
-0.13301468 0.2053599 0.062798806 -0.15023318 -8.2591054e-05 -0.29183158 0.4356712 -0.17884739
-0.079953656 -0.15598996 0.22178467 -0.16619095 0.19979082 -0.059402216 0.6086545 0.04009077
-0.3939872 -0.32297593 -0.10176165 -0.50289685 -0.046792142 0.08548515 -0.20436849 -0.27845985
-0.34465182 -0.19415462 0.015261715 -0.111990884 -0.07077669 -0.16343229 -0.35224387 -0.06920888
-0.13269055 -0.07206155 -0.06902862 -0.10033767 -0.23424377 -0.22821651 -0.11439741 -0.29458842
-0.04584735 -0.12514234 0.29738438 -0.09876418 -0.13946414 -0.03246424 -0.20909557 -0.10069441
0.035307925 -0.14312635 -0.29007074 -0.44321665 -0.028789125 0.09922423 -0.19348711 -0.05976359
-0.0688097 -0.17169745 -0.047914565 -0.16231711 -0.4137359 -0.119836695 -0.15876666 -0.2330443
-0.20500895 -0.22801638 -0.42234963 -0.007096857 0.32278177 -0.117806695 0.002053349 -0.24558659
-0.041111115 -0.08314794 -0.20872873 0.08562927 -0.20841634 0.1341702 -0.19317484 -0.21049702
-0.0033996666 -0.04814474 -0.022553721 0.049669478 -0.041707773 -0.001500421 -0.10388608 0.011549127
0.11996993 -0.013387692 0.005820879 0.01063977 0.04669303 -0.020208634 0.10341103 0.051143307
-0.030633425 0.012853023 -0.047788966 -0.018137844 -0.0275907 0.05388334 0.09816337 -0.0074408273
0.049599648 -0.10490971 0.030417666 0.1745008 0.11257511 0.033224106 0.04945673 -0.10034285
0.13678172 -0.005728663 -0.016577847 0.025586829 0.015666243 -0.08738011 -0.11217769 0.04563789
-0.004924028 0.06830961 0.054446016 -0.01472934 -0.028733563 -0.04972139 0.010479625 0.04006721
0.034466714 0.079027735 0.03696483 -0.0025444964 -0.028876727 -0.009627505 -0.0004419821 0.044761196
0.012473331 -0.040601045 -0.118929535 -0.00052012235 0.049121503 -0.0430835 0.022793185 0.13350564
0.09729067 0.03161845 0.1026312 0.2810404 0.102015086 -0.16513592 0.99280757 2.0753341e-05
0.14363122 -0.5050956 -0.114650905 0.12593155 -0.18198165 0.02320875 0.24285568 -0.04212661
0.15717898 0.22875105 -0.08756053 0.1914155 0.1469341 0.22684446 0.091176614 0.22099836
-0.5996247 -0.22492939 -0.15628316 0.2795005 0.21671784 -0.08534631 -0.14340594 0.029409561
0.2484192 0.031970236 -0.013843038 -0.017592872 -0.1471132 0.007222821 0.13108665 0.15291192
-0.0031667685 -0.1562007 -0.034647103 0.10754542 0.11176715 0.13736899 -0.06412954 -0.13537635
0.04191283 0.13152374 -0.03143901 -0.21857932 -0.036500406 -0.35468793 0.52907157 -0.10023034
0.025127966 0.035888653 0.2609393 0.031898502 0.23140296 -0.1557096 0.6197577 -0.0066548865

encoder.lstm.bias_hh_l0 f4 [256]
00000000: c623 61bd 9e05 53bd 6763 1b3e 6641 403e
00000010: c27a a43c 0f63 66bd 25eb 753f afd5 b8bd
00000020: b931 373e a132 b0be 62c2 19be 513a 583e
00000030: 303f 47be 6d57 233e b1ea a03d ff16 cbbd
00000040: 9a5b f43d c95a 023e 144c 21be 3826 473e
00000050: 1900 70bd 5a43 973e bf37 c93d aaf4 8b3d
00000060: 77c0 16bf 50dd 51be 5d12 eabb 90b5 e73e
00000070: ee30 a13d eb97 01be a81d 66bd e636 c13d
00000080: b685 863e 5b12 543e 5fef 1a3d 2cd4 40be
00000090: 086b 3abd 94b8 f83d 01fb 323e 25c3 893e
000000a0: 9970 a1bc 2a08 a2bc b8b5 8cbd 6655 a5bb
000000b0: fae9 153e 2ff5 3c3e cf9d 3fbe 7e16 3ebe
000000c0: e974 843d d328 2f3e d2af 83bd c2ba bbbd
000000d0: 1532 d4bc bfd4 e3be d676 0e3f 92a0 82be
000000e0: efa3 0abe 1139 b5bd 1f82 883e d8f8 5b3c
000000f0: b5e6 5c3e 2531 2b3d 0e05 3b3f de65 f0bc
00000100: bde0 c3be 557f 52be 2059 41be a528 0fbf
00000110: 53de 4ebe 32b2 d73d 14ad 96be 1515 57be
00000120: 9cbd 77be 7e7b 0ebe 610e dfbd 38dd 25be
00000130: ef72 acbd e2bf 06bd e20e 7abe 1825 2abd
00000140: 529e 16bd c892 12be 1d8e 113e 3af5 00be
00000150: 2a51 2ebe 3a48 3abe 4e8d 8dbe 1ae1 9cbe
00000160: 2aee 74bc b7fb 8ebd b3eb 9e3e cecc 2ebe
00000170: 6908 9abe 8b4c 753d 6027 21be 88de 3dbe
00000180: 8690 1abd 93e2 8ebd 1847 5fbe ff9d e9be
00000190: c5e3 afbd 50ba ac3d 3846 86be eef1 12be
000001a0: 1d62 66be 7e8d b6bd 1611 48bd 72a6 10be
000001b0: f1ad f5be 51c7 55be 6e2d 433d f8a8 a3be
000001c0: c8cb 47be 037d dabd e07a efbe 84a0 42bd
000001d0: 12ab 8b3e 489c 69be 1c28 dd3d d45b 4abe
000001e0: e1b3 86bd 1770 bb3d 5374 69bd 456e 6f3e
000001f0: 30b6 a6be 94cf ef3d b200 62be 5b99 ccbd
00000200: e3a1 2e3d 9460 cfbc 57ad 24bd e54e 173c
00000210: 6fd7 083e 1649 163d 8e44 97bd 482e 82bd
00000220: 7fcc aeba 1ef0 793c 3ffd aa3c cb7e 1dbd
00000230: 2381 abbd 5f96 53bd 293c a2bb 17f9 87bd
00000240: 2f1d ea3d 2636 b33d 69a5 18bb bce1 5b3d
00000250: 6adf f0bc 6c56 1bbe 4c9d 4bbd 07a5 e7bd
00000260: 0a37 46bd f3f8 9e3d a3fb f8bb 67ab 4cbc
00000270: eb58 33ba caab 03bc f145 2dbc 1186 b3bb
00000280: f5f2 82bc 16da 4b3d 3a6f b13d 2a8a 74bd
00000290: 3398 dd3c ac03 0d3e 9da4 4b3c 56e5 1cbe
000002a0: 0111 733d f572 c1bc 6424 63bd 721d 6dbd
000002b0: 02f0 82bc c208 43bc b152 30bb 96df eb3c
000002c0: 1bd4 8dbd 366c 793d 2e86 e5bd 37fa b8bc
000002d0: 59fb 0e3d 2b03 c53c ed32 4b3d eb38 c4bd
000002e0: 3a48 85bd 7e85 01bd 5185 923c 397f 5c3d
000002f0: ced5 3c3d 9430 b5bb eb6e 32be e23a 80bd
00000300: 0ead 95bc 9aab b13d b451 c53c 0067 3a3e
00000310: 968b 1d3e bc22 d0bd afbd 723f 8364 8e3c
00000320: 4f0a 543e 1b5e 13bf ef25 4e3c 619d 1b3e
00000330: b3e1 00be 7de1 213e 18c7 643d ed23 74be
00000340: 6245 e83d a67e 373e e48f 80bb b4fb 343e
00000350: fc7a 153e c099 c83e b781 9cbd 2b6e 463e
00000360: e1a9 02bf 7b40 75bd fc2a 0cbe ccce 9a3e
00000370: 28d2 233e e80e 47be 3cd6 dabd 87f0 ec3d
00000380: 72fc 533e d8cc 4f3d d5c7 e13b 7df4 2fbe
00000390: 6c47 61be 9660 173e c250 0abd 774e 6a3e
000003a0: 09a0 763c 9055 c2bd e684 6fbb e5f1 053e
000003b0: c3f7 b8bc 54a8 e73d a806 f7bd 4225 8ebd
000003c0: 2d53 00be fad4 303e f0d6 50bd 4974 44be
000003d0: 3496 c7bd 7613 6bbe da14 c23e 31d6 93be
000003e0: e23d 633c d65b dabc 07f4 833e 8a4f 40be
000003f0: 36e5 2b3e 3224 89bd 465b 103f 10a6 ba3c
-0.054965757 -0.05151903 0.15174638 0.18774948 0.020078067 -0.056246813 0.9606193 -0.09025132
0.17890061 -0.34413627 -0.15015557 0.21115996 -0.19457698 0.15951319 0.07857264 -0.099164955
0.11931534 0.12729944 -0.15751678 0.19448173 -0.058593843 0.29543573 0.09825086 0.06833775
-0.5888743 -0.2049458 -0.0071433024 0.4525571 0.07870661 -0.12655608 -0.056180626 0.09434299
0.26273888 0.20710127 0.03782594 -0.18830937 -0.04551223 0.121445805 0.17478563 0.26906696
-0.019707011 -0.019779284 -0.068705976 -0.0050455807 0.14640036 0.18452905 -0.18712543 -0.18563268
0.06467611 0.17105417 -0.064300194 -0.091664806 -0.025902787 -0.4449825 0.5565008 -0.2551313
-0.13539098 -0.08848775 0.26661775 0.013426028 0.21572383 0.041794915 0.7305459 -0.029345449
-0.382574 -0.20556386 -0.18881655 -0.55921394 -0.20201997 0.10532035 -0.29428923 -0.21004136
-0.24193424 -0.13914296 -0.108914144 -0.1619767 -0.08420359 -0.032897837 -0.2441974 -0.04153928
-0.03677208 -0.14313805 0.14214368 -0.12593547 -0.17023149 -0.18191615 -0.2764687 -0.3064049
-0.014949361 -0.069816045 0.310392 -0.17070314 -0.3008454 0.05988745 -0.15737677 -0.1854192
-0.037735485 -0.06976809 -0.21804464 -0.45628354 -0.085883655 0.08433974 -0.26225448 -0.14350101
-0.22498365 -0.08913706 -0.04884442 -0.14125994 -0.4798427 -0.20876814 0.047650747 -0.3196485
-0.1951133 -0.10668375 -0.46773434 -0.04751636 0.27278954 -0.22813523 0.10798666 -0.19761592
-0.06577278 0.09152239 -0.0569957 0.23381908 -0.32560873 0.11709514 -0.22070578 -0.09990188
0.042634856 -0.025314607 -0.040204372 0.0092351185 0.13363431 0.036690794 -0.07386123 -0.06356484
-0.0013336091 0.015255002 0.02087271 -0.038450997 -0.0837424 -0.051657077 -0.0049510193 -0.06639307
0.114313476 0.08750562 -0.0023291952 0.053682074 -0.029403407 -0.15169686 -0.049710557 -0.11310773
-0.048392333 0.07762327 -0.007598357 -0.012492037 -0.0006841558 -0.008036563 -0.010575757 -0.0054786284
-0.015984992 0.04976853 0.08663793 -0.059702076 0.027050113 0.13770932 0.012429384 -0.1532186
0.059342388 -0.023614386 -0.055454627 -0.05788941 -0.015983585 -0.0119039435 -0.0026904757 0.028793138
-0.069252215 0.060894214 -0.11207233 -0.02258025 0.034907673 0.024049362 0.049609113 -0.09581169
-0.06507917 -0.03162145 0.017885836 0.053832266 0.046102338 -0.0055294726 -0.17425124 -0.06261231
-0.018270995 0.086753085 0.02408681 0.18203354 0.15385279 -0.10162875 0.94820684 0.017381912
0.20707057 -0.5756547 0.012582286 0.15196754 -0.12586097 0.15808673 0.055853933 -0.2384183
0.11341359 0.17919406 -0.003923403 0.17674142 0.14597696 0.39179802 -0.07641929 0.19377963
-0.51040465 -0.059875946 -0.13688272 0.30235898 0.15998137 -0.1943928 -0.10685393 0.115693145
0.20701769 0.050732464 0.006890277 -0.17183109 -0.21999902 0.14782938 -0.033768423 0.22881494
0.015052804 -0.09488976 -0.003654772 0.13080557 -0.02257908 0.11311403 -0.120618165 -0.069407
-0.12531729 0.17268744 -0.05098623 -0.19184984 -0.09745446 -0.22956643 0.37906533 -0.28874353
0.0138697345 -0.026655119 0.25772116 -0.18780342 0.16786656 -0.06696357 0.5638927 0.022784263

encoder.U_e.weight f4 [3, 3]
00000000: ea91 cb3d acbd d83d 0d98 10bf d9c9 0ebf
00000010: 5f44 ecbd bba5 043f 72fb 8c3d bd4f f63e
00000020: cfa8 133f
0.0993994 0.10583052 -0.5648201 -0.55776745 -0.11536478 0.51815385 0.06883897 0.4810771
0.57679456

encoder.U_e.bias f4 [3]
00000000: 4570 85bd 6781 79be f94e 89bd
-0.06515554 -0.2436577 -0.06704516

encoder.W_e.weight f4 [3, 128]
00000000: 22c1 1a3e 3ba7 4f3e d5d5 553e 1eb6 0f3e
00000010: cafe a5be 2444 a3be cb29 093d bc12 72be
00000020: 9553 29be 489b 623e 7a0b 92bd b655 57be
00000030: c043 5d3e f5dc 933e f42b febc 1634 3a3e
00000040: 8746 2bbe e49e 80be d879 2cbe 463e 22bc
00000050: 7e50 ba3e 4cbd 993e 469b 2c3e 3bd9 6b3e
00000060: 835e 54be 1b92 313e 492e 9a3e d4a8 66be
00000070: a146 4abe 9620 cbbe 51bc 8dbe d2f9 363e
00000080: f5be d0bd f2cf 3c3e 60ea a73d 6068 eabd
00000090: 92ad 223e 2195 3d3e 33b7 a93e ef5f 923d
000000a0: 9d07 f43d e64f 7cbe 5b06 703e 84e3 0e3e
000000b0: c300 2a3e 5940 3f3e c403 76be 9502 a9bd
000000c0: f3b3 b3bd 2c66 6dbe 814a 373d 0459 2b3e
000000d0: a616 2fbe 820e 87be 0eb3 4b3e 11ee 363e
000000e0: cb16 c13e 8884 23be 47b4 693e 1375 683e
000000f0: 7aef 0d3e d5e9 2cbe 1c67 b03d aa50 3bbe
00000100: 1de1 3e3e 0809 313e 4daf 583e de96 a53d
00000110: 635e 6fbe 688f bdbe 9745 073e e0e4 9bbd
00000120: 21c5 83be d2cc 8a3e a057 c7bd b1a4 cbbd
00000130: 031b 943e c60a 1a3e c2a4 4bbe 9298 813e
00000140: 40d5 55be a85d 19be 2dad 4bbe 860d 15be
00000150: 4d0b c93e 0669 923e 5340 bd3d 4520 583e
00000160: d04e 5abe 8b16 693e fad4 343e 0d2c 13be
00000170: ad9c 8dbe 8921 bcbe 64cf 98be 93cc 133e
00000180: bffa 47bd cdfb 683e d3e7 283e 0f1a b0bd
00000190: 115a 7e3e 6f10 4f3e 63af b63e 7fcb 973d
000001a0: dab3 b33d 0e58 7bbe c73d 9e3e 4e1b 543e
000001b0: fb4a 9d3d cfa3 6c3e b1e5 8ebe be39 0cbe
000001c0: ac0d 09be eb89 93be b165 663e ae44 723e
000001d0: 0e82 9cbe c32c 61be b475 d93d 7acd a93e
000001e0: a6f6 763e e606 49be 3148 473e 0c14 343e
000001f0: 4fc3 603e 95b3 0dbe 89c6 293e 4629 7abe
00000200: 4a94 a23d f062 8abb f6cf 893d 6607 113c
00000210: ea28 0b3c aab6 063d 7654 003e 3121 ddbc
00000220: f1c7 003e 20f9 1f3d 5df4 dbbd be9c 2bbb
00000230: 95fa 95bc 6bb5 9b3c 03ab 5fbd 9f32 143d
00000240: 8ad4 1f3e 4afc 9a3a bab0 03bd 7711 9fbd
00000250: aa7a 1ebe dc1e 52be 3cc8 3cbd 97dc 8bbd
00000260: aa6c da3d b3d1 643d 23ff 863d 54ef 953d
00000270: b562 65bb e08c 873d f6df a6bc 18eb b03c
00000280: a55d b3bd 7d63 623b ac88 41bd e71e a43d
00000290: 982a 813d f471 923c 9287 29bd 2f14 4c3c
000002a0: 7e4d ccbc 9df0 1a3e 59b4 16bd 60a6 5abd
000002b0: ab0c 7dbd bcbe 583d e335 b5bd df53 8dbd
000002c0: e42a 9e3c eb1c b73b 4864 21bd 4239 2dbc
000002d0: 0719 25bd bf82 37bd b9d2 bfbd e4f4 d5bd
000002e0: 5ace 89bd 764d 78bd 6850 473d 0789 82bd
000002f0: f02c 40bd dd08 ff3c 57ea 8b3d dd01 4cbd
00000300: ecb2 37bd c069 47bd 4c41 85bd acf7 e53d
00000310: 3d81 ce3d 02da f23c a1a1 b03d 3c11 05bd
00000320: f5d2 9c3d e48b 8bbd 3f7e 8fbc d2ed 2b3d
00000330: 29b6 ebbd 972a ce3d c104 80bc b3e1 0dbd
00000340: 45fe 813e d587 503d 6360 a7bc 485e 103d
00000350: 6e24 63be ee14 5fbe 8beb 963d 6a81 96bc
00000360: 5f2e 313c 41fd 35bc aa2f 5f3d 3f86 b0bc
00000370: 6733 38bc 835d 7d3d 72f8 efbb ae08 553d
00000380: 8005 7ebd 8354 efbd 53b0 cebc e1ea 4a3d
00000390: 96d4 833d f939 523d 5f99 c13c 3753 883c
000003a0: f744 c53d d1d6 3c3e 8e7d 473b c411 693d
000003b0: 0136 63bd 07d5 a0bd cb0d 863d 9bb2 18bc
000003c0: 31f6 c3bd ffec 7f3c 824c 61bd 2341 b8bd
000003d0: 1de4 99bd 724e 563c 7af6 19bc 0791 dabb
000003e0: aeb0 11be df01 c53c 00eb e4bc e5bd 92bc
000003f0: 28a7 febd 717b a1bd 589e 39bd 6689 003c
0.15112737 0.20278637 0.20882352 0.14034316 -0.3242095 -0.31887925 0.033487123 -0.23639959
-0.1653579 0.22129548 -0.07131095 -0.2102879 0.21607876 0.28879514 -0.031026818 0.18183932
-0.16726123 -0.25121224 -0.16843355 -0.009902542 0.36389536 0.30027235 0.16856107 0.23032086
-0.20739178 0.17340891 0.30113438 -0.2252534 -0.19753505 -0.396733 -0.27682737 0.17868736
-0.10192672 0.184387 0.08199 -0.11445689 0.15886524 0.1851392 0.33147582 0.07147204
0.119155146 -0.24639854 0.23439924 0.13953978 0.16601853 0.1867689 -0.24024874 -0.082524456
-0.08774557 -0.23183507 0.044748787 0.16733176 -0.17098483 -0.26378256 0.19892523 0.17864253
0.37712702 -0.15968525 0.22822677 0.2270091 0.13860884 -0.16886075 0.086134166 -0.1829249
0.18640561 0.17288601 0.21160622 0.08085416 -0.2337585 -0.37023473 0.1321014 -0.07612014
-0.25736335 0.2710939 -0.0973351 -0.09943522 0.28926858 0.15043172 -0.19887069 0.25311714
-0.2088213 -0.14977133 -0.1989028 -0.1455594 0.39266434 0.28595752 0.092407845 0.2110606
-0.21319127 0.22762506 0.17659369 -0.14372273 -0.27658597 -0.36744335 -0.29845726 0.14433508
-0.048823114 0.22752304 0.16494684 -0.0859872 0.24839045 0.20221113 0.35680684 0.07411861
0.08774538 -0.24545309 0.30906507 0.20713541 0.07680317 0.23109363 -0.27909616 -0.13693902
-0.13384122 -0.2881616 0.2249973 0.23659012 -0.30567974 -0.21989731 0.10618153 0.3316458
0.24117526 -0.19631538 0.19461133 0.17585772 0.21949504 -0.13838036 0.16579641 -0.24429807
0.0793844 -0.00422322 0.067291185 0.008851862 0.008493641 0.032889046 0.1253222 -0.026993366
0.12576272 0.039055943 -0.10739968 -0.0026185955 -0.018307963 0.019007405 -0.05460645 0.03618109
0.15608421 0.0011824456 -0.03215096 -0.07767003 -0.1547648 -0.20519584 -0.046089396 -0.068291835
0.10665257 0.055864047 0.06591632 0.07321039 -0.003500146 0.06618667 -0.020370465 0.021596476
-0.08758096 0.0034544163 -0.04724948 0.08013707 0.06306952 0.017876603 -0.041389056 0.012455984
-0.024939295 0.15130849 -0.036793087 -0.053381324 -0.06177966 0.052916273 -0.08848169 -0.06900763
0.019307561 0.005588164 -0.039402276 -0.010572733 -0.04030707 -0.044802424 -0.09366364 -0.104471
-0.067288116 -0.060620748 0.048660666 -0.06373792 -0.046917856 0.031132156 0.06831806 -0.049806464
-0.044848368 -0.048684835 -0.06506595 0.1122888 0.10083244 0.02964497 0.08624578 -0.03248714
0.07657424 -0.068137914 -0.017516254 0.04197485 -0.11509354 0.10066717 -0.015627267 -0.03463907
0.25389305 0.05091079 -0.020431703 0.035246164 -0.22181866 -0.21785328 0.07369145 -0.018372256
0.010814278 -0.011107744 0.054488815 -0.021548389 -0.011242724 0.061856758 -0.007323318 0.05201023
-0.062016964 -0.11686041 -0.025230562 0.049540404 0.06437032 0.05132482 0.023632703 0.016641242
0.096322946 0.18441321 0.0030439827 0.05690171 -0.055471424 -0.07853132 0.065455996 -0.009319927
-0.09568442 0.015620469 -0.055004604 -0.08996799 -0.07514212 0.013080226 -0.0093971435 -0.0066701206
-0.14227554 0.024048744 -0.027944088 -0.017912814 -0.12434226 -0.07884873 -0.045317024 0.007845258

encoder.W_e.bias f4 [3]
00000000: 6689 983e 47b0 cfbe d2a9 e2be
0.29792327 -0.40564176 -0.44270188

encoder.v_e.weight f4 [1, 3]
00000000: 9978 5e3e c6ed 133f c332 263d
0.21725692 0.5778469 0.040575754

decoder.W_d.weight f4 [64, 128]
00000000: f94b 303b 8785 213d 1f51 263d 8cd0 a1bc
00000010: 3ce9 593d f980 aabd 86eb e53c 5dc6 8c3d
00000020: 87dd 9abd 6240 c3bc 02a8 d2bc 26f4 143b
00000030: d9d0 773d ce9f 8c3d 2ba0 3cbd 585b a5bc
00000040: 97cd 6c3c 2dd0 b13c 8524 4bbb fcdd 57bd
00000050: 7f93 6cbd 1bbb afbb 2b5f 833c 37fd a1bd
00000060: 9f6d abbd be35 13bd 199c d63c ee83 053d
00000070: b977 74bc 0f61 70bd 8c5e 49bd 04fe 8d3c
00000080: 87e2 a1bd fd88 443d 4f6d 8abd 9543 c4bc
00000090: 6533 2b3d 40cd 2ebd 1331 a5bc 283a 463d
000000a0: de9c 283d c0be 9dbd afa3 9fbd 944a 3f3d
000000b0: e15d 3bba 8d97 2f3d cf10 5c3d 6458 903d
000000c0: ce74 933d 081d 10bc b37b bd3c 732d 013d
000000d0: e7aa 843d 303c 01bd 69f3 223d ddc3 9dbd
000000e0: 055b fc3c 1ff0 6d3d 97c5 d7bb 6e7a 153d
000000f0: dde5 01bc 9a38 9ebc 07eb 133c e57b 16bd
00000100: 11e1 e2bc 711a b23d 3ab8 34bb 9f91 f43b
00000110: 36b8 373d 4784 ab3d c28b babc 64e7 e53c
00000120: 13fa adbd 494b 20bd d2dc 1b3d 3815 913d
00000130: 967f abbd 8459 373d 51c6 4b3c 7597 0ebd
00000140: 2ad6 e33c 7cc4 983d 7c10 133d 98d6 a03d
00000150: 68cc 6abd 8d6a d7bc 3241 8dbc 6c09 893b
00000160: 8e30 b83c 5597 723c 4807 8fbd d451 a63d
00000170: 52ad 873d fe0b 89bd 78f0 c0bc 58d4 a4bd
00000180: 5afb 03bd 4961 5c3d a6f8 653b 3603 293d
00000190: bda2 a53c a91a 923d d65d 9e3c f3c2 483d
000001a0: 081a 353d c96b 71bc c10c 1fbd ed57 ac3b
000001b0: e7e2 afbc e1ee 5bbd a02f dabc 3e04 8e3d
000001c0: e93f 1bbc 64bb aabd 56f6 fdbc 1a66 d83b
000001d0: 0d8a b33c 1d05 adbd 9270 82bd b6a9 8e3a
000001e0: b697 8cbd 49e2 333d ec4c ab3d b903 99bd
000001f0: 1b97 a3ba a3a1 533c e914 293d 6aeb a9bd
00000200: bf59 a03d de5a 453c 2475 343c 768a 78bd
00000210: 7f54 89bd c24f 72bd 8743 d73c cc61 603d
00000220: f4a3 60bd cbbb b7bc de00 34bd e0c7 27bc
00000230: e198 a6bb 46b9 70bd 9099 46bd 322d 1a3d
00000240: 8342 8bbc 02ca 83bd 019d c53c 1ff2 2c3d
00000250: 84d8 ea3b c589 a03d 774c 723c e474 973d
00000260: 4939 c03c 5f78 9d3d 6ca1 13bd 659f 27bd
00000270: cc0a 263c ae12 9cbd f07c 91bd 81d1 93bc
00000280: 410b 3ebd f141 863d a1a0 51bc 2802 5f3d
00000290: f3a5 f43b 5548 6ebc a45c a2bd 3d17 883c
000002a0: 2c29 493b 957a 5f3d e019 f83c 1512 a9bd
000002b0: 27f8 003d 95c2 12bd 9565 bdbc c821 213a
000002c0: ab13 9bbd 98a4 9dbc 4a76 96bd a69e 4e3d
000002d0: c4c6 933d 915c 263d 5b2d 15bd c0e0 b3bd
000002e0: 32d7 26bb 105a c73c 04f1 433d d61e 743d
000002f0: 1587 56bc a4b0 40bd 80fd a8bd 3d95 5abd
00000300: 5588 a1bc bd50 403d 9131 6bbd 1d5c a6bc
00000310: 4e08 2bbd 561f 93ba f2b2 e73a e429 80bd
00000320: f3f0 eb3c 8f4e 883d 0ce5 b4bd 1102 b73c
00000330: 56ad bcbc 9dd7 a63c 8028 a33d d7e6 11bc
00000340: 1a16 863d 9535 7dbd e94f 013b d966 313d
00000350: 44b3 563d d368 92bd cba7 b0bd 9b93 983c
00000360: bbd8 30bd 4fda a83d 20a7 f3bc c1ce e93c
00000370: bfe3 a63d 2a15 643b f61d 793a e242 e8bc
00000380: c26f 913c 6678 04bd 6f39 b2bd e74a 73bd
00000390: cbe8 0f3c 6571 00bc 8c74 a5bd 150b c83c
000003a0: 34ce 6f3d aa53 773c daeb 0dbc 2a65 c93c
000003b0: c0ea 2cbd 7503 ff3c 197f c73c 2b25 703d
000003c0: 0a68 89bd 0a40 023d 8ea1 823a 157b f4bc
000003d0: 2c0d 28bc 1aa5 bfbb c546 ed3b e1f9 623c
000003e0: bda2 4bbd 789f 863d 7ced 4dbd f5b9 2f3c
000003f0: 560c 0e3d 7e1f 17bc 3e22 b2bd c033 a43c
0.0026900752 0.039433982 0.040604707 -0.019752763 0.053200945 -0.08325381 0.028066408 0.06873772
-0.07561784 -0.023834411 -0.025714878 0.0022728532 0.060501907 0.06866418 -0.046051186 -0.020185158
0.014453313 0.021705711 -0.003099711 -0.052701935 -0.05775785 -0.005362881 0.01603659 -0.07909625
-0.08370518 -0.035939924 0.02619748 0.03259652 -0.014921122 -0.058686312 -0.049162433 0.017333038
-0.07904535 0.047982205 -0.0675913 -0.023958007 0.04179706 -0.04267621 -0.020165002 0.048395306
0.041165225 -0.07702398 -0.07794892 0.046701983 -0.0007147473 0.04286914 0.053726967 0.07048109
0.07200013 -0.008795984 0.023130273 0.031537484 0.064779095 -0.03155154 0.039782915 -0.077033736
0.03080512 0.058090325 -0.006584834 0.03649371 -0.007928339 -0.0193141 0.009028203 -0.03673925
-0.02769521 0.086964495 -0.0027575628 0.0074636484 0.04485341 0.08374839 -0.02277172 0.028064437
-0.084949635 -0.039134298 0.038052388 0.07084125 -0.083739445 0.044763103 0.012437419 -0.03481241
0.027812082 0.074593514 0.035904393 0.078534305 -0.057323843 -0.026295925 -0.017243002 0.0041820314
0.02248409 0.014806588 -0.06983811 0.08121076 0.06624855 -0.066917405 -0.023552164 -0.08048314
-0.03222213 0.053803716 0.0035090833 0.041262828 0.020219201 0.07133991 0.019331854 0.049014043
0.04421428 -0.014735171 -0.038830522 0.005259505 -0.0214705 -0.05369461 -0.026634037 0.06934403
-0.009475687 -0.08336523 -0.031001251 0.0066039683 0.021916414 -0.08448241 -0.06369127 0.0010884318
-0.06864874 0.043916974 0.08364281 -0.07471413 -0.0012480946 0.012916955 0.041279707 -0.08296855
0.07829618 0.01204559 0.011014257 -0.06067892 -0.067055695 -0.059158094 0.026277317 0.054780766
-0.054843858 -0.022428414 -0.04394614 -0.010240525 -0.0050841426 -0.05877044 -0.048486292 0.037640758
-0.016999489 -0.06435014 0.024122717 0.042223092 0.007166924 0.078387775 0.014788738 0.07395342
0.023464816 0.076889746 -0.036042616 -0.040923495 0.01013441 -0.0762075 -0.07103908 -0.018044235
-0.04639745 0.06555546 -0.012794645 0.054445416 0.0074660718 -0.0145436125 -0.07927826 0.016612643
0.0030694706 0.054560263 0.030285776 -0.08255402 0.031486657 -0.0358301 -0.023119727 0.00061466964
-0.07572111 -0.019243523 -0.073467806 0.050444268 0.07215646 0.040615622 -0.036420207 -0.08783102
-0.0025457856 0.024334937 0.047837272 0.05959972 -0.0130937295 -0.047043458 -0.08251476 -0.05336498
-0.019718328 0.046951998 -0.057420317 -0.020307595 -0.041755967 -0.0011224549 0.0017677231 -0.0625799
0.028801417 0.06655609 -0.0883275 0.022339853 -0.023031872 0.020366484 0.07966709 -0.008905134
0.06547184 -0.061818678 0.0019731468 0.043310974 0.052417055 -0.071489 -0.08625754 0.018625071
-0.04317544 0.08244764 -0.029742777 0.02854097 0.08148908 0.0034802654 0.0009503061 -0.028352205
0.017753486 -0.032341383 -0.08702361 -0.059397604 0.0087835295 -0.007839535 -0.0807887 0.024419347
0.05854626 0.015095631 -0.008662188 0.024584372 -0.042216063 0.031129578 0.024352597 0.058629196
-0.06709297 0.031799354 0.000996636 -0.029843846 -0.010257047 -0.005848539 0.0072411024 0.013853521
-0.049715746 0.06573385 -0.05027531 0.010725488 0.034679733 -0.009223817 -0.086979374 0.020044208

decoder.W_d.bias f4 [64]
00000000: af3e bcbc 20bf 90bd a313 443d 3db1 c7bd
00000010: 3135 82bd ffa3 36bd 1165 d33d 2a8d 953b
00000020: 9316 44bd 2db7 313d 53a9 b43d d3ef 3c3d
00000030: 8cd5 c9bc da41 cf3d 6764 62bd a100 b83c
00000040: c5e0 903c 9796 eb3c 8db4 99bc 54e9 8b3d
00000050: 22eb afbd 17cc d0bc c036 e6bc b530 b73d
00000060: c5b8 3d3d 20b0 e8bd 0c32 883d eebf abbc
00000070: 4dc7 e2bc bdfb edbd 6c9a 83bd ca75 6d3d
00000080: 241d 603d e272 083e ba31 9a3d cc38 0fbc
00000090: d4e8 873d bb2c 47bd 7e52 21ba df11 fbb7
000000a0: 0a68 cbbd b577 f63c dd0e db3d 9ebc b03b
000000b0: e6a7 3abd 2912 90bc 5421 abbb 831e f7bd
000000c0: a0e0 ad3d 54ba b33c 6cb1 dd3d a327 58bd
000000d0: 0f81 6cbd 392d 05bd b138 893d a4a2 0b3d
000000e0: 718e f13b a72b a43d d98a 36bd cfb0 823c
000000f0: 6802 99bd dd92 50bc 0c94 bcbd 354f c43b
-0.022979109 -0.07067704 0.04787029 -0.097506024 -0.06357802 -0.044589993 0.10322011 0.004563947
-0.04787309 0.04338758 0.088213585 0.04612715 -0.02463796 0.10119982 -0.055271532 0.022461237
0.017685303 0.02875833 -0.018762851 0.06831613 -0.0858977 -0.025487943 -0.028102279 0.08944837
0.046318788 -0.11361718 0.06650171 -0.020965543 -0.027682925 -0.11620281 -0.06425938 0.05797366
0.05471529 0.13325074 0.07529016 -0.008741569 0.06636205 -0.048626643 -0.0006153955 -2.9929854e-05
-0.09931953 0.030086378 0.10696194 0.0053935787 -0.045570277 -0.017586784 -0.005222479 -0.120663665
0.084901094 0.021939434 0.10824856 -0.052772176 -0.057740267 -0.03251383 0.06700266 0.034090653
0.0073717167 0.080161385 -0.04456601 0.01595345 -0.07471162 -0.012730327 -0.09207925 0.0059908875

decoder.U_d.weight f4 [64, 64]
00000000: a8e2 db3d 2007 833e 380f 6a3e 9d18 273e
00000010: e4f6 06bf 383c 0bbe 7632 19bd 1437 753e
00000020: e210 10be 196d 8c3e add2 943c 49b9 26bf
00000030: 2d45 293d 9611 0cbd 331c 5ebe 2cc6 023f
00000040: 37ab d2be f139 813e de83 483f 741b 6f3f
00000050: 5ab3 983e 9fa3 99be 6199 c03e 85c4 ed3d
00000060: a3ce 23be 8f25 02bf 30d7 8cbf 46f6 8a3d
00000070: ded2 91be c22a 5e3f 9247 b8be d4bc b53e
00000080: 4778 213f af56 bd3e 0ff1 6d3c 3214 ee3d
00000090: b741 59be 60c1 88bf 4d08 b23e ada6 95be
000000a0: 686a 343e e8e6 953e e6bd cf3e 676d 8c3e
000000b0: 31d4 5a3e 9c40 fd3e aa78 303f 3569 883e
000000c0: 61e4 34bb 6e26 643e 19ab 1fbe 2386 bf3c
000000d0: ce0c 973f 4e27 d93e 653a 753f 6388 373e
000000e0: 7bd3 7f3e 7747 843f 0780 90be b078 9cbf
000000f0: 411a 073f 9ed9 743f 3574 2bbe 77a7 2f3d
00000100: e0aa 043d 81a6 3d3d c079 40be a838 1dbb
00000110: 59a5 633e 41d4 3a3e 379a 2f3e 72c1 cfbd
00000120: a999 313e ed7d 95bd 31fc f0ba 8da6 f83e
00000130: 697a bbbd 8881 e23d 4f67 87bc 05fc 8ebe
00000140: 0044 753e e18e 01be 4ce2 a3be 70a4 37bf
00000150: 06a1 20be 47be 773e b93c c5bd 80b9 e33d
00000160: 76e6 9f3e 7f79 ad3e 478b 583f a2c7 09be
00000170: bfce 8f3d 4349 23bf 69bc 253e 51f6 d3bd
00000180: 1d6b ecbe 1a04 56be 4a43 be3c fedc 0ebc
00000190: 10a0 eb3d 8bdd 443f 6310 56bb c0dc 343e
000001a0: caaa b1bd 6891 79be 403d cebe d170 69be
000001b0: c34e 53bd 7ddd 45be 9d43 cfbe c581 41be
000001c0: a7a6 8c3d b5dc 9cbe 2353 973c 1ec4 3fbe
000001d0: 994a 6ebf ef58 e0bd 599e 4abf d272 513d
000001e0: d310 febd d98c 29bf ac9b 223e 5703 7f3f
000001f0: f014 7ebe 767a 38bf f2c5 ab3e 7001 1dbe
00000200: 587c ea3c 6cd2 6f3e 5d16 023e adb6 673e
00000210: e449 10bf 72c9 9dbe 4160 46be 7b88 973e
00000220: 6891 cbbd 199b 013e 8fe9 3ebd d6a8 2cbf
00000230: 178e 8a3d e30e 06bd 84f1 7abe fa69 ad3e
00000240: 1717 d4be e148 413e bd66 393f 2889 783f
00000250: 277c c03e 3e54 61be 7600 8c3e 1ba5 053c
00000260: cc94 5ebe 3e13 16bf 8d36 9abf a632 aabc
00000270: a871 26be ec1c 603f 3843 80be 79b6 8a3e
00000280: 9795 2e3f 675b fa3e 0b12 103e 00e0 f13d
00000290: 50b1 4abe 1283 8dbf 47a4 573e 0458 cbbe
000002a0: 1c2f 3d3e be40 863e 3277 203f eb63 313e
000002b0: edb4 793d 0cc6 eb3e b929 443f d1ab 163e
000002c0: 6861 aabd ae46 d53e 9be4 08be 0d88 663e
000002d0: 058d 933f 76fd ee3e e8b6 763f 5831 813e
000002e0: 6c8b c03e 43d7 6c3f a27a b3be 8e98 b6bf
000002f0: accf 143f 5a1f 733f df30 c7be da72 233e
00000300: 37fe 393c 8ec1 8abe 527f f5bd 4212 c1be
00000310: 5726 093f 9c7f 213e 61d4 db3d 6c5d dcbe
00000320: d956 cf3d 4c43 abbe 2e03 553d 9285 1e3f
00000330: ab70 a73c db8a 3b3e f810 7e3d 46fe a3be
00000340: 6f83 d03e c356 a8be 3196 1ebf 703b 5fbf
00000350: 8ebf 94be 2e45 d73e 9cac 5bbe f907 56be
00000360: d6fe 4b3e 4f66 263f 873a 953f fe67 3c3e
00000370: cf41 793e 09dd 69bf 1338 cf3e dd80 d0be
00000380: 7170 55bf 4e97 e8be ce44 973b 52ef c1bd
00000390: 5b35 c03c 2f00 923f 41da 5ebe d1da f43e
000003a0: 4f4b 46be 3ab4 d6be 52f8 dabe cbe5 c9be
000003b0: 582d 15be 2b44 ffbe 366b 22bf 68b6 8ebe
000003c0: 6cb7 c43d e982 7abe 4754 0bbd ab8a 59be
000003d0: aa2e 9abf 05fe cdbe 97a8 95bf 78c1 75be
000003e0: fe69 b1be 0863 7ebf 746f bd3e 698f ab3f
000003f0: 8268 1abf 5052 8bbf 98f4 ad3e 2129 483d
0.107365906 0.25591373 0.22857368 0.16317983 -0.52720475 -0.1359719 -0.03740164 0.23946792
-0.1406894 0.27426985 0.018166864 -0.6512647 0.041325737 -0.03419646 -0.21690445 0.51083636
-0.41146252 0.25239518 0.78326213 0.93401265 0.29824334 -0.30007645 0.3761702 0.11609749
-0.15996794 -0.5083856 -1.100317 0.06785254 -0.2848119 0.86783993 -0.35992104 0.35495627
0.63074154 0.36980197 0.014522805 0.11624946 -0.21216474 -1.0684013 0.34771958 -0.29228726
0.17618716 0.2927773 0.4057457 0.27427217 0.21370007 0.49463356 0.6893412 0.26642767
-0.0027601945 0.22280285 -0.15592612 0.023379391 1.1800783 0.424128 0.9579223 0.17923121
0.24983017 1.0334309 -0.28222677 -1.2224331 0.52774435 0.9564456 -0.16743548 0.042884316
0.03238952 0.04630137 -0.18796444 -0.0023990069 0.22231044 0.18245031 0.17148672 -0.10144319
0.17343773 -0.07299409 -0.0018385706 0.48564568 -0.09154207 0.110598624 -0.016528754 -0.2792665
0.23951721 -0.1265216 -0.32008588 -0.71735287 -0.15686426 0.24193679 -0.096307226 0.11119366
0.31230515 0.33881757 0.8458752 -0.1345506 0.070218556 -0.63783664 0.16185154 -0.103497155
-0.4617547 -0.20900002 0.023225445 -0.008719681 0.11505139 0.7690055 -0.0032663576 0.17662334
-0.086751536 -0.24371874 -0.40281105 -0.22796942 -0.051588785 -0.19322772 -0.40481272 -0.1889716
0.06867724 -0.30637136 0.01847226 -0.18727157 -0.93082577 -0.10954463 -0.7914787 0.05113489
-0.12405553 -0.6623054 0.15879697 0.9961447 -0.24812675 -0.7206186 0.33549458 -0.1533258
0.028623745 0.23420113 0.12703843 0.22628279 -0.5636275 -0.30817753 -0.19372655 0.29596314
-0.099398434 0.12656821 -0.046609458 -0.67445123 0.06765383 -0.03272904 -0.24506193 0.33869916
-0.41423866 0.18875457 0.7242239 0.97084284 0.3759472 -0.22004792 0.27344102 0.00815704
-0.21736449 -0.5862311 -1.2047898 -0.020776104 -0.16254294 0.8754413 -0.25051284 0.2709234
0.68197006 0.4889786 0.14069383 0.11810303 -0.19794202 -1.1055624 0.2105876 -0.39715588
0.18475002 0.2622127 0.6268188 0.17323272 0.06096356 0.46049535 0.76626164 0.1471398
-0.0831936 0.41655487 -0.13368456 0.22512837 1.1527411 0.4667775 0.9637284 0.2523296
0.3760637 0.92515963 -0.350545 -1.4265306 0.5812938 0.94969714 -0.38904473 0.15961781
0.011352113 -0.27100796 -0.11987175 -0.37709242 0.53574127 0.15771335 0.107338674 -0.43040025
0.10123987 -0.3344978 0.052004986 0.6192256 0.020439466 0.18314688 0.0620279 -0.32029933
0.40725276 -0.32878694 -0.61947924 -0.8720007 -0.29052395 0.42044967 -0.21452564 -0.20901479
0.19921431 0.6499986 1.1658486 0.18399045 0.2434151 -0.913529 0.4047247 -0.40723315
-0.83374697 -0.45427936 0.0046163565 -0.09469475 0.023462942 1.1406306 -0.21762945 0.47823194
-0.19364665 -0.41934377 -0.42767578 -0.3943313 -0.14568079 -0.49856696 -0.6344484 -0.2787354
0.096052974 -0.24464001 -0.03401592 -0.21244304 -1.2045491 -0.40232864 -1.1692075 -0.23999584
-0.34651178 -0.9936986 0.36999094 1.340314 -0.60315716 -1.0884495 0.33975673 0.04886735

decoder.U_d.bias f4 [64]
00000000: cf14 e53d bdf5 803a d768 4b3d 8493 983a
00000010: 77f6 9bbc 60cb 24bd 3a1d a9bc 5242 bfbd
00000020: c776 063e 4d2a 653d d93a 183c 61c5 3f3d
00000030: e2b4 84bd 2894 c2ba 0f55 2abd 4622 953d
00000040: 9f77 8cbd 8b7a 6d3d e8f0 87bd 0d76 ab3c
00000050: c55d f6bb fe12 94bd 34d5 d23d 8fe5 6fbb
00000060: 5f7a 1e3d 9163 c33c 1f39 c83c 7490 55bd
00000070: 3840 8cbd d80a 9f3c 7ce0 debc d09d fc3c
00000080: eee9 6d3d e4a3 d6bc 7560 a63c 6717 b5bd
00000090: be5d 253d ff5b a7bc 8357 c83d 2bcc c33d
000000a0: 834f f83b 47d4 783d 31bb 38bc 2e64 da3d
000000b0: dcf7 40bd f4fc 8dbd 52f9 b93d e777 ed3c
000000c0: d03d 9c3a bf73 eebd 6101 8abc 1bb7 2abd
000000d0: a84c 1fbd 3a64 87bd 19d3 093d bc8e 08be
000000e0: fc91 f9bd 5658 ac3c 5d41 76bd 7f0d a83d
000000f0: 9d17 e9bc ac30 90bd 225c d63b ce53 ae3d
0.111856095 0.0009838861 0.04966053 0.0011640643 -0.019038422 -0.040233016 -0.02064382 -0.093388215
0.13131247 0.055948544 0.009291374 0.046819095 -0.06479813 -0.0014845179 -0.041585024 0.07281928
-0.068587534 0.057978194 -0.06637746 0.020930314 -0.0075185024 -0.07230185 0.102945715 -0.0036605333
0.03869092 0.023851188 0.0244413 -0.052139714 -0.06848186 0.01941435 -0.027206652 0.03083697
0.05808442 -0.026201196 0.020309666 -0.08842354 0.040372603 -0.02042961 0.097823165 0.09560426
0.007577838 0.06074932 -0.011275099 0.10663639 -0.047111377 -0.069330126 0.09080757 0.028987838
0.0011920277 -0.116431706 -0.01684636 -0.04167853 -0.038891464 -0.066109136 0.033648584 -0.13335699
-0.121860474 0.021038216 -0.06012093 0.08205699 -0.028453643 -0.070405334 0.006541745 0.08512078

decoder.v_d.weight f4 [1, 64]
00000000: 037c b2bf 542b a13f 99f9 babf a5c0 b73f
00000010: 1121 aa3f 1893 aa3f 212b adbf 5bcb b93f
00000020: ffeb b3bf d8ac c6bf 258e b5bf 099c b0bf
00000030: 8ced b13f ae81 c6bf 1639 c43f 3013 c7bf
00000040: ec34 8f3f 2839 a8bf 635f a53f 4763 b2bf
00000050: 147b b23f e5e9 bd3f 8a12 a8bf 1e80 b1bf
00000060: 85b0 aabf 824b b63f 20a2 b9bf 26e9 a13f
00000070: e7ff b93f 4af3 b33f 2ab1 b23f 7d5e b4bf
00000080: b91e ddbf c97d d6bf 9140 b4bf 169c bf3f
00000090: ed45 d5bf fa4a 9c3f 53fa b7bf e2bf bfbf
000000a0: be4c c13f 0d24 b1bf 1bf3 b8bf bf86 d5bf
000000b0: 6426 b83f bd59 b43f fa7e b2bf 2c10 bf3f
000000c0: 6b1a b5bf 0ff7 b13f d639 adbf d49e c73f
000000d0: f9d4 be3f 753c bf3f 469f cfbf 2fd2 bf3f
000000e0: eede d33f ebe4 c9bf 026b d13f 3e6b b9bf
000000f0: 5b67 cc3f 5ed3 ac3f 0b81 b43f 7096 b4bf
-1.3944095 1.2591348 -1.4607421 1.4355665 1.3291341 1.332614 -1.3528787 1.4515184
-1.4056395 -1.5521498 -1.4184004 -1.3797618 1.3900619 -1.5508325 1.5329921 -1.555273
1.1188025 -1.3142443 1.2919735 -1.3936547 1.394381 1.4837004 -1.3130658 -1.3867223
-1.333512 1.4241793 -1.4502602 1.2649276 1.453122 1.4058621 1.3960316 -1.4091336
-1.7275001 -1.6757137 -1.4082204 1.4969509 -1.6661965 1.2210381 -1.4373268 -1.4980433
1.5101545 -1.3839127 -1.444919 -1.6681746 1.4386716 1.4089886 -1.3945 1.492681
-1.4148687 1.3903521 -1.3533275 1.5595345 1.4908744 1.4940325 -1.6220481 1.4986018
1.6552408 -1.5772985 1.6360781 -1.4485853 1.5969042 1.3502004 1.4101881 -1.410841
