weights/DARNN_L3_HDE64_HDD64_BS32_E50_s4.pth (torch, 312242 bytes, 22 tensors)

encoder.lstm.weight_ih_l0 f4 [256, 81]
000000 d1 cd 1d bb 44 93 c4 3e b9 cc eb bb 2a 66 19 bd
       -0.0024078975 0.38393605 -0.0071960357 -0.037450947
000010 39 90 2b be 94 9b d3 bd 8a f3 3c 3d 96 96 17 3e
       -0.16754235 -0.103324085 0.046130694 0.14803538
000020 76 4d 8d 3c 29 33 99 3e 7c c8 72 3e 38 b3 09 3c
       0.01724885 0.29921845 0.23709291 0.0084045455
000030 83 8f 56 3e 99 b7 1e 3c d6 3c a9 3d 62 f5 0e 3e
       0.20953183 0.009687328 0.08263557 0.13960794
000040 51 43 a8 3d 3a 08 13 3c e5 14 9c 3c 51 10 bb bb
       0.082159646 0.008974129 0.019052932 -0.005708732
000050 1d f4 15 3d 95 ac 88 bd 81 72 07 3d d0 e1 d8 3c
       0.036609758 -0.066735424 0.033068184 0.026474863
000060 8c 42 47 3d 22 7b 9b 3d 69 5f f0 3d 8b a2 07 3e
       0.04864745 0.07591845 0.11736948 0.13245599
000070 3c 0b 47 3e 2b e0 a2 3c 94 bf 09 3e 1b 1e 23 3e
       0.1943788 0.019882282 0.13451988 0.15929453
000080 bf 1d 1d bd 1e 87 a0 3e 98 a9 5e 3d a1 cc 1d be
       -0.038358446 0.31353086 0.054360956 -0.15410091
000090 54 6b 4e 3d fe 68 c5 3e 62 78 6c 3e 3f 72 77 3d
       0.050395325 0.38556665 0.23092797 0.060411688
0000a0 9b 04 fc 3d 13 f0 07 3e 08 c1 0d 3e e9 60 c2 bd
       0.12305566 0.13275175 0.13843167 -0.094911404
0000b0 aa 64 05 be 55 e5 01 3e 5c d2 f7 3d c9 12 12 be
       -0.13026682 0.1268514 0.1210067 -0.14264978
0000c0 cf 70 00 3e c5 94 06 3e 57 02 7c bd c0 9d c1 3d
       0.12543033 0.13142689 -0.06152567 0.094539165
0000d0 9b 10 0c 3d 72 83 62 b9 26 bc de bd 7f ad d8 3d
       0.034195524 -0.00021602007 -0.1087573 0.10579967
0000e0 c6 df af 3d 2e 90 af 3d 91 66 87 3d d7 f1 88 3e
       0.08587603 0.08572422 0.0661136 0.2674701
0000f0 b7 4e f1 3c 20 b1 d7 3c 02 ab 70 3b e4 bf cb 3d
       0.02945648 0.026329577 0.0036723022 0.099487096
000100 09 fb d9 bd 73 7f 65 3d eb 95 25 3e 4d d6 b8 bd
       -0.10643584 0.05602975 0.1617047 -0.0902525
000110 27 d7 6e 3d 86 24 3b bc 4c 90 de 3c 17 43 dd bb
       0.058310654 -0.011422282 0.027168415 -0.0067523825
000120 3c c5 50 3c 40 4c 14 be 43 2c 80 bd 99 06 09 3e
       0.012742337 -0.14482212 -0.06258442 0.13381423
000130 1f f6 e2 3d 1b 98 f6 3c ef b8 3f be c0 57 1c be
       0.110821 0.030101826 -0.1872289 -0.15267849
000140 4c 4d f6 3d 17 32 a3 3e 02 07 2b 3f e6 b6 66 3e
       0.12026462 0.31874153 0.6680757 0.22530708
000150 39 10 47 3e 83 9d 1f 3e 68 7a b2 3e 6a 09 63 3e
       0.19439782 0.1558743 0.34859014 0.2217156
000160 f2 d9 40 3e 2b 29 9c 3d f9 a6 eb 3e 7c bb 04 3f
       0.1883314 0.0762504 0.46025828 0.5184858
000170 1b 7e c7 3e dc 76 be 3e 4b 8b b0 3e 0c 9e 53 3e
       0.38963398 0.37200058 0.34481272 0.20665759
000180 f2 00 32 3e 60 ce 91 3e a7 d3 e9 3e 87 26 52 3e
       0.17383173 0.28477764 0.4566929 0.2052251
000190 f2 c6 8a 3e d4 39 b0 3e f0 72 9a 3e a0 a0 54 3e
       0.27104908 0.3441912 0.30165815 0.20764399
0001a0 52 1e 08 3e 35 2c 55 3e 00 80 e3 3d 97 3d 86 3e
       0.13292816 0.20817645 0.111083984 0.26218864
0001b0 18 c2 86 3e a4 27 78 3e 2a c2 a0 3e 06 1d 97 3e
       0.26319957 0.24233872 0.31398135 0.2951433
0001c0 22 db 46 3e fa 2f 3f 3e 86 f8 ed 3e cc 8c 82 3e
       0.1941953 0.18670645 0.4647867 0.25498044
0001d0 c4 c4 28 3e 73 26 96 3e e1 d8 12 3f 73 52 af 3e
       0.1648131 0.2932621 0.5736218 0.3424259
0001e0 64 43 86 3e 57 86 7a 3e bc 0f 86 3e 9b 0f 76 3e
       0.2622329 0.24465309 0.2618388 0.2402939
0001f0 d5 07 76 3e 1a 50 b1 3d fc fa 87 3e 3f 40 bd 3e
       0.24026425 0.08657856 0.26558673 0.36963078
000200 e1 f8 b9 3d 67 0f e1 3e 66 1b 63 3e 0c a0 98 3e
       0.09080673 0.43957064 0.2217842 0.29809606
000210 97 a6 7e 3e b7 95 f3 3d 5d 2e c5 3e 91 66 75 3e
       0.24868236 0.1189379 0.38511935 0.23964907
000220 52 2b af 3e af 75 3e 3e 79 93 93 3e 94 e3 48 3e
       0.34212738 0.1859958 0.2882345 0.19618064
000230 dc 31 ce 3e 6f 73 b1 3e 5c b6 d2 bc 1c 17 a7 3e
       0.40272415 0.3465838 -0.025721721 0.3263482
000240 8f f2 95 3e 78 52 01 3e a2 45 3e 3e 24 80 ac 3e
       0.2928662 0.12629116 0.1858125 0.33691514
000250 d9 9f 9d 3e 27 09 97 3e f8 dc e1 3d cd 18 70 3e
       0.30786017 0.2949917 0.110284746 0.23446961
000260 7f 88 3f 3e 69 13 88 3e 34 d7 06 3d 7f 93 37 3e
       0.18704413 0.2657731 0.032920077 0.17927359
000270 97 f6 36 3e be e6 ba 3e b4 58 68 3e 53 4f 1d 3d
       0.17867504 0.36504167 0.22690088 0.038405728
000280 cd 76 df 3d 6c d1 81 3e f8 e0 9a bd f3 3f ce 3e
       0.10911331 0.2535509 -0.07562441 0.40283164
000290 b5 70 2a 3d 5c 67 d4 3c 35 ee d1 3d 52 57 42 3e
       0.041611392 0.025928192 0.102505125 0.18978623
0002a0 95 60 82 bd cf 9c f4 bd 12 a8 f5 3d d9 42 9a 3e
       -0.06366078 -0.11943971 0.119949475 0.30129126
0002b0 40 1e e1 3e 9f 74 95 3d 8b 59 90 3d df de ba 3d
       0.4396839 0.07297634 0.07048329 0.091245405
0002c0 bb ce fc 3d 0b 6d 3f 3e c2 8e ea bc dc 2e 9c 3e
       0.12344118 0.1869394 -0.028632525 0.305045
0002d0 c1 c9 09 3e 02 62 26 3e fb 64 52 bd 91 8e 8b 3d
       0.1345587 0.16248325 -0.051365834 0.06814302
0002e0 60 b5 02 3d 9a 70 ab 3d 2b 0f 1d 3d 86 53 b6 3d
       0.031911254 0.083710864 0.038344543 0.089026496
0002f0 46 92 fe 3d 3a df 41 3c 85 d2 72 3d 6a 1a 1a 3e
       0.12430243 0.0118330065 0.0592828 0.15049139
000300 e6 29 69 3e d3 d8 fd bc c4 28 9a 3d bc f7 aa 3e
       0.22769889 -0.030987179 0.07527307 0.3339213
000310 ae 3b c8 ba 07 ad 0b bc f1 be 76 3e 89 f4 5d 3e
       -0.0015276575 -0.00852514 0.24096276 0.21675314
000320 c1 56 92 3e be 5e 7c bd b2 d2 15 3e 85 4c 3d 3e
       0.28581813 -0.06161379 0.14631155 0.18486221
000330 50 92 08 3d dd 9f e1 3d 2f 1d 00 be c8 7e 3d 3d
       0.03334266 0.110168196 -0.12511133 0.046263486
000340 85 66 4c 3e 7e f1 d1 3d 0a 58 98 3e d5 3b 90 3d
       0.19960983 0.10251139 0.29754668 0.07042662
000350 d2 3e 90 3c 1b 66 27 3e b0 22 6d 3d 9a e7 1e 3e
       0.01760808 0.16347544 0.05789441 0.15518036
000360 b3 09 c5 3d 6f a7 05 3e 03 1f c3 bc 6b 88 02 3e
       0.096209906 0.13052152 -0.023818498 0.12747352
000370 b5 f8 31 3e 1b 04 35 3d a1 18 3b 3c df 27 63 bc
       0.1738003 0.04419337 0.011419446 -0.0138644865
000380 85 4c 34 3e 20 8c 24 3c d7 35 fb 3d e8 f3 11 bd
       0.17607315 0.010043174 0.122661285 -0.035632998
000390 6c 75 c8 3d b3 6a ed 3d fd ee ab 3d f8 fc d7 bd
       0.097880214 0.11592617 0.08395193 -0.10546297
0003a0 dc 25 52 3d 8b cf 6a 3e 9b 79 6e 3e a2 a0 f4 bd
       0.051305637 0.22930734 0.23288576 -0.11944701
0003b0 09 7b 12 bc 9d 76 1a bd 2e 62 08 3d 7f 7f 38 3e
       -0.008940467 -0.037710775 0.033296756 0.18017386
0003c0 81 87 e9 bd 2b 84 6d 3d f3 78 d8 3d e6 9d 0b 3e
       -0.114027984 0.057987373 0.10569944 0.13634452
0003d0 54 6b ee bd 91 9f 86 3e d0 02 91 bd 61 a8 4e 3e
       -0.11641565 0.26293615 -0.070806146 0.20181419
0003e0 cf 50 ec 3c 6f 39 a1 3e a4 9b 4b bc d7 04 4d 3e
       0.028847126 0.3148913 -0.012427244 0.20021378
0003f0 a0 ee fb bd dd f9 2d be 7a 3b 01 3e 9e 24 68 bb
       -0.123013735 -0.16989847 0.12620345 -0.0035422216

encoder.lstm.weight_hh_l0 f4 [256, 64]
000000 f1 b8 80 3d 69 2d 2c 3e 5f 55 b5 3d ca 15 1c 3d
       0.06285275 0.16814198 0.08854174 0.038106717
000010 6d b6 02 be 53 7d 48 bc 17 11 46 bd 95 20 1a bd
       -0.12764902 -0.012236911 -0.048356142 -0.03762873
000020 aa ba 27 bd d8 cb 0d be 51 fb c7 3d b5 56 16 be
       -0.0409495 -0.13847291 0.09764732 -0.14681514
000030 13 c5 25 bd 47 8a ac 3c eb b1 a4 3d ff b7 c4 3d
       -0.040471148 0.02106203 0.08041748 0.09605407
000040 dd cb b9 bd 60 e1 7b 3b f7 6d ba 3c 50 d0 a5 3d
       -0.09072087 0.0038433895 0.022757513 0.08096373
000050 18 84 0e 3c 72 e4 c2 bd 93 fe 1e bd 3e 41 61 3b
       0.008698486 -0.09516229 -0.038817 0.0034371163
000060 c2 b2 ee bc 70 a2 ce 3a 51 a2 ac 3d fe ea 95 bd
       -0.029137973 0.0015764963 0.08429397 -0.07320212
000070 4b a1 0d 3d f9 4c a1 3c 18 c9 4c 3b ca 91 e9 bd
       0.03457765 0.019690024 0.003124779 -0.1140476
000080 80 ef a1 3d 33 7b dc bc f6 b0 d5 3d 72 08 a6 bd
       0.07907009 -0.026914215 0.10434143 -0.081070796
000090 9e 3f 2f be 26 84 89 bd a2 59 98 3c a8 df 00 be
       -0.17114112 -0.067146584 0.018597428 -0.12585318
0000a0 d9 1a c6 bd 56 3c 11 3d 62 a1 23 3d f7 49 c7 3d
       -0.096730895 0.03545793 0.03994883 0.097309045
0000b0 88 24 8a 3d f6 c5 0c 3e 98 ae 41 3d dc 92 c7 3d
       0.06745249 0.13747391 0.047285646 0.09744808
0000c0 ff 26 04 3c dd 92 91 bd f5 7d ff bd 76 52 27 bd
       0.008065938 -0.0710809 -0.12475196 -0.040850125
0000d0 16 eb bb 3d 5d f2 d1 bd 1c b3 ef 3c 78 4a e9 3d
       0.091756985 -0.10251305 0.02926021 0.11391157
0000e0 3f 84 d0 bd eb 1a d8 bd 24 5d 51 bd db 6d 8a 3c
       -0.10181474 -0.10552009 -0.051114216 0.016898086
0000f0 2b a1 44 3d 89 fa 99 3d bd 6e 69 3d 60 d2 f7 bd
       0.048005264 0.07518489 0.056990374 -0.12100673
000100 e3 b7 96 be 7f ba 25 3f 35 38 47 3f ce 6b db 3d
       -0.2943717 0.64737695 0.7782014 0.107139215
000110 21 4c 5d bf b8 78 a4 3e 94 4a 3b be 76 41 74 bf
       -0.8644429 0.3212335 -0.18290168 -0.95412385
000120 e6 11 a1 3d be 69 0a 3f f7 a1 a0 3e 46 8c fa 3d
       0.07864742 0.540676 0.3137357 0.12233786
000130 7a 19 2b bf 79 d0 95 3c 38 4c 75 be 59 24 19 3b
       -0.6683575 0.018287884 -0.23954856 0.0023367612
000140 49 3a c9 be 22 5d f4 3e c7 16 5c be d0 0d 31 bf
       -0.3930228 0.47727305 -0.21493064 -0.691617
000150 c5 aa d0 be a3 84 1d bf 1e 95 41 be aa b0 53 3e
       -0.40755287 -0.6153051 -0.1890454 0.2067286
000160 a9 81 2c bf 14 27 1b 3f 6b da 98 3e 25 0c 02 3d
       -0.67385346 0.60606503 0.2985414 0.031749863
000170 4f ca 19 3f 41 b0 f2 be d5 3c a3 bc 6f 0a 72 bf
       0.60074323 -0.47400096 -0.019926468 -0.9454717
000180 d5 d0 d0 3e a4 3e a7 bd 2c 23 ef be b6 0b ab be
       0.40784326 -0.081662446 -0.46706522 -0.33407372
000190 d7 ac cb be 1e a8 8d 3e 7f 64 d0 be 43 4f 5f bf
       -0.39780304 0.27667326 -0.40701672 -0.8723032
0001a0 71 1f 60 bf 1b 6c df 3e ba 20 24 bf 3a 9a 26 3f
       -0.87547976 0.43637165 -0.64112437 0.6507908
0001b0 14 c4 69 3e a7 9f c6 be 12 34 97 3e 11 dc 39 bf
       0.22828704 -0.3879368 0.29531914 -0.7260142
0001c0 de a5 a3 be e9 d3 f7 3e 38 67 c6 3e e9 1b 87 bd
       -0.31962484 0.48403862 0.38750625 -0.0659712
0001d0 26 e6 e3 3e fe 2b 25 bf 2d 78 01 3f 33 e2 f3 3e
       0.44511527 -0.6452025 0.50574 0.47633514
0001e0 6d 1e bf 3e 9e 67 84 be 97 3a 3c bd 11 71 16 3f
       0.373279 -0.25860304 -0.045954313 0.58766276
0001f0 69 a4 63 be 28 a8 3d 3f 94 cb c5 be de ab 62 be
       -0.22230686 0.7408471 -0.3863188 -0.22135875
000200 f7 8a 43 3e 94 21 96 bd b7 0d 1d 3e c1 e2 26 be
       0.1909598 -0.07330623 0.15337263 -0.16297437
000210 f0 17 00 3d df 63 aa 3d ab e5 1e bd e0 6d f8 bd
       0.03127283 0.0831983 -0.038793247 -0.12130332
000220 a9 2d 36 be 09 36 d9 3d 01 09 7f b9 11 ab 43 be
       -0.17790855 0.106060095 -0.0002432205 -0.19108225
000230 de bf 97 bd cf 28 86 3d 2a d6 13 3d 73 5a 38 3d
       -0.07409643 0.06550752 0.036092915 0.045008134
000240 ac d0 a2 3d bd 65 2e 3d 45 56 4d bc 9d ff ae bd
       0.07949957 0.042577494 -0.012532775 -0.08544848
000250 e9 5c ba 3d 61 af 97 3b b2 ee 80 3d c1 7c 85 bd
       0.090997525 0.004629061 0.062955275 -0.065179355
000260 dc 72 02 be 7b 2f 2a 3c d6 76 7b 3d be fc 52 bd
       -0.12739128 0.010387297 0.061392628 -0.051510565
000270 8a 8b 12 3e f4 aa 26 3e 3e 6d ae 3c fe 88 ef ba
       0.14311042 0.16276151 0.021292325 -0.001827508
000280 58 11 d9 bd 87 5b 2a 3d e0 1d 09 be 41 e9 35 3e
       -0.10599011 0.041591194 -0.13390303 0.1776476
000290 d4 00 3e bc 38 b2 f8 3d a3 46 37 3e 0e df 68 3d
       -0.011596877 0.121433675 0.1789804 0.056853347
0002a0 ba f0 54 3d 06 19 cd 3d 2b 16 de 3a c8 a4 e7 3d
       0.051987387 0.100145385 0.0016943862 0.113107264
0002b0 82 c4 3a 3d 54 0a c0 bd 08 9f 1a bc 85 e9 ba 3c
       0.04559756 -0.0937697 -0.00943733 0.022816429
0002c0 66 f8 93 3d 9e af 39 3e 51 a5 91 bc 41 df 6d 3d
       0.072251126 0.18133399 -0.017779024 0.05807424
0002d0 cf 5f 65 bc ac c4 41 3d 9e 85 e9 3d 71 a9 d9 bd
       -0.013999893 0.0473067 0.114024386 -0.106280215
0002e0 34 b8 99 bd 8f 62 00 3d 0f dc 85 bd 9f 95 1b bd
       -0.07505837 0.031343993 -0.065361135 -0.037984487
0002f0 64 89 be 39 7b 8a c1 3c d5 b7 9a 3e b9 0e 46 3c
       0.00036341988 0.023625603 0.30218378 0.012088471
000300 5e ba 36 3d fc 96 85 3d ca 3d 22 be 29 6c 70 be
       0.044611327 0.065229386 -0.15843883 -0.2347876
000310 b1 cd 5b be 78 b0 85 be 2d 55 98 3d e5 ac 24 be
       -0.21465184 -0.26111197 0.07438121 -0.16081579
000320 7d ad dc be 42 23 74 3d 7d 65 e9 bd e8 d7 44 be
       -0.4310111 0.059603937 -0.113963105 -0.19222987
000330 95 24 14 be 31 b7 ae bd 9d 1a df 3d 72 46 cb bd
       -0.1446708 -0.08531035 0.10893748 -0.09925546
000340 2d 16 62 3c 98 07 00 be bf 90 1f 3e 5a 10 0c 3d
       0.013799232 -0.12502897 0.1558256 0.03419528
000350 39 22 4a 3e 3a 1d dc bd 31 fd 5b 3d db d1 94 3d
       0.19739617 -0.10747762 0.05370826 0.07266589
000360 38 99 62 bd 61 e6 6f 3d fa b6 8a be 14 94 81 3d
       -0.055321902 0.058569316 -0.27092725 0.06327072
000370 91 83 2f bd 1e 86 3c 3e cf 3c c8 3d 74 fb 69 be
       -0.04285008 0.18410537 0.09777223 -0.22849828
000380 2f 34 8d bd dc 77 a4 3d 1c 0e 94 3c fc 35 af 3d
       -0.06894719 0.08030674 0.018073134 0.085552186
000390 fb 07 54 bd 53 e6 d8 bc 3f 44 20 3e d0 30 41 be
       -0.051765423 -0.026477015 0.15651034 -0.18866277
0003a0 10 e7 4f 3e d5 85 74 3c 1d 62 c6 3c 1f fa 05 bf
       0.20302987 0.014924486 0.024216706 -0.5233478
0003b0 fa 02 32 be cf 38 df 3d 92 46 7e bd 87 98 21 be
       -0.17383948 0.10899507 -0.06207902 -0.15780841
0003c0 89 95 48 3d 20 7e b0 3d 03 c6 77 3d 40 1d 04 bc
       0.048970733 0.086178064 0.060491573 -0.008063614
0003d0 ff b0 9e 3d 66 25 34 3e 2b 8b 04 bd 4f 1e 4a 3e
       0.07748603 0.17592391 -0.032359283 0.19738124
0003e0 ea ec 99 bd f8 8a cd 3e 05 a3 03 3e df 8d 3c 3e
       -0.07515891 0.40145087 0.12855156 0.18413495
0003f0 03 49 a0 3e 2b df c0 3d 67 d6 dd 3b cc 91 fa bc
       0.31305704 0.09417566 0.0067699435 -0.0305871

encoder.lstm.bias_ih_l0 f4 [256]
000000 b0 fd 8e 3d 3c b4 bc 3e 8f 44 7e bd 3f 38 9e 3d
       0.06981981 0.36856258 -0.0620771 0.07725572
000010 73 ad 35 3d 39 bd 44 bd e8 87 ae be 5b 22 c1 bb
       0.044354867 -0.04803202 -0.34088063 -0.005893988
000020 9a 0a 85 3e 2c 52 79 3c 01 55 84 3e 79 8b f4 3d
       0.2598465 0.015217345 0.25846103 0.11940665
000030 d6 ae ba bd 2b 9c be 3d fc 14 9f 3d 9e 9e 9a 3d
       -0.091153786 0.093071304 0.07767674 0.07549785
000040 3d 27 bd 3d 0b 68 34 3e fd d9 54 be d5 22 62 be
       0.09236 0.17617814 -0.20786281 -0.220836
000050 4e fb f6 3d 26 2b 09 3e c3 22 3d 3d b3 2a 2c be
       0.12059651 0.13395366 0.04617573 -0.16813163
000060 3b 39 20 be ee 0c 11 be 8c 9b 8b 3d bf ba 88 3e
       -0.15646832 -0.14165089 0.068167776 0.26704976
000070 f1 99 8b be 31 9d 24 bd 94 81 bc 3d dd 1f db bd
       -0.27265885 -0.040188972 0.092044026 -0.10699437
000080 0c e8 14 3d 0f a6 58 3d fc 17 8a bd c2 17 a4 3d
       0.03635411 0.05289274 -0.06742856 0.08012344
000090 23 e0 09 3f cb d8 84 3c 6b 4b 17 3d ad 9d 4b 3d
       0.5385763 0.016216656 0.03693716 0.04971092
0000a0 2d b8 1b 3d d1 84 06 bf 34 0f 1d be 5c 18 6a 3e
       0.03801744 -0.5254641 -0.15337831 0.22860855
0000b0 54 3d 56 3e 4b 46 5f bd 0b c5 0d 3e 05 30 87 bd
       0.20921832 -0.054510396 0.13844697 -0.06600956
0000c0 96 f3 b5 3e 4d 8a 94 3d 53 0d 8c 3e 90 81 12 3e
       0.35537404 0.07252941 0.27353916 0.14307237
0000d0 20 7e 16 be 54 96 62 3d b9 8e f5 3e a2 42 4c 3f
       -0.1469655 0.055319145 0.4796045 0.79789174
0000e0 64 78 9c 3d bb 95 84 3e f1 1f 94 bd 80 9e 8d bd
       0.0764015 0.25895485 -0.07232655 -0.06914997
0000f0 fa d2 74 3e a2 58 90 3c 19 d3 16 3e 50 bd 06 3e
       0.23908606 0.017620388 0.14728965 0.13158154
000100 6f 99 0a be 70 9e 13 be 83 c4 87 3d 5e f8 96 be
       -0.13535093 -0.14415908 0.066292785 -0.29486364
000110 06 70 75 3d 4d 8c 87 bd df 7a a5 bb 05 bf a3 bd
       0.059921287 -0.06618557 -0.0050500478 -0.079954185
000120 33 24 e0 bd 39 ea 0f be 61 25 25 be db 4c 2e be
       -0.109444045 -0.14054193 -0.1612754 -0.17021506
000130 ac cb b6 bd f8 c4 85 be 54 fc 32 be 85 c4 71 bd
       -0.08925566 -0.26126838 -0.17479068 -0.059025306
000140 73 64 89 be a8 72 3a be fa d1 54 3d 4e 58 df bd
       -0.2683445 -0.182078 0.05195806 -0.10905515
000150 c5 ac a3 be 44 eb d6 3c e4 e6 ca bc 00 89 22 3d
       -0.3196775 0.02623523 -0.0247683 0.039681435
000160 d5 a1 b9 bd c6 bf 6f bb 9c b0 bd 3d 30 df 94 bd
       -0.0906407 -0.0036582812 0.09262201 -0.07269132
000170 c7 da ac 3d 4a 59 77 be 26 63 52 3e d0 ad 5d bd
       0.08440166 -0.24155155 0.20545635 -0.05412084
000180 d4 b9 0e bd 7d fc 49 be b8 75 d5 bd 6d 58 29 be
       -0.03484519 -0.19725223 -0.10422844 -0.16537638
000190 4d a9 3e be e4 7c a2 3b 7b 70 17 be 23 b5 c6 3d
       -0.1861927 0.004958736 -0.14789002 0.09702518
0001a0 ad 89 bc be 11 f7 76 be 7b 77 46 3d 08 a0 19 3c
       -0.36823788 -0.24117686 0.04845379 0.009376533
0001b0 36 78 3a be fd 61 f4 bd e1 13 9a 3c 14 61 37 3d
       -0.1820992 -0.11932752 0.018808307 0.044770315
0001c0 7b 9b ac bd a7 e3 00 bd 85 62 65 be d2 71 99 bd
       -0.08428093 -0.031467106 -0.22400863 -0.074924126
0001d0 19 b2 57 bc 8e 2a f4 be b6 2b f5 3d 04 ef 24 be
       -0.01316502 -0.47688717 0.11971228 -0.16106802
0001e0 f2 7d 02 be 2d b4 2b bd cd 04 b8 3c df c1 4e bd
       -0.12743357 -0.041919876 0.022463227 -0.05047786
0001f0 2e 1d 65 be b8 80 05 3c b8 92 ab be 70 79 b5 bd
       -0.22374412 0.008148365 -0.33510375 -0.08861053
000200 f9 1c ba 3c e0 69 8e 3d 41 e8 f1 bd d7 82 e2 ba
       0.022718893 0.06953788 -0.11811877 -0.0017281425
000210 87 cb 07 3d 8d 2a 06 bc e9 53 a2 3d 4f ef eb bc
       0.033153083 -0.008188856 0.07926161 -0.028800635
000220 5f cc 7a 3d 94 9a ac bd c8 60 f8 3d 07 a4 4d bd
       0.06123006 -0.08427921 0.121278346 -0.050205257
000230 f4 af 5d bd d2 09 89 3c 7c c6 62 bd 27 dc c0 3a
       -0.05412288 0.016728316 -0.05536507 0.0014714048
000240 25 0f d0 bd c7 ec d9 3c 85 10 64 3d 09 a7 2f bc
       -0.101591386 0.026602162 0.055679817 -0.010720977
000250 f5 20 24 bd 2b 3c 4a 3d 2f cf ac bd 15 53 65 3d
       -0.040070493 0.049373787 -0.08437955 0.055987436
000260 5e 3a 50 3d 25 08 47 bd 52 f9 7b bd cd 6e 0b 3d
       0.050836913 -0.04859175 -0.061517067 0.034041215
000270 62 54 e7 bd de aa 1e 3d a6 b1 f6 bc 97 54 d2 bd
       -0.112953916 0.03873717 -0.030114006 -0.102700405
000280 ca 3a d9 bc a7 83 83 bd 6d bd 4c bd 58 83 ee bb
       -0.02651729 -0.06421595 -0.049985338 -0.007278841
000290 d8 ee 7b bd 4e 9b ce 3a b4 fb 81 3c 79 12 86 3d
       -0.061507076 0.0015762837 0.015867092 0.06546492
0002a0 4b f8 0d bd 9f 55 2a bc bf ae 33 3d 35 61 bc bd
       -0.03466062 -0.01039639 0.043867823 -0.09198228
0002b0 ed 15 15 3d 7e 15 77 bb 46 2a 8f 3d c0 e7 2f bd
       0.036397863 -0.003770202 0.06990485 -0.042945623
0002c0 06 83 ab bd 28 ae 3a 3c 7a 90 db 3d 15 09 16 3d
       -0.083746 0.011394061 0.10720916 0.036629755
0002d0 21 e9 7e 3d 0e 55 a1 3d 83 c9 40 3d 86 d7 10 3d
       0.062234048 0.07877551 0.047067177 0.03536179
0002e0 d2 65 05 bd 98 fb 43 bd d3 38 77 3d 5a 66 73 3d
       -0.032567807 -0.04784736 0.060356926 0.059423782
0002f0 dd 8c 88 3c ef 12 c9 bd 0c 0a 91 3d 3d 5b c0 bd
       0.016668731 -0.098180644 0.070819944 -0.09392402
000300 4d 46 9f 3c 16 c1 ee 3e 7e 3e 4f bd 97 cb 99 3e
       0.019442702 0.46631688 -0.050596707 0.3003814
000310 5c 2e 9e bd 39 f0 bd 3d 06 9a 63 be dd 8b c6 bd
       -0.07723686 0.092743345 -0.22226724 -0.096946456
000320 03 be 3b 3e 53 f5 2b bd 64 6e 98 3e 06 7b 35 3e
       0.18334202 -0.041982006 0.2977172 0.17722711
000330 18 6d 33 be b6 75 9b 3c 0d e1 c6 3d 0a 5d d8 3d
       -0.17522085 0.018977027 0.09710894 0.10564621
000340 c6 8c 4e 3e 6d f7 03 3e ce d7 4a bd e2 48 10 be
       0.20170888 0.12887354 -0.049522214 -0.14090303
000350 11 e6 56 3e f0 1a 8d bd 34 c3 d6 3c 6f 16 80 bd
       0.20986201 -0.068899035 0.026216127 -0.06254279
000360 ba 8d dd bd 4d 28 4a be ed ca 24 bd ad 11 7d 3e
       -0.10818048 -0.19741936 -0.040232588 0.24713774
000370 7d c1 da bd a9 fb ea 3d 3c 9d 57 bd 64 e9 89 3d
       -0.10681436 0.114737816 -0.052640185 0.06733969
000380 1a ff c8 3c 41 87 63 3e a6 90 75 bd e2 9e 48 3e
       0.024535704 0.22219564 -0.0599524 0.19591859
000390 2e d8 05 3f 18 43 12 3e 61 d3 1a 3e 95 e9 19 bd
       0.5228299 0.14283407 0.15119697 -0.037576277
0003a0 4c d7 1d 3e 1c 70 f0 be aa 53 e5 bc 15 ad a2 3e
       0.1541416 -0.46960533 -0.027993996 0.31772676
0003b0 5e dc 9e 3d da dc 87 3d 80 07 8d 3e fa 7e 19 be
       0.077568755 0.06633921 0.27544785 -0.14989844
0003c0 64 d5 84 3e 5b fc 19 3d de dc 25 3e e0 c1 ce bc
       0.25944054 0.03759418 0.16197535 -0.025238931
0003d0 6f b9 36 3d 30 e6 bf 3c 0e 18 fe 3e 64 3e 63 3f
       0.044610437 0.023425192 0.49627727 0.88767076
0003e0 c2 f7 ff 3d b4 35 ac 3e 24 3d 4a 3d 92 57 4f bd
       0.12498428 0.33634722 0.049374714 -0.050620623
0003f0 82 e5 e7 3d 6c f6 e6 bd 2c af ff 3d 34 62 6b 3e
       0.11323072 -0.1127747 0.12484583 0.2298668

encoder.lstm.bias_hh_l0 f4 [256]
000000 51 57 8c 3d 4c e1 06 3f 72 a1 be 3d 2c dd ec 3d
       0.06852592 0.52687526 0.09308137 0.11565623
000010 7e b0 3e bd 5b b9 48 3d 2e 2e 4a be 86 7c a5 bd
       -0.046555035 0.049004894 -0.19744179 -0.080803916
000020 16 42 24 3e 8d 13 63 be ab 96 2c 3e af 3b 38 3e
       0.16040835 -0.22175427 0.1685435 0.17991517
000030 6a 76 c8 bd 6e e7 26 3d 67 52 ad 3d ab 65 e2 bd
       -0.09788211 0.040748052 0.084629826 -0.11054548
000040 08 14 01 3d 0b 34 34 3e 8c 58 34 be 19 95 b8 bd
       0.031513244 0.17597978 -0.17611903 -0.09012813
000050 59 df 88 3d bb af 1e 3e 1b d4 b0 3d 7a 9d 80 3d
       0.06683225 0.15496723 0.08634206 0.06280036
000060 f8 52 16 be ba 18 3f be e7 97 02 bd 14 05 34 3e
       -0.14680088 -0.18661776 -0.031883147 0.17580062
000070 f4 a9 73 be c7 c8 0f 3e 94 f1 fa 3c 77 b0 46 bd
       -0.237953 0.14041434 0.030632772 -0.048508134
000080 7f 03 16 3c 7f d6 38 3e b9 ac de bd a7 3a 70 3d
       0.009156107 0.18050574 -0.10872788 0.058649685
000090 64 9f 15 3f 61 98 60 bd a6 f7 a0 3d db 20 ee bc
       0.58446336 -0.05483282 0.07859735 -0.029068401
0000a0 d6 d7 02 3e 1c 57 1b bf e7 46 3c 3d f4 6c 55 3e
       0.12777647 -0.60679793 0.045966055 0.20842344
0000b0 20 54 15 3e 3f 50 c8 bd 54 03 08 3e 76 d0 64 bd
       0.14582872 -0.09780931 0.1328252 -0.055862866
0000c0 89 af 34 3e e0 25 1c 3e db 29 84 3d 89 17 84 bd
       0.17645086 0.15248823 0.06453296 -0.064498015
0000d0 5c a3 05 bd d6 9b 4b bd f0 4e a8 3e 36 a3 4d 3f
       -0.032626495 -0.049709164 0.32872725 0.80327165
0000e0 bd 2b 8e bd eb 68 19 3e de c7 16 3e 3f 9a c3 bd
       -0.06941936 0.1498143 0.14724681 -0.095509045
0000f0 80 4e cf 3c 7c b9 12 bc e0 46 63 bc 8d 84 57 3e
       0.025305986 -0.008955356 -0.013871878 0.21046658
000100 e7 ad 3b be af be c6 bd aa d8 99 3d bc 29 63 be
       -0.18328057 -0.09704339 0.075120285 -0.22183889
000110 ff ea e5 3d b2 04 af bd 55 4b ef bd 98 78 b2 bd
       0.112264626 -0.085458174 -0.1168429 -0.08714408
000120 d7 f1 81 be 64 1d 79 3d 55 85 ee bd 78 53 1f be
       -0.25379822 0.060819045 -0.11646525 -0.15559185
000130 30 bb e3 bd c5 aa a4 bc 3b 0d ce bd 93 9f 05 be
       -0.111196876 -0.02010096 -0.10061117 -0.13049154
000140 49 07 55 be cb 4f ee bd 6f e9 3a be 04 f9 03 be
       -0.2080356 -0.11636313 -0.1825311 -0.1288796
000150 e9 aa b4 be d7 ad 3b be 12 8d 01 3d 95 0b 1e be
       -0.35286644 -0.18328033 0.031628676 -0.15434106
000160 95 55 7b bd 40 b1 ad 3c e6 2d a8 3e d0 f5 51 be
       -0.061360914 0.021202683 0.32847518 -0.20503926
000170 7a 48 71 39 e5 d2 6b be 52 d4 f2 3d 00 57 8c 3d
       0.0002301055 -0.23029669 0.11856903 0.068525314
000180 12 18 0d be 5c b3 88 be e9 16 d4 bd 9c 4c 7f be
       -0.13778713 -0.2669934 -0.10355932 -0.24931568
000190 1c 7d 14 be 61 eb 06 bc 1d 68 4b be 4b 67 ee bc
       -0.1450085 -0.00823483 -0.19863935 -0.029101988
0001a0 ea 34 4d be cf f4 9e be fd 23 7d 3d 34 d9 fc bd
       -0.20039716 -0.3104615 0.0618019 -0.12346116
0001b0 a1 69 43 be 87 30 57 bd 9c 43 9d bd 6f 29 b3 3d
       -0.19083263 -0.052536514 -0.07678911 0.08748137
0001c0 19 d9 a3 bc 99 6a 06 bd fe f7 22 bc 82 2b 82 bc
       -0.020000981 -0.032816503 -0.009946821 -0.015889887
0001d0 f9 18 8e bc 8a 74 a8 be 7c 62 84 3e 79 c4 b8 bd
       -0.017345892 -0.32901412 0.25856388 -0.09021849
0001e0 19 8b 0f be 99 d6 19 3d 89 0a 09 be 8b e3 27 be
       -0.14017905 0.037558172 -0.13382925 -0.16395395
0001f0 f2 31 45 be 2e 10 99 bd 00 5f 52 be 80 c0 2d bd
       -0.19257334 -0.07473789 -0.20544052 -0.04241991
000200 b0 14 be bc e3 73 0e 3e 59 b1 7e 3d a8 0e c3 bd
       -0.023203224 0.13911395 0.06218085 -0.0952428
000210 34 71 83 bd d8 b3 ee 3c 24 83 c5 bd 97 de 9b bc
       -0.06418076 0.02913849 -0.09644154 -0.019027038
000220 01 e0 26 be c3 e1 55 3d b1 ce 50 3d ee 91 60 bd
       -0.16296388 0.052217256 0.050978366 -0.05482667
000230 f3 bb 5b 3d 63 91 c6 3d a8 cd 83 bd 41 51 ee bd
       0.05364604 0.09695699 -0.0643571 -0.11636592
000240 f8 16 e4 3a 87 77 d8 3d c1 0f 25 bd 19 1e 31 3d
       0.0017401865 0.10569673 -0.040298227 0.043241594
000250 6a 00 ea 3d 99 b7 28 3d 1c fe 55 bc 03 73 c4 bd
       0.1142586 0.041190717 -0.013061073 -0.09592249
000260 47 fd 53 3c 08 8c 15 3c 52 69 64 bc 1f 10 07 3e
       0.012938804 0.009127624 -0.013941126 0.13189743
000270 d8 9c a1 3d d9 65 72 bd db fa ed ba 12 81 8d bd
       0.07891244 -0.05917916 -0.0018156426 -0.06909384
000280 e4 a2 81 bd 30 6c 22 3e 53 15 83 bc bc be b3 3d
       -0.06329897 0.15861583 -0.01600138 0.08776614
000290 97 7b f9 bd 6a 5a 9b bd c0 35 c4 3c d7 52 48 bd
       -0.12181776 -0.075856045 0.023951411 -0.048907127
0002a0 c4 50 1c 3d fe a8 0b 3a b3 b6 ab 3c 08 11 62 bc
       0.03816296 0.0005327611 0.020961141 -0.013798006
0002b0 d9 84 aa bb 4a e6 85 3d 3e 6b 83 3d 72 43 d7 3d
       -0.005203825 0.06538065 0.06416939 0.10510911
0002c0 16 41 53 bd 1a f1 24 3d c6 3e 3a 3b 12 7c f7 bd
       -0.051575743 0.040268995 0.0028418764 -0.120842114
0002d0 c6 b8 07 be 06 94 63 bd b8 b5 01 bd 17 9e 53 3e
       -0.13254079 -0.055561088 -0.03166744 0.20665775
0002e0 bf 81 5c bd 9c 2f 15 3e be 9b 91 3d f5 74 f8 bd
       -0.053834673 0.14568943 0.071097836 -0.12131683
0002f0 fc 97 85 3d 93 89 70 3d 9e d2 ea bc 99 c2 17 bc
       0.06523129 0.05872495 -0.028664883 -0.009262704
000300 a2 22 08 3e ac dd 12 3f fb f9 04 bc 0a 80 c4 3d
       0.13294461 0.57369494 -0.008116241 0.09594734
000310 83 11 08 be 46 fd 32 3e be 18 ad be 8f d4 8d 3d
       -0.1328793 0.17479429 -0.3380794 0.06925308
000320 14 49 32 3e 8d 1a de bd 59 dd 71 3e 57 d9 53 3e
       0.1741069 -0.10844908 0.23619594 0.20688377
000330 52 64 63 3c fd 34 44 3e 8c 2a 62 3c 57 51 1c 3d
       0.013878899 0.19160838 0.013804089 0.03816351
000340 d3 b4 0e 3d 91 20 2a 3d 86 49 e7 bd c7 3d 29 be
       0.034840416 0.041534964 -0.1129332 -0.16527472
000350 c1 80 38 3e e7 ff 87 3d 36 65 2d 3d 1f dd bc bd
       0.18017866 0.066406064 0.04233285 -0.09221863
000360 c2 65 8c 3b 36 94 89 bc 59 b7 b1 3d f4 09 8e 3e
       0.0042845914 -0.016794305 0.08677549 0.2774197
000370 ca 0b 06 bd 4f a3 51 bd 39 bb 77 bd 9f f0 1b be
       -0.032726087 -0.051181134 -0.060481284 -0.15228508
000380 3f f5 17 3d ce f4 5e 3e 96 e5 b0 3d 51 5e df 3d
       0.03709912 0.21773073 0.0863754 0.10906661
000390 6c 4e 12 3f 67 36 3d 3d 58 6a a9 bd 2a 26 93 bc
       0.5715091 0.04619446 -0.082722366 -0.017962534
0003a0 f6 b8 03 3e 5f 09 20 bf 20 25 8a bd c7 5b 3a 3e
       0.12863526 -0.625143 -0.06745362 0.18199073
0003b0 6f 6a 74 3d fe 5d ac 3d c1 75 b1 3e 5d e3 d6 bd
       0.059671815 0.08416365 0.34660152 -0.10492585
0003c0 b4 be 6d 3e cc 1c bb bc 5f 04 61 3e c3 29 c8 3c
       0.23217279 -0.02284088 0.21974324 0.024433976
0003d0 58 6d 1a bd 9d 98 84 bd f8 47 dd 3e 6d d6 64 3f
       -0.037701935 -0.06474421 0.4321897 0.8938969
0003e0 ce b4 64 bc 7d 0d b4 3d 67 dc 93 3d 47 7a ee bd
       -0.013959123 0.08791635 0.07219773 -0.11644416
0003f0 37 0c 45 3d c9 92 93 3d 83 9d b2 bd 45 0f 85 3e
       0.048107352 0.072057314 -0.08721449 0.25988212

encoder.U_e.weight f4 [3, 3]
000000 74 db bc be e4 75 04 bd fc 0b c0 be b4 62 68 bc
       -0.3688618 -0.03233899 -0.37509143 -0.014183689
000010 70 3d db 3e dc 5a 02 bf 6e 8e a4 3e 97 51 c7 3e
       0.4282031 -0.5091989 0.32139915 0.38929436
000020 a7 1c dc 3d
       0.107476525

encoder.U_e.bias f4 [3]
000000 bc ca d8 3e d8 16 dc 3e 1f a3 66 be
       0.42342174 0.42986178 -0.22523163

encoder.W_e.weight f4 [3, 128]
000000 34 26 8f 3e 5e 27 2d be 0f 0e 9e 3d b9 ec 03 3e
       0.27958834 -0.16909549 0.07717525 0.12883271
000010 ab b2 06 be 39 99 c2 be 2f 5e 58 3d 6b 23 2c bd
       -0.13154094 -0.38007525 0.052824195 -0.042025965
000020 7b 48 83 3d d8 b3 d5 bc d9 f0 66 be 59 69 6a be
       0.06410309 -0.026086733 -0.22552814 -0.2289175
000030 7d aa 1e be 87 cb a7 be 3b 5b 85 3e 11 80 48 3e
       -0.15494724 -0.32772467 0.26046166 0.19580103
000040 31 c6 4c 3e 42 11 64 be ba 4b 5d 3e c9 6b c7 bc
       0.19997479 -0.22272208 0.21610919 -0.024343388
000050 d3 a7 59 3c 62 e2 2c 3d cf 5e 1c 3e 37 e3 73 3e
       0.013284641 0.042208083 0.15270542 0.23817144
000060 52 1d cb bd 56 68 11 bd 51 9f 12 3e 1d ca 54 be
       -0.09917702 -0.035499893 0.14318587 -0.20780225
000070 6e 3d ec 3d de f3 4a 3e 96 91 1b 3e 4c 11 c5 bd
       0.11535154 0.1981959 0.15192255 -0.0962244
000080 c5 09 1d bc c3 fb ea bd dd 14 6c be c6 2d 2b 3e
       -0.009584849 -0.11473801 -0.23054834 0.1671668
000090 f0 bf 92 3e ee fc 20 3e fc 52 8b 3e b5 a5 18 bd
       0.28662062 0.15721485 0.2721175 -0.037267406
0000a0 1a 29 9b 3d 87 88 73 3e ed a2 1b be 34 a9 9a 3e
       0.07576199 0.2378255 -0.1519887 0.30207217
0000b0 e4 f3 9b be cc 34 8e bd 48 e8 42 be be 51 01 3b
       -0.3045951 -0.06943664 -0.19033921 0.001973256
0000c0 03 27 ac 3e 7a f6 89 3e f4 2e a8 be 8c 78 f1 3d
       0.33623514 0.2694586 -0.32848322 0.117905706
0000d0 a5 74 e1 3d c2 3e cc 3d 68 17 37 3e 5e 92 d4 bd
       0.11008576 0.099729076 0.17880023 -0.1037948
0000e0 6a dd 3c bd 6d d8 35 bd fe 9f 22 be 39 f4 fe 3c
       -0.046109594 -0.044395853 -0.15881345 0.031122314
0000f0 ee 0c 02 bd c9 3d d2 3c 01 9d 13 3e 75 32 16 3e
       -0.031750612 0.025664227 0.14415361 0.14667685
000100 7c 80 b8 3e 7d 87 4d be b4 93 b1 3c 7f 88 3e 3e
       0.36035526 -0.20071216 0.021676876 0.18606757
000110 e5 f8 97 3c 33 ad b3 be d5 77 12 3e 31 16 0b be
       0.0185513 -0.35093078 0.14303525 -0.13582684
000120 9e 0e 1a 3e 24 b2 b0 3d a1 61 9d be d1 d9 52 be
       0.15044639 0.08627728 -0.30738547 -0.20590903
000130 7f 04 26 bd 6e 45 73 be 4d 1b 82 3e 7c 19 07 3e
       -0.04053163 -0.23756954 0.25411454 0.13193315
000140 fd 91 ad 3e ea 1e 8e be 4a 41 19 3e 76 1d 27 be
       0.33900443 -0.2775796 0.14966312 -0.16319832
000150 02 de 64 3d c0 97 4c 3d f5 bf 97 3e 6b 2b f5 3d
       0.055875786 0.049949408 0.2963864 0.11971172
000160 b6 c0 06 be 6d 98 46 3d 1f 0a 01 3e e6 be 9d be
       -0.13159451 0.04848521 0.12601517 -0.30809706
000170 e6 3f 84 3d 89 c1 98 3e 07 69 78 3b 4c 84 d5 bd
       0.064575 0.29835156 0.0037904398 -0.10425624
000180 26 a6 0f bd a7 53 e9 bd c5 0c 61 be b2 61 92 3e
       -0.03507056 -0.113929085 -0.21977527 0.2859016
000190 80 a4 65 3e 8a a7 5b 3e 8a f4 5c 3e 5b 7c 17 be
       0.22426033 0.2145063 0.21577659 -0.14793532
0001a0 3b 5d 95 3d f9 24 df 3d c6 00 69 bd 94 bc 53 3e
       0.07293173 0.10895724 -0.056885503 0.20677406
0001b0 8e bc a3 be d5 67 61 be 6f 22 81 be 6b 9c 74 3c
       -0.31979793 -0.22012265 -0.25221583 0.014929871
0001c0 04 90 96 3e cf 7b 4d 3e cd 4a 8d be 68 b5 50 3e
       0.2940675 0.2006676 -0.2759613 0.20381701
0001d0 39 81 d1 3c 21 99 3c 3e 31 75 95 3d 86 06 81 be
       0.025574313 0.18417789 0.07297743 -0.2520029
0001e0 f2 e2 48 bd 31 37 37 be 66 ec 5f be 00 22 02 3e
       -0.049044557 -0.17892148 -0.21867523 0.12708282
0001f0 6c 6b 4e 3d 25 03 be 3d 7e 55 7c 3e 87 d9 58 3e
       0.050395414 0.092779435 0.24641988 0.2117673
000200 ed 20 61 3e d5 92 f1 bd a9 c2 08 3e 61 2d 2f 3e
       0.21985216 -0.11795584 0.13355507 0.17107154
000210 8f 30 f3 bc cd 05 23 be 65 1f d0 3d 45 17 f4 bb
       -0.02968624 -0.15920182 0.10162238 -0.007449063
000220 dd bf c9 3d 96 12 29 3e a4 f2 4a be b9 3b 73 bd
       0.09851048 0.16510996 -0.19819123 -0.059383128
000230 e6 a6 f2 bd e4 21 19 be 9f 99 4c 3e b4 8d 15 3e
       -0.118482396 -0.14954334 0.19980477 0.14604837
000240 f3 96 11 3e 9f 20 97 bd 53 3e 22 3e df 37 c4 bd
       0.14217739 -0.07379269 0.15844087 -0.09580969
000250 9f 2b 97 bd 2f 30 13 bd c1 27 b2 3d a3 ce 40 3e
       -0.07381367 -0.035934623 0.08698989 0.18828826
000260 ad 9d 6b bd 13 44 12 3e ee 5c 23 3e a1 7c a7 bd
       -0.05752342 0.14283781 0.15953419 -0.08178068
000270 b5 62 2e 3e bc 23 29 3e 2c 8a 1f 3e 0e 3c 17 be
       0.17029841 0.16517538 0.15580052 -0.14769003
000280 4a 37 46 3e 06 04 6f be 17 e8 52 be b1 84 12 3e
       0.19357029 -0.23341379 -0.20596348 0.1430843
000290 56 68 6f 3d 7d 7b 10 3e 44 7e 76 3e d0 87 1f be
       0.058449112 0.14109607 0.24071604 -0.15579152
0002a0 3f 5f 8d bd 89 9a 31 3e dd 73 b8 bd d1 20 d4 3e
       -0.069029324 0.17344107 -0.09006474 0.41431287
0002b0 c8 11 34 be 62 3c d1 bd 02 1f 25 be 81 b2 35 be
       -0.17584908 -0.10216595 -0.1612511 -0.17743875
0002c0 e5 69 3b 3e 46 e4 a7 3d 69 94 b5 bd e6 25 ab 3d
       0.18302114 0.081978366 -0.088661976 0.08356838
0002d0 62 41 c1 3d 17 77 0b bd f0 cb 85 3d 0e e2 0a be
       0.09436299 -0.03404912 0.065330386 -0.13562796
0002e0 b6 61 b3 3c 48 35 69 bd 70 c6 31 be d1 ec 46 3e
       0.021897178 -0.05693558 -0.17360854 0.19426276
0002f0 91 d4 bd bd 2f 36 10 3e 8f 7c 39 3e 02 5b 99 3d
       -0.092690594 0.1408317 0.18113922 0.074880615
000300 bc b9 52 3e f4 f6 77 bd 47 ff 20 3e c5 00 51 3e
       0.20578665 -0.060538247 0.1572238 0.2041045
000310 4c c2 11 be 5b 11 90 be 50 a2 b5 3d 2d 8a de bd
       -0.14234275 -0.2813824 0.08868849 -0.10866199
000320 45 d3 12 3e 99 01 c1 3d 9f 95 ed bd bf 4e b3 bd
       0.14338405 0.09424133 -0.116008036 -0.08755254
000330 22 ee 93 bd 36 14 7c be 05 99 a6 3d 13 8e 96 3d
       -0.072231546 -0.24617085 0.08134655 0.07351317
000340 f7 0a 0f 3e 76 22 50 be f8 f1 5a 3d 6b c9 a9 bc
       0.13969027 -0.20325646 0.053453416 -0.020725926
000350 f3 d9 fc bd 28 cc ea bd d1 c7 88 3d 88 2e 2b 3e
       -0.12346258 -0.11464721 0.06678737 0.16716969
000360 8f 90 2c bd 5e ae 97 3d b4 46 45 3e 5c b2 57 be
       -0.04213005 0.07406305 0.19265252 -0.21064132
000370 dd 8a 0a 3e 28 9c b2 3c f2 cd 85 3d 06 ef a5 bd
       0.13529535 0.021802977 0.065334216 -0.08102231
000380 42 88 07 3e cc 46 71 be 59 ac 5c be 03 06 53 3e
       0.13235572 -0.23562163 -0.2155012 0.20607762
000390 ca 1a 45 3e e8 ad d5 3c d7 ff 58 3e 04 5d 15 be
       0.192485 0.026083902 0.21191345 -0.14586264
0003a0 a4 c1 b4 bc 3a 9e 19 3e 95 51 5e be 97 ee 8d 3e
       -0.022064991 0.15001765 -0.21710809 0.27721092
0003b0 b7 b4 65 be c8 dc 84 bd 47 08 45 be 4f 0a 2e be
       -0.22432218 -0.06487423 -0.19241439 -0.1699612
0003c0 07 d5 1b 3e 06 a9 22 3e 4b 1b f2 bd a7 67 17 3e
       0.15217982 0.1588479 -0.11821612 0.14785634
0003d0 57 04 25 3e dd 98 13 3e 31 8f 6c 3d ea 43 b8 bd
       0.16114937 0.14413781 0.057753745 -0.089973286
0003e0 80 e0 6a 3d 1b 38 93 bd 30 7e 26 be 1a 30 39 3e
       0.057343006 -0.07188436 -0.16259074 0.18084756
0003f0 a9 60 21 be 3b 00 31 3e 72 59 ec 3d 18 21 51 3e
       -0.15759529 0.17285244 0.11540498 0.2042278

encoder.W_e.bias f4 [3]
000000 79 11 a4 3e f9 f9 20 3e d6 c8 ea 3d
       0.3204458 0.15720357 0.11464088

encoder.v_e.weight f4 [1, 3]
000000 99 19 50 be de f5 67 be ce 88 ad be
       -0.20322265 -0.22652385 -0.33893436

decoder.W_d.weight f4 [64, 128]
000000 f0 56 a3 bd 09 85 1e 3c 0e c3 ef bc 0d e5 9d 3d
       -0.079755664 0.009675273 -0.029267814 0.077097036
000010 56 23 ac 3b 64 b6 a5 3d 8b 15 8f 3d b9 10 c7 bc
       0.005253236 0.08091429 0.06986531 -0.024299966
000020 d5 10 45 bd 6a 5b 2b 3d e9 71 44 bd cd 09 a3 3d
       -0.048111755 0.041835226 -0.047960196 0.07960854
000030 c3 6c 50 bd 4a 3b 7a 3d ed 81 60 3d 48 4a 95 bc
       -0.050884973 0.0610917 0.054811407 -0.018223897
000040 dc 28 ad 3d 1c ec 7e bd b3 a9 04 bd 46 2e 2c 3d
       0.08455059 -0.06223689 -0.0323884 0.042036317
000050 ba 42 41 bd b3 cf f2 bc bb a9 04 3d c7 bf 9a bd
       -0.047182776 -0.029640054 0.03238843 -0.0755611
000060 59 b3 97 bd 3f a6 99 bd b4 75 84 bd cf d1 b2 3d
       -0.07407255 -0.07502412 -0.064677626 0.08731424
000070 4b 94 6c bd 75 47 cb 3c c1 13 5f bd 3e ff 59 bd
       -0.05775861 0.024814347 -0.0544622 -0.053221934
000080 7a 96 66 bd 9d dc c2 bc ea 14 26 bd 2d 6d a5 3d
       -0.05629585 -0.023786837 -0.04054729 0.08077464
000090 6b 7f 40 bd 84 b0 b8 bb 39 49 9c 3d d2 c6 54 3c
       -0.046996515 -0.0056362767 0.076311536 0.012986856
0000a0 34 51 68 bd 5f 27 27 3d f7 f4 10 b7 c6 de ae bc
       -0.056718066 0.04080903 -8.640104e-06 -0.021346461
0000b0 15 0e 83 bd 76 66 c2 3c a4 53 83 bd ed 0a 2d 3d
       -0.0639917 0.023730498 -0.064124376 0.042246748
0000c0 d8 d3 b9 bb 1d c3 90 ba a5 8e 77 bd 89 2c 83 3d
       -0.0056710057 -0.0011044476 -0.06043877 0.06404979
0000d0 46 bf 90 3d 76 48 5a bd 4a 07 3a 3c 02 e5 d8 3c
       0.070677325 -0.05329176 0.011354277 0.026476387
0000e0 0a 13 7e 3b 42 53 a5 3b f9 3f 82 3d 29 9c 95 3d
       0.0038768672 0.0050453255 0.06359858 0.07305176
0000f0 77 12 a7 3d 2b 33 88 3d 1b de 66 bd b6 92 55 bd
       0.08157819 0.066503845 -0.05636416 -0.052141868
000100 b1 1c a2 bc f1 79 b0 bd 25 e6 aa 3d 9c 5e 54 ba
       -0.019789072 -0.086170085 0.08344678 -0.0008101256
000110 2c 51 8b bd bc f3 4b bd c9 e8 2e 3c 36 80 87 bd
       -0.06802592 -0.04979299 0.0106756175 -0.06616251
000120 ea 72 40 bd fa a2 44 3c 32 ff 55 3d 52 09 64 3a
       -0.04698459 0.012001747 0.052245326 0.00086988986
000130 23 2f 7e bd 11 e7 a8 bd 43 15 d6 bc 0f 85 aa 3b
       -0.06205667 -0.082471974 -0.026133185 0.00520385
000140 45 59 3e 3d 79 ff ab 3d 12 89 56 3d 11 c5 8b 3d
       0.046471853 0.08398337 0.052376814 0.06824697
000150 9f 3d 8c bc 24 3a 81 3d 39 03 2f bd 43 b8 8c bc
       -0.017119227 0.063099176 -0.042727683 -0.017177707
000160 e3 d1 70 bd 7e be 71 bd 74 66 72 3b 5c be 1b 3d
       -0.058793914 -0.059019558 0.0036987336 0.038023338
000170 77 5a a7 3d e3 7e af bd 0e a6 03 3d 4b c5 a6 bd
       0.08171552 -0.085691236 0.032140784 -0.081430994
000180 33 e9 35 bd 74 f6 41 ba e3 71 57 3d f8 ca 57 3d
       -0.04441185 -0.000739909 0.052598845 0.0526838
000190 5d 6b a2 3d 97 12 b4 3b f9 c0 c2 3c 8b 54 a2 3d
       0.07930634 0.00549538 0.023773657 0.079262815
0001a0 0a 1e e6 bb 72 ba 13 3d 90 8f 1e bd a9 e1 a2 3d
       -0.007022624 0.03606648 -0.03871113 0.079531975
0001b0 f3 c9 d6 3c b3 02 21 3d 82 6d b2 3d 72 0c 8a 3d
       0.026219344 0.039309215 0.08712293 0.06740655
0001c0 db 50 02 3d 69 e6 8a bd ba 28 df bc 1c 8b 51 3d
       0.03181539 -0.067822285 -0.0272411 0.051158056
0001d0 ec 8b 9c bd 64 1e 38 3d 0d e7 ac 3c 78 8d 89 3d
       -0.076438755 0.044950858 0.021106267 0.06716436
0001e0 cc ee 0c bd 7a 7c ad bd 84 ed a2 bd e6 8e 2b bd
       -0.034407422 -0.08471008 -0.07955459 -0.041884325
0001f0 6f c3 94 bd d3 c9 54 3c d1 6f 38 3c 20 10 08 3c
       -0.072638385 0.012987572 0.011257128 0.008304626
000200 c6 ed 59 bd a7 fd 1e bd ef 62 a3 bd 9c 1d 9c 3c
       -0.053205274 -0.03881612 -0.079778545 0.019057088
000210 59 e5 19 bd 4f 4a 42 bd c4 d6 38 3d a1 2f 68 bd
       -0.03757224 -0.047434147 0.04512669 -0.056686047
000220 a6 e5 2c 3d 20 e6 77 3b e7 5a 90 3c b8 7c 87 3d
       0.042211197 0.0037826374 0.01762147 0.06615585
000230 fd d2 12 3d 0d 4a 2c bc 08 1b 49 3d 36 7e 2a 3d
       0.035845745 -0.010515702 0.049098045 0.04162427
000240 d8 14 92 bc 87 6d a0 bd 0b 3a 87 3d 34 b2 e5 3c
       -0.017832205 -0.07833391 0.06602868 0.028039075
000250 8c a5 98 b7 d8 31 ae bd 26 26 99 3d 3d f7 e0 bc
       -1.81969e-05 -0.08505601 0.07477979 -0.027461642
000260 27 5b 4c bd 47 61 21 bd e4 f2 0b 3d b9 ee 9c 3d
       -0.049891617 -0.03939941 0.034167185 0.0766272
000270 14 9b 5f bc 71 ab 5f bd 64 18 40 bd 0a 57 76 3d
       -0.013647813 -0.05460686 -0.04689826 0.0601416
000280 3b 93 81 3d f5 95 a8 bd 00 95 7f 3d b4 19 ad bd
       0.0632691 -0.08231727 0.062397957 -0.08452168
000290 24 b5 89 3c 04 ba 13 bb 91 a8 9e 3b 14 4b 54 3c
       0.016810007 -0.0022541294 0.004841872 0.012957353
0002a0 f3 cc b9 3c e1 41 84 bd ff 1b 46 bb 1e e6 31 bd
       0.022680735 -0.06457878 -0.003022909 -0.043432347
0002b0 68 8e 97 3d 3b a6 47 3d fb 6e 8d 3c 72 6e ae 3d
       0.07400209 0.048742514 0.017264834 0.085171595
0002c0 9a 12 d3 3c 4e dc 03 bd 4f 39 44 3c 46 67 1b 3d
       0.025765706 -0.03219252 0.011976554 0.037940286
0002d0 67 20 c0 bc 8d ee 76 bc 5b 83 1c 3d 2f 3a a7 bd
       -0.02345295 -0.015071523 0.038211208 -0.081653945
0002e0 35 8d 85 bc 05 2d 6c 3d ca d1 89 3d 7d 13 a1 3d
       -0.016302684 0.05766012 0.06729467 0.07865045
0002f0 0e 05 36 bc b7 47 48 3d 7c 75 5a 3d 64 9f 0a bd
       -0.011109604 0.048896518 0.053334698 -0.033843413
000300 2d 0c 92 bd 92 ac 00 3c c2 af 70 bd 28 0f 87 bc
       -0.071312286 0.007853644 -0.058761366 -0.01648672
000310 db c3 9a 3d 99 95 63 3d 78 e0 81 bc bb d7 51 3d
       0.07556888 0.05556259 -0.015854105 0.051231127
000320 93 b4 01 3d 34 b5 3c 3d 53 36 89 3d 0a 1a ad 3d
       0.03166635 0.046071246 0.06699815 0.08452232
000330 b2 83 59 3d ba 5c 81 3c 1b 95 f9 bb 45 e6 27 3d
       0.05310411 0.015791286 -0.0076166517 0.040991087
000340 ce 9a 2c 3d 5b 5d e8 3b 32 4f a6 bd 3f a4 2f 3d
       0.04213982 0.007091207 -0.08120574 0.042881247
000350 ea 48 71 3d 17 42 a9 3b 14 22 8e 3d 14 18 a0 bd
       0.058907427 0.005165349 0.06940094 -0.078170925
000360 f5 86 89 bd 87 3f 18 3d 87 b2 a7 3c 36 dd c6 bc
       -0.06715194 0.03716996 0.02047087 -0.024275403
000370 0f 39 6f 3d 50 ef a2 bd c2 ec 33 bc e6 bd f9 3c
       0.058404025 -0.079558015 -0.01098174 0.030486058
000380 cc ff a0 3c 68 55 93 3d 36 ed 8c bd c9 2f 5d 3d
       0.019653223 0.07194024 -0.06881182 0.05400065
000390 6b 9c cb bc a1 47 e1 b8 a2 a1 36 3c 4a a1 47 bd
       -0.02485486 -0.00010742178 0.011146935 -0.0487378
0003a0 20 e9 80 3d 32 2b a9 bc d2 6d db 3c 57 52 92 bd
       0.06294465 -0.02065048 0.026785765 -0.07144611
0003b0 95 85 9b bc e6 06 1b bb 05 4d e1 3b 70 21 49 3d
       -0.018984595 -0.0023655235 0.0068756365 0.049104154
0003c0 bd 61 a7 bd ca be 97 bd 69 11 85 3d 07 92 b7 3c
       -0.08172939 -0.07409437 0.06497461 0.022408498
0003d0 8b 77 07 bd af 96 0a 3d c9 a6 86 bd e0 b2 07 bc
       -0.03307299 0.03383511 -0.065747805 -0.008282393
0003e0 c0 f1 42 3d b8 69 a4 3d fc e6 f3 3c 47 df 92 bc
       0.047593832 0.08027977 0.029773228 -0.017928733
0003f0 fd ae ac 3d 54 c1 39 3d af 26 81 3d 74 ff 65 3d
       0.08431814 0.045350388 0.063062064 0.056151822

decoder.W_d.bias f4 [64]
000000 54 19 2a bd b0 09 91 bd 51 10 2c be d6 1e 98 bd
       -0.04152806 -0.07081926 -0.16803099 -0.074277565
000010 0e 67 73 3d dc 13 c6 bd af 81 c8 3c 2c 80 3d bd
       0.059424452 -0.096717566 0.0244759 -0.046264812
000020 44 26 6a 3d 54 06 22 be 73 4c a0 bb 00 ef bd bd
       0.0571654 -0.15822726 -0.004891926 -0.09274101
000030 a9 06 90 bc 28 61 d0 bd 39 2b a2 3d 74 9e b7 3d
       -0.0175813 -0.10174781 0.079184 0.089657694
000040 9c 7f a0 3d 1b 63 05 3c 81 c6 9e bc 87 32 6d bd
       0.078368396 0.008141304 -0.019381763 -0.057909515
000050 e9 fc 19 bc 39 b7 87 bd cc e2 b0 3d 79 a4 b1 bd
       -0.009398677 -0.06626744 0.08637008 -0.08673949
000060 20 3c 6f bd 82 74 5f bd 6c 1f 2e 3e 01 59 de bc
       -0.05840695 -0.05455447 0.17004174 -0.02714205
000070 18 47 91 bd bd 15 c8 bd cb 81 80 3d d8 48 a6 bd
       -0.07093638 -0.09769771 0.06274756 -0.081193626
000080 94 f3 92 bd 55 b7 87 3d 77 1c 2e 3d 62 fa 83 bd
       -0.07175365 0.06626765 0.042507615 -0.06444241
000090 6e 19 72 bd ea ed 9c bd 67 a1 13 3d c8 a9 26 3e
       -0.059106283 -0.07662566 0.036042597 0.16275704
0000a0 72 81 20 be 9a da 85 bd 40 48 ed bd 76 e7 b3 3d
       -0.1567438 -0.065358356 -0.11586046 0.08784382
0000b0 3e 1f dd bd 9c f7 48 3d 28 a9 36 bd 58 33 58 bd
       -0.107969746 0.049064264 -0.044594914 -0.05278334
0000c0 d4 8c 9c bd ac 1b 83 3a 2b ca 72 bd 4c 44 be bd
       -0.07644048 0.0010002754 -0.059274834 -0.0929037
0000d0 aa bc 1f 3d 41 23 15 3e 1b 99 9b 3d 32 be a9 3d
       0.038998283 0.1456423 0.07597562 0.0828823
0000e0 74 c4 9e bd 61 5a 97 3d 0f 56 49 3d 06 2e a2 bd
       -0.07752314 0.07390285 0.049154337 -0.079189345
0000f0 3f c6 80 bc 86 43 14 3e 05 38 79 3d 58 aa 9e bd
       -0.015719531 0.14478883 0.06084444 -0.07747334
