weights/DARNN_L3_HDE64_HDD64_BS32_E50_s5.pth (torch, 312242 bytes, 22 tensors)

encoder.lstm.weight_ih_l0 f4 [256, 81]
0.29743013 -0.119120926 0.32794666 0.06592455 0.2081445 0.1405337 0.20589958 0.04419784
0.14850602 0.0769716 0.0075234324 0.16403499 0.002031704 0.08627041 0.2059006 -0.10596982
0.15993766 -0.17952043 -0.10416556 0.010905334 -0.054243606 0.026190747 0.016272696 0.18436053
0.07514584 0.094920255 0.10224524 -0.08112483 0.15423092 -0.001092948 -0.10785596 0.05132274
-0.10586565 -0.03324955 0.018134372 0.02726741 0.05303984 -0.28483245 0.07338072 0.42086414
0.07658338 0.061797787 0.011888373 0.16144286 -0.045835577 0.05241532 0.24998614 0.0819251
0.07893116 0.20254861 0.039314847 -0.10037719 -0.09149341 0.15348655 0.41491023 0.16923143
0.36921135 -0.029897477 -0.037963573 0.31165245 0.12783132 -0.19901282 0.03663397 -0.14007214
-0.1901914 0.33347574 0.27653623 0.42423657 0.036142144 0.036052328 -0.018664988 -0.1917001
-0.116411105 0.057029065 0.14098696 0.06722265 0.2278274 0.36312371 0.017269915 0.060572967
0.16947882 -0.036672115 0.28562355 0.10189066 0.09857397 -0.1504972 -0.059075642 -0.17670164
-0.03110041 -0.11845014 0.010901452 0.18149506 -0.063742705 -0.0037388562 -0.1711011 0.02558451
0.055888288 -0.110955514 0.22371633 0.0071620718 -0.012556247 -0.14676976 -0.1025706 -0.06449612
-0.07328245 -0.1369148 -0.16393691 0.048518237 -0.004063458 -0.05742792 -0.08151225 0.08482464
-0.10240869 -0.10576983 0.24122265 0.032128803 -0.1690998 -0.037044153 0.36076602 0.13823752
0.041682452 -0.042817578 0.049703628 -0.071416214 -0.00667317 0.09783007 -0.04710239 -0.03295299
-0.14144005 0.123312585 -0.12597285 -0.09707305 -0.027993212 0.0057395454 -0.06885906 0.08224693
0.21177351 -0.16466078 -0.014913269 -0.08998879 -0.0023018545 0.16362001 -0.10873296 0.023493724
0.03475538 0.06697242 0.00835383 0.04061033 -0.045891613 0.018212665 -0.22108404 -0.013867158
0.049871497 0.14287807 -0.20256469 -0.24481341 -0.05761505 -0.19379954 -0.009227471 -0.10641882
-0.053639214 0.14934787 -0.011747097 0.11743648 0.162884 0.023308361 -0.04129241 -0.045031648
0.01798391 0.100709245 -0.08574986 0.1325299 0.08171092 0.0030378578 -0.08302454 -0.17402947
-0.03886566 -0.08850962 -0.08270741 -0.071362495 -0.063364685 -0.06766154 0.034354478 -0.16485286
-0.022284102 0.08187714 0.0014523158 0.016518205 0.13982561 -0.06327541 -0.027037978 0.00954485
0.06616393 0.08968828 -0.13503271 0.07150853 -0.039108038 -0.0065585678 -0.08961349 0.027978
-0.058978014 0.01634244 -0.01126602 0.032970984 0.0864392 0.018001972 0.043590408 0.1567255
0.07567213 -0.13069496 0.22289409 0.022001388 -0.10339879 0.0604088 -0.12175008 0.17387345
0.095070325 -0.05440453 -0.08706753 0.025309874 -0.08251317 0.12432679 -0.0877163 1.5800859e-05
0.039564703 -0.00802694 -0.124838404 -0.021796333 0.11454523 0.11449153 -0.044710603 -0.091214046
0.019053971 0.08352818 -0.05610797 -0.043329526 -0.10373817 0.09582289 -0.07819333 0.026561152
-0.041602258 0.0032128862 0.06936848 0.06575104 -0.22179398 -0.10601414 -0.21127895 0.008268857
-0.07069151 -0.07781767 -0.12973583 -0.1786537 -0.21051803 -0.31145525 -0.035993036 -0.26924315
00000000: c348 983e acf5 f3bd a0e8 a73e 7303 873d
00000010: d523 553e 11e8 0f3e 57d7 523e cb08 353d
00000020: f611 183e 49a3 9d3d 2087 f63b caf8 273e
00000030: 5626 053b 8aae b03d 9bd7 523e b406 d9bd
00000040: b3c6 233e 34d4 37be c154 d5bd 49ac 323c
00000050: 8b2e 5ebd fa8d d63c 514e 853c 02c9 3c3e
00000060: 10e6 993d 8d65 c23d f465 d13d c624 a6bd
00000070: b6ee 1d3e 4041 8fba 96e3 dcbd cb37 523d
00000080: 17d0 d8bd ae30 08bd 898e 943c e75f df3c
00000090: 4e40 593d 8fd5 91be a248 963d 817b d73e
000000a0: bfd7 9c3d ad1f 7d3d 73c7 423c 4751 253e
000000b0: 16be 3bbd 72b1 563d 5efc 7f3e 59c8 a73d
000000c0: a9a6 a13d e768 4f3e 9b08 213d 8e92 cdbd
000000d0: e660 bbbd 942b 1d3e 1d6f d43e 014b 2d3e
000000e0: 4509 bd3e 8eeb f4bc b17f 1bbd e990 9f3e
000000f0: 37e6 023e 04ca 4bbe 800d 163d 126f 0fbe
00000100: 89c1 42be 55bd aa3e 2896 8d3e 8935 d93e
00000110: c909 143d 9bab 133d 51e7 98bc 084d 44be
00000120: f268 eebd 4f97 693d e35e 103e 07ac 893d
00000130: 964b 693e 5aeb b93e a379 8d3c 5c1b 783d
00000140: db8b 2d3e 8035 16bd 403d 923e 0dac d03d
00000150: 26e1 c93d f01b 1abe 4df9 71bd 46f1 34be
00000160: 49c6 febc fd95 f2bd 019c 323c d7d9 393e
00000170: 898b 82bd 9907 75bb 2035 2fbe 9b96 d13c
00000180: 1eeb 643d a53c e3bd e515 653e d0af ea3b
00000190: b8b8 4dbc d04a 16be 8910 d2bd 8b16 84bd
000001a0: 1c15 96bd 6533 0cbe 14df 27be 0fbb 463d
000001b0: c226 85bb 8a39 6bbd e5ef a6bd 8ab8 ad3d
000001c0: a6bb d1bd da9d d8bd 1203 773e 7e99 033d
000001d0: 7f28 2dbe 9cbb 17bd 53b6 b83e 238e 0d3e
000001e0: 38bb 2a3d 7c61 2fbd 0896 4b3d aa42 92bd
000001f0: 9baa dabb 225b c83d 70ee 40bd b7f9 06bd
00000200: a9d5 10be 4f8b fc3d 07ff 00be 3cce c6bd
00000210: 0552 e5bc cc12 bc3b fb05 8dbd 1471 a83d
00000220: 28db 583e d69c 28be c956 74bc 0b4c b8bd
00000230: b6da 16bb 018c 273e 63af debd e975 c03c
00000240: a85b 0e3d d628 893d 81de 083c 0457 263d
00000250: d8f8 3bbd ba32 953c db63 62be 1433 63bc
00000260: 0e46 4c3d a14e 123e 1e6d 4fbe 5eb0 7abe
00000270: c2fd 6bbd 6373 46be d22e 17bc 1cf2 d9bd
00000280: cbb4 5bbd a6ee 183e e576 40bc 8a82 f03d
00000290: 10cb 263e 2df1 be3c 3b22 29bd 1b73 38bd
000002a0: fe52 933c a640 ce3d 9f9d afbd ebb5 073e
000002b0: 0e58 a73d cc16 473b c508 aabd c834 32be
000002c0: 9931 1fbd 8844 b5bd 8162 a9bd 8026 92bd
000002d0: 58c5 81bd 2292 8abd 48b7 0c3d 30cf 28be
000002e0: 268d b6bc 34af a73d a25b be3a 3051 873c
000002f0: 722e 0f3e 8a96 81bd c07e ddbc 0162 1c3c
00000300: f480 873d 7dae b73d 0446 0abe 1073 923d
00000310: c02f 20bd 41e9 d6bb 4787 b7bd 1e32 e53c
00000320: ee92 71bd 95e0 853c 1d95 38bc 950c 073d
00000330: 0907 b13d df78 933c db8b 323d a67c 203e
00000340: fdf9 9a3d e6d4 05be 593e 643e 413c b43c
00000350: bfc2 d3bd 386f 773d 1b58 f9bd e20b 323e
00000360: 3bb4 c23d 49d7 5ebd 7650 b2bd a756 cf3c
00000370: aafc a8bd 0b9f fe3d 9aa4 b3bd 168c 8437
00000380: 990e 223d 6d83 03bc 47ab ffbd 398e b2bc
00000390: b196 ea3d 897a ea3d 7722 37bd 6ece babd
000003a0: 1317 9c3c d310 ab3d 79d1 65bd 4d7a 31bd
000003b0: ad74 d4bd cb3e c43d d323 a0bd c696 d93c
000003c0: 2167 2abd 498f 523b 1011 8e3d 7ba8 863d
000003d0: f61d 63be f11d d9bd 8259 58be 1a7a 073c
000003e0: b6c6 90bd df5e 9fbd 78d9 04be fff0 36be
000003f0: 0a92 57be 1077 9fbe 6f6d 13bd 3dda 89be

encoder.lstm.weight_hh_l0 f4 [256, 64]
0.3353771 0.14969467 -0.21197143 0.11949546 -0.1491162 -0.23422885 -0.06909274 -0.32879305
0.27003765 -0.18269801 -0.1335957 -0.16040325 0.0717669 0.032674197 -0.034773115 0.051822856
-0.19351806 -0.014185693 0.044786807 0.1848665 -0.20587024 0.31711215 0.124540396 -0.014378252
0.047332674 -0.045281902 0.18494463 0.16793105 0.07491028 0.03846306 -0.23211946 0.28914598
-0.058793742 0.024470342 -0.013367189 -0.18924756 0.07820228 -0.070511624 0.19168545 -0.14785749
0.21927409 0.24270035 -0.0886579 -0.38164914 -0.030583097 0.09170841 -0.1786102 -0.36291358
-0.49359325 0.19514528 0.11247617 0.15868533 -0.091385886 -0.2366774 -0.113094926 -0.2078105
-0.10445004 0.016731113 0.28054303 -0.0081177 0.028398842 -0.19543372 -0.026686605 -0.24766316
0.0937129 -0.07964948 0.017575141 0.14587627 0.12996121 0.09464862 0.0613187 0.09143684
-0.070106626 0.006823991 0.15109535 0.17176753 -0.012011801 -0.14361337 -0.025087295 0.098672226
0.1752131 0.08129424 -0.04500431 -0.08189746 -0.09324095 0.08126981 0.08091201 -0.012159294
0.10109991 0.004892011 0.19221996 0.0293685 0.053210042 0.23195368 0.053285558 0.011992883
0.028572874 -0.062226977 -0.09529028 0.070099644 -0.013595836 0.09746192 -0.05713949 0.12348985
-0.084599465 0.104044996 0.036479767 0.27651724 0.07137816 -0.094535306 -0.15166537 0.15296036
0.19116433 -0.17750277 -0.038912456 -0.08877536 -0.012676782 0.018302448 -0.013102321 -0.039347995
0.08274318 0.10883473 -0.051755056 -0.047149807 -0.16518594 0.06325934 -0.15356685 0.08341083
0.09793722 0.073385954 0.043901425 0.039947577 0.15086275 -0.07256821 0.113690235 -0.037984014
0.057794638 0.12079541 0.065334626 -0.0049860715 -0.11087474 0.05974835 0.042140987 0.09141837
0.10893118 -0.11308963 0.08245531 0.07517526 0.13029583 0.11907407 0.0255933 0.0784627
0.023932813 -0.024398318 -0.11399684 0.03281857 0.1188973 0.06688181 0.06690203 -0.09687373
0.0665992 0.118281685 0.09208524 -0.0001720853 -0.0810148 -0.011694319 0.0535318 0.10501162
-0.011180086 0.010518185 0.009584505 0.093849085 -0.0819041 -0.052885324 -0.05947258 0.010820339
-0.1182146 0.055698894 0.10198316 0.11641539 -0.009194174 0.13418898 0.066210784 0.019443538
-0.020259937 0.090557076 0.11347597 0.031049566 0.06472047 0.07895065 -0.09481401 0.039134
-0.10762919 -0.17174357 0.102750674 0.03042361 -0.038236212 -0.115992144 -0.0173581 -0.019846909
-0.008312092 0.10317472 0.15986013 -0.06320916 0.07845504 -0.14553459 -0.062079314 -0.16638465
0.049707096 -0.03300336 0.052538358 -0.10730628 -0.044592004 0.1257464 0.055438813 0.011841298
-0.16016094 0.029262591 -0.08834632 0.1071 -0.0882501 -0.07656232 -0.00030919162 -0.14826977
0.081377335 0.070029505 0.100821525 -0.121869594 -0.06423904 0.028307939 -0.024099657 -0.17534819
-0.01103538 0.08291078 -0.029211098 -0.049411003 0.07127899 -0.09441532 -0.0666377 -0.12036998
-0.14074421 0.1072719 -0.067251295 -0.07577321 0.011519753 -0.0009864543 0.15538634 0.13203867
-0.05601982 -0.06856227 0.04595396 0.21592006 -0.00787908 0.12770908 -0.06029662 -0.07154765
00000000: 8cb6 ab3e 8f49 193e 0a0f 59be 09ba f43d
00000010: ebb1 18be b0d9 6fbe 7f80 8dbd 9057 a8be
00000020: 6042 8a3e 3015 3bbe 50cd 08be c040 24be
00000030: 86fa 923d 61d5 053d 416e 0ebd 3444 543d
00000040: 9929 46be 1c6b 68bc 5f72 373d a54d 3d3e
00000050: a6cf 52be 865c a23e 090f ff3d c392 6bbc
00000060: e8df 413d 8479 39bd 2062 3d3e 1ef6 2b3e
00000070: 906a 993d 718b 1d3d b9b0 6dbe f10a 943e
00000080: b5d1 70bd 0776 c83c 0e02 5bbc 1dca 41be
00000090: 8428 a03d 6668 90bd 3149 443e f467 17be
000000a0: 6389 603e 7186 783e 4692 b5bd 8467 c3be
000000b0: 6789 fabc 9ed1 bb3d 98e5 36be cfcf b9be
000000c0: 41b8 fcbe 2ad4 473e e859 e63d 687e 223e
000000d0: 8628 bbbd 8f5b 72be 509e e7bd 47cc 54be
000000e0: e7e9 d5bd b00f 893c 56a3 8f3e 1a00 05bc
000000f0: b0a4 e83c c71f 48be de9d dabc 699b 7dbe
00000100: 8dec bf3d 441f a3bd bef9 8f3c 9760 153e
00000110: 8d14 053e 23d7 c13d 5129 7b3d 3d43 bb3d
00000120: 1094 8fbd c99b df3b bdb8 1a3e d4e3 2f3e
00000130: 25cd 44bc 620f 13be df83 cdbc aa14 ca3d
00000140: 106b 333e 987d a63d 7056 38bd dbb9 a7bd
00000150: 1cf5 bebd c970 a63d 32b5 a53d c737 47bc
00000160: 780d cf3d 2a4d a03b 4fd5 443e 3596 f03c
00000170: c6f2 593d 4485 6d3e f541 5a3d cc7d 443c
00000180: a911 ea3c b7e1 7ebd 8d27 c3bd 6790 8f3d
00000190: 12c1 5ebc 1d9a c73d 190b 6abd 3fe8 fc3d
000001a0: 7c42 adbd 8b15 d53d cf6b 153d ab93 8d3e
000001b0: b62e 923d ba9b c1bd 2b4e 1bbe a4a1 1c3e
000001c0: 95c0 433e 49c3 35be ab62 1fbd dbcf b5bd
000001d0: 47b2 4fbc 04ef 953c 1eab 56bc 5d2b 21bd
000001e0: 4275 a93d bee4 de3d 1cfd 53bd 2820 41bd
000001f0: 8126 29be 1d8e 813d a140 1dbe 4cd3 aa3d
00000200: 4f93 c83d 604b 963d fbd1 333d 12a0 233d
00000210: c47b 1a3e a49e 94bd 6dd6 e83d 2095 1bbd
00000220: 12ba 6c3d 9563 f73d 29ce 853d 3362 a3bb
00000230: 4c12 e3bd b0ba 743d 079c 2c3d 8e39 bb3d
00000240: 4f17 df3d 899b e7bd 54de a83d 7df5 993d
00000250: 456c 053e 1bdd f33d 0aa9 d13c 0db1 a03d
00000260: bf0e c43c fbde c7bc 2d77 e9bd c46c 063d
00000270: 6d80 f33d 55f9 883d ee03 893d bc65 c6bd
00000280: 2965 883d ab3d f23d 3097 bc3d cc71 34b9
00000290: 16eb a5bd 8799 3fbc 2944 5b3d 5510 d73d
000002a0: ae2c 37bc 7754 2c3c 5408 1d3c f333 c03d
000002b0: 56bd a7bd 489e 58bd 8599 73bd cb47 313c
000002c0: 7f1a f2bd 8624 643d 8cdc d03d 316b ee3d
000002d0: 29a3 16bc d668 093e 8599 873d 0e48 9f3c
000002e0: 2bf8 a5bc fd75 b93d 1766 e83d a95b fe3c
000002f0: 2a8c 843d e1b0 a13d d92d c2bd f94a 203d
00000300: b16c dcbd 8cdd 2fbe f26e d23d ef3a f93c
00000310: 939d 1cbd 4a8d edbd 9332 8ebc fc95 a2bc
00000320: 712f 08bc 454d d33d 60b2 233e ce73 81bd
00000330: 09ad a03d 0507 15be e146 7ebd bd60 2abe
00000340: ab99 4b3d 882e 07bd 7632 573d 65c3 dbbd
00000350: 1ba6 36bd aac3 003e cf13 633d 0102 423c
00000360: 3b01 24be 1ab8 ef3c eaee b4bd 3f57 db3d
00000370: 78bc b4bd b5cc 9cbd ff1a a2b9 08d4 17be
00000380: 29a9 a63d a16b 8f3d 847b ce3d c496 f9bd
00000390: c28f 83bd 0de6 e73c a56c c5bc 7a8e 33be
000003a0: bdcd 34bc 21cd a93d 1d4c efbc 3163 4abd
000003b0: b8fa 913d d25c c1bd 5979 88bd 8984 f6bd
000003c0: 401f 10be 5fb1 db3d 0cbb 89bd fc2e 9bbd
000003d0: 59bd 3c3c ea4b 81ba 991d 1f3e 2535 073e
000003e0: 0a75 65bd 606a 8cbd 383a 3c3d 261a 5d3e
000003f0: 4217 01bc 2bc6 023e 97f9 76bd 9387 92bd

encoder.lstm.bias_ih_l0 f4 [256]
0.08156237 -0.19326508 -0.083047114 -0.115457855 -0.36356935 0.10537966 -0.110230096 0.041680034
0.16398321 -0.051366862 -0.10414684 -0.10619407 -0.009993744 -0.3243868 -0.057798438 -0.091369644
-0.0570222 0.020653922 0.20313863 0.17351058 -0.048886966 0.07545589 0.1973578 0.11210557
-0.09910535 -0.15063587 -0.15364823 -0.022331703 -0.10843994 -0.10782295 -0.21083593 -0.06917599
-0.14086221 -0.16320834 -0.023295451 0.56468725 -0.15695846 -0.2057831 0.032413322 0.49651465
-0.0999511 0.11299411 0.13662347 0.09559085 0.12994802 0.3376453 -0.14687404 1.0222826
0.8766436 -0.08627485 -0.028249044 -0.14968969 0.083797924 -0.04689035 -0.082401395 -0.052481584
0.07747909 -0.016199358 -0.050655425 -0.000576537 0.17034614 -0.0576351 0.29674554 0.2298241
0.05635668 0.1354914 -0.024511091 -0.39228982 -0.09490825 -0.021526223 -0.4251188 -0.2425966
-0.22836682 0.03459954 -0.5574474 -0.06745364 -0.254946 -0.16623248 0.023464752 -0.09455048
-0.18233627 0.18972294 -0.24962668 -0.066215076 -0.18967614 -0.031072557 -0.15540305 -0.20780118
0.13098073 -0.06393228 -0.020532135 0.08133806 -0.07121512 -0.30920917 -0.3560604 -0.09401284
0.01401436 -0.13022387 -0.11183632 0.014429195 -0.15489285 0.06836629 -0.056637026 -0.20474756
-0.3158455 -0.055400953 -0.13682258 -0.3398294 -0.095736556 -0.17949383 -0.33433592 -0.21470867
-0.24307273 -0.14371938 -0.22037056 -0.49201885 -0.1180441 -0.18961625 0.10368853 0.19452775
0.18098669 -0.08014046 0.0018665976 0.19808066 -0.1062319 -0.18566392 -0.36674067 -0.07621748
0.033134535 0.01410904 0.04271997 -0.03682358 0.035041727 0.053540032 0.14650021 0.1058429
-0.11326142 0.039439753 -0.06593163 -0.07384994 -0.096477754 -0.056208465 0.0401037 0.05721647
-0.027027432 0.048973985 0.02119721 -0.089618936 -0.06663774 -0.041979745 -0.06579013 -0.0038009193
-0.050676495 -0.023949333 0.011492316 -0.089487314 -0.00836472 0.017095583 0.023234721 -0.0099175265
0.05792046 -0.02830152 -0.045543566 0.12705839 0.0131049715 0.07530392 -0.003406795 0.005626033
-0.101744644 -0.009260379 0.06902317 0.08470771 0.12892228 -0.029958876 -0.029953977 0.18367267
0.06608348 0.01330627 -0.03741518 0.066016644 0.08024408 0.037106283 -0.0053033507 -0.009727623
0.05598745 0.055784676 -0.04299471 -0.07020435 -0.075969376 -0.06456085 0.005847816 -0.039076593
0.14029054 -0.13801979 0.027007375 0.07698469 -0.16325334 0.089731455 -0.18816273 0.15318842
0.20082112 -0.051653344 0.025225217 0.057214215 0.046851937 -0.30505258 -0.03973969 0.071493715
-0.03552715 -0.07515402 -0.025953216 -0.031272527 -0.03660977 0.06857277 0.31963596 0.07015902
-0.05377091 -0.12410971 -0.1687333 -0.015898678 0.10218328 -0.0057173735 -0.14066908 0.037710898
-0.093876705 -0.13554849 0.041787926 0.6063425 -0.1018059 -0.20019083 -0.10597016 0.51518875
-0.035886172 0.1235455 0.069277115 0.016349055 0.027417371 0.5444993 -0.009075379 0.8789189
0.717496 -0.026985526 0.028101003 -0.025004808 -0.16391623 -0.25879118 0.012709503 -0.21512154
0.13157482 -0.17767091 -0.0053734 0.14641519 0.18057413 -0.075991794 0.34583244 0.21551108
00000000: 2c0a a73d 48e7 45be 9b14 aabd 2b75 ecbd
00000010: c325 babe 4bd1 d73d 51c0 e1bd afb8 2a3d
00000020: 37eb 273e 0f66 52bd f04a d5bd 477c d9bd
00000030: cdbc 23bc 0716 a6be 0ebe 6cbd 0220 bbbd
00000040: 1c90 69bd 6a32 a93c 9303 503e c2ac 313e
00000050: b33d 48bd 9e88 9a3d 2a18 4a3e 9b97 e53d
00000060: bff7 cabd 4a40 1abe f655 1dbe faf0 b6bc
00000070: c215 debd 47d2 dcbd 60e5 57be 24ac 8dbd
00000080: 2f3e 10be 1620 27be 1ad6 bebc 588f 103f
00000090: b8b9 20be ceb8 52be d5c3 043d 2b37 fe3e
000000a0: 2ab3 ccbd 7569 e73d 06e7 0b3e 23c5 c33d
000000b0: 1811 053e d8df ac3e 2666 16be 28da 823f
000000c0: b76b 603f deb0 b0bd 8a6a e7bc 4148 19be
000000d0: 3f9e ab3d 1810 40bd 10c2 a8bd eef6 56bd
000000e0: 5bad 9e3d 84b4 84bc 107c 4fbd be22 17ba
000000f0: 386f 2e3e c812 6cbd 08ef 973e 0257 6b3e
00000100: 43d6 663d 42be 0a3e 7ccb c8bc 36da c8be
00000110: 425f c2bd c357 b0bc 2ca9 d9be 3e6b 78be
00000120: fed8 69be 3fb8 0d3d dfb4 0ebf 2225 8abd
00000130: 4888 82be d938 2abe 2739 c03c afa3 c1bd
00000140: 5cb6 3abe bb46 423e 239e 7fbe c59b 87bd
00000150: 763a 42be e08b febc fa21 1fbe d5c9 54be
00000160: d01f 063e edee 82bd 0233 a8bc 9294 a63d
00000170: 3cd9 91bd aa50 9ebe 8c4d b6be ce89 c0bd
00000180: 7c9c 653c 6859 05be 710a e5bd 6e68 6c3c
00000190: 3b9c 1ebe a003 8c3d 3afc 67bd 58a9 51be
000001a0: 80b6 a1be 1cec 62bd 381b 0cbe 1efe adbe
000001b0: 8711 c4bd 3bcd 37be 142e abbe 97dc 5bbe
000001c0: 0fe8 78be 2c2b 13be d2a8 61be e5e9 fbbe
000001d0: 1bc1 f1bd c32a 42be a75a d43d 4832 473e
000001e0: 9354 393e ae20 a4bd 9fa8 f43a a8d5 4a3e
000001f0: 1c90 d9bd af1e 3ebe 6fc5 bbbe e917 9cbd
00000200: 14b8 073d 9a29 673c 23fb 2e3d 52d4 16bd
00000210: ea87 0f3d cb4c 5b3d 2704 163e 2ac4 d83d
00000220: 9af5 e7bd 948b 213d 2a07 87bd a33e 97bd
00000230: 2196 c5bd d93a 66bd c743 243d d15b 6a3d
00000240: a268 ddbc f298 483d c5a5 ad3c 228a b7bd
00000250: 5e79 88bd f4f2 2bbd fabc 86bd d818 79bb
00000260: 2892 4fbd 6431 c4bc 444a 3c3c 2045 b7bd
00000270: 2e0c 09bc 090c 8c3c be56 be3c 1f7d 22bc
00000280: 013e 6d3d 97d8 e7bc e48b 3abd 981b 023e
00000290: 3cb6 563c f138 9a3d 8944 5fbb 965a b83b
000002a0: 7f5f d0bd d8b8 17bc 055c 8d3d 3c7b ad3d
000002b0: 3404 043e 516c f5bc 0b62 f5bc b014 3c3e
000002c0: c756 873d 8b02 5a3c a940 19bd bc33 873d
000002d0: 0257 a43d c2fc 173d bbc7 adbb 9c60 1fbc
000002e0: 1953 653d 797e 643d 391b 30bd 4cc7 8fbd
000002f0: d595 9bbd 7b38 84bd 099f bf3b c70e 20bd
00000300: 53a8 0f3e 0f55 0dbe 923e dd3c 26aa 9d3d
00000310: e22b 27be 20c5 b73d bbad 40be 6ddd 1c3e
00000320: 0da4 4d3e 7592 53bd 1da5 ce3c 7459 6a3d
00000330: d1e7 3f3d da2f 9cbe 16c6 22bd 4c6b 923d
00000340: eb84 11bd 5aea 99bd d79b d4bc 9f17 00bd
00000350: 20f4 15bd e16f 8c3d 53a7 a33e 88af 8f3d
00000360: e33e 5cbd 3b2d febd 6cc8 2cbe f23d 82bc
00000370: 7845 d13d ce58 bbbb 8e0b 10be be76 1a3d
00000380: 6e42 c0bd 39cd 0abe d129 2b3d 4339 1b3f
00000390: 9d7f d0bd d3fe 4cbe e206 d9bd 69e3 033f
000003a0: 61fd 12bd 6c05 fd3d 29e1 8d3d 74ee 853c
000003b0: 659a e03c 4e64 0b3f e6b0 14bc d400 613f
000003c0: d1ad 373f c010 ddbc 1334 e63c e2d6 ccbc
000003d0: a8d9 27be 4780 84be 853b 503c d248 5cbe
000003e0: 8dbb 063e 5def 35be 5913 b0bb dded 153e
000003f0: 6de8 383e 96a1 9bbd f310 b13e f0ae 5c3e

encoder.lstm.bias_hh_l0 f4 [256]
-0.004164808 -0.0695339 0.029562196 -0.089872904 -0.12937036 0.14470494 -0.1639317 0.12059871
0.03696496 -0.1908194 -0.11809043 -0.011439801 -0.04741497 -0.17368892 -0.07267866 0.08124144
-0.17151135 0.094207555 0.2149822 0.0142820915 0.13273977 0.026562082 0.26205966 0.047524467
0.0021391877 -0.2480542 -0.081714466 0.051763467 -0.057849932 -0.0013013321 -0.22449414 -0.052274164
-0.059043683 -0.014477735 0.16437966 0.6054939 -0.18281542 -0.12729703 0.013878817 0.31892172
-0.14795108 0.015184925 0.08276373 0.16617708 0.10936706 0.54556704 -0.154574 1.0814683
0.75301796 -0.12352502 0.025012335 -0.02298693 0.06800531 -0.15589118 0.027121384 0.016766092
0.119975634 -0.04084516 0.015172535 0.024983563 0.010599361 -0.1534138 0.23585401 0.19001393
0.08844897 -0.028250426 -0.06843779 -0.35540828 -0.049158163 0.12874365 -0.47646564 -0.10104135
-0.159892 0.12317699 -0.52234524 0.059555028 -0.19881845 -0.16193971 -0.08337317 -0.101642825
-0.17876719 0.12436047 -0.12298525 -0.26282865 -0.16411379 -0.019020198 -0.19829486 -0.2089183
0.13146663 -0.10170038 -0.039101876 -0.04398993 -0.25345775 -0.3566961 -0.32997668 -0.30722055
-0.01460952 -0.19560447 -0.1877097 -0.020560423 -0.040737238 -0.01455534 -0.06485046 -0.08153064
-0.30967212 0.06825159 -0.07048292 -0.17090946 -0.13801263 -0.18757752 -0.51931304 -0.16375989
-0.27534032 -0.11774155 -0.12471654 -0.5044352 -0.08985312 -0.052694596 0.05736067 0.13367185
0.12897263 -0.08275243 -0.024640562 0.28195953 -0.23278184 -0.15413314 -0.407279 -0.098583
-0.10605013 -0.009693686 0.0035144333 0.08591334 -0.020292275 -0.042537577 -0.07749256 -0.057947945
0.05311408 -0.035683803 0.0533834 0.10888888 0.047077917 0.049406238 -0.0513413 0.002830983
0.06253652 0.012477937 -0.07062 0.037209075 -0.0071477797 0.01312728 -0.043566577 -0.02098655
0.061875287 0.011578948 0.028453726 0.03151136 0.035181157 0.023708414 0.007249083 -0.042070944
-0.025932277 0.08800056 -0.030648736 0.05920569 -0.048445318 -0.03083428 -0.04469148 0.13817424
0.054726202 -0.04448703 0.05430738 -0.03621779 -0.07892332 -0.11270537 0.015690979 -0.009237272
0.08430024 -0.054687656 -0.035783827 -0.08505598 -0.041028045 -0.013997718 -0.05585027 -0.039852396
-0.03194079 -0.0040923064 0.043680653 -0.04488872 -0.0013472565 0.017312203 -0.113406524 0.11435308
0.14771225 -0.17659324 -0.01810903 0.025342366 -0.26431862 0.28450388 -0.2133056 0.048820943
0.20464431 -0.2754288 -0.02189755 -0.08518738 0.089071825 -0.23447935 -0.16438988 0.042028707
-0.09159802 0.10358148 0.038636785 0.082025625 0.10613832 -0.13342431 0.10739456 -0.062138446
-0.13303538 -0.26002496 -0.01599198 -0.06629753 -0.01187021 0.008840634 -0.059936397 -0.074305765
0.04820753 -0.043807313 0.004575174 0.4750837 -0.10386407 -0.18856333 -0.048156235 0.44450203
-0.11398946 0.02897231 0.195573 0.2012492 0.034091834 0.36029962 -0.15028341 1.0335122
0.95657706 0.041287508 0.038736325 -0.011319601 0.039033465 -0.26690295 0.018087564 -0.031295344
0.115137614 -0.054671533 -0.037661653 -0.08302239 0.20710096 0.015548437 0.24770433 0.08877515
00000000: f178 88bb ca67 8ebd 6b2c f23c 490f b8bd
00000010: aa79 04be 882d 143e b6dd 27be 75fc f63d
00000020: 9268 173d 2966 43be 65d9 f1bd 016e 3bbc
00000030: 3336 42bd 82db 31be 8dd8 94bd e961 a63d
00000040: aca0 2fbe e4ef c03d 4b24 5c3e 6fff 693c
00000050: efec 073e b998 d93c af2c 863e 04a9 423d
00000060: 9d31 0c3b ec01 7ebe ea59 a7bd ee05 543d
00000070: 0df4 6cbd 7691 aaba cbe1 65be 6f1d 56bd
00000080: cad7 71bd 0634 6dbc 2453 283e a601 1b3f
00000090: f733 3bbe 275a 02be fa63 633c b549 a33e
000000a0: 7d80 17be 31ca 783c 0880 a93d 532a 2a3e
000000b0: d6fb df3d 48aa 0b3f a648 1ebe 8e6d 8a3f
000000c0: c9c5 403f b0fa fcbd abe6 cc3c 164f bcbc
000000d0: 5e46 8b3d f0a1 1fbe aa2d de3c 0b59 893c
000000e0: c9b5 f53d 414d 27bd 3996 783c 54aa cc3c
000000f0: f1a8 2d3c 8218 1dbe b783 713e 0393 423e
00000100: bc24 b53d 706d e7bc 1d29 8cbd 13f8 b5be
00000110: 125a 49bd 60d5 033e 4ef3 f3be c4ee cebd
00000120: baba 23be 3844 fc3d 6bb8 05bf f9ef 733d
00000130: 1097 4bbe 86d3 25be 8dbf aabd 1d2a d0bd
00000140: bf0e 37be b4b0 fe3d b1df fbbd 7a91 86be
00000150: 720d 28be 3fd0 9bbc cf0d 4bbe aeee 55be
00000160: 309f 063e 4a48 d0bd 4a29 20bd c92e 34bd
00000170: 37c5 81be dfa0 b6be b4f2 a8be 034c 9dbe
00000180: c55c 6fbc 8a4c 48be f936 40be 556e a8bc
00000190: 17dc 26bd 8579 6ebc 51d0 84bd 89f9 a6bd
000001a0: 588d 9ebe 7dc7 8b3d 5959 90bd e402 2fbe
000001b0: 2f53 0dbe 5214 40be b3f1 04bf acb0 27be
000001c0: 68f9 8cbe 7b22 f1bd 636b ffbd aa22 01bf
000001d0: ea04 b8bd 4ad6 57bd 06f3 6a3d 46e1 083e
000001e0: 6711 043e 1b7a a9bd 01db c9bc 005d 903e
000001f0: 5d5e 6ebe 14d5 1dbe e086 d0be e2e5 c9bd
00000200: d030 d9bd 44d2 1ebc 6852 663b 55f3 af3d
00000210: fc3b a6bc e23b 2ebd 6bb4 9ebd d35a 6dbd
00000220: 268e 593d 2e29 12bd 8da8 5a3d 2201 df3d
00000230: c6d4 403d 325e 4a3d 414b 52bd 0388 393b
00000240: 2613 803d 4370 4c3c 38a1 90bd 8b68 183d
00000250: ec37 eabb ce13 573c de72 32bd fceb abbc
00000260: f170 7d3d a1b5 3d3c ca17 e93c 0e12 013d
00000270: 1e1a 103d 2638 c23c b789 ed3b 9552 2cbd
00000280: ed6f d4bc a339 b43d 0f13 fbbc aa81 723d
00000290: 996e 46bd 2c98 fcbc 6a0e 37bd 8c7d 0d3e
000002a0: 9528 603d 0838 36bd 6a71 5e3d 1b59 14bd
000002b0: 8da2 a1bd 13d2 e6bd 5e8a 803c ed57 17bc
000002c0: 9ba5 ac3d 2a00 60bd 1092 12bd d431 aebd
000002d0: 060d 28bd af56 65bc 41c3 64bd 443c 23bd
000002e0: 59d4 02bd c118 86bb 7cea 323d 3cdd 37bd
000002f0: 6d96 b0ba 52d2 8d3c ae41 e8bd f331 ea3d
00000300: e141 173e dcd4 34be 6359 94bc cb9a cf3c
00000310: c554 87be 7eaa 913e c96c 5abe 78f8 473d
00000320: 478e 513e 0105 8dbe 7e62 b3bc b976 aebd
00000330: 4a6b b63d 5b1b 70be d255 28be 4b26 2c3d
00000340: be97 bbbd 8722 d43d 9b41 1e3d 0dfd a73d
00000350: 0c5f d93d 62a0 08be aef1 db3d e284 7ebd
00000360: 6d3a 08be fe21 85be 9d01 83bc 00c7 87bd
00000370: 457b 42bc 4ed8 103c de7f 75bd 9f2d 98bd
00000380: 4275 453d 4c6f 33bd 57eb 953b 2c3e f33e
00000390: afb6 d4bd bf16 41be 793f 45bd c595 e33e
000003a0: 4e73 e9bd 5657 ed3c 4a44 483e 4514 4e3e
000003b0: e1a3 0b3d 3179 b83e e5e3 19be 214a 843f
000003c0: 3ce2 743f 171d 293d fba9 1e3d d975 39bc
000003d0: 8ee1 1f3d 81a7 88be 5f2c 943c 8c2f 00bd
000003e0: 45cd eb3d 42ef 5fbd 1b43 1abd a507 aabd
000003f0: 4612 543e dfbe 7e3c 34a6 7d3e bfcf b53d

encoder.U_e.weight f4 [3, 3]
0.066299416 0.42328346 0.09659208 0.2556866 0.2972559 0.07524295 0.048153788 0.44578055
-0.3638937
00000000: fdc7 873d 9cb8 d83e 12d2 c53d 5be9 823e
00000010: ed31 983e fa18 9a3d e83c 453d 593d e43e
00000020: 4650 babe

encoder.U_e.bias f4 [3]
-0.017675549 0.020893248 -0.52465856
00000000: 50cc 90bc 5128 ab3c 0650 06bf

encoder.W_e.weight f4 [3, 128]
-0.22507176 0.11867803 -0.0055343374 0.14957045 -0.13668428 -0.11192487 0.085303366 -0.042203676
0.1693487 -0.17410108 0.07670513 -0.20529404 -0.0008012384 0.06432245 -0.18156922 0.113191985
-0.101377666 0.13769008 -0.13240623 0.062057942 -0.078362785 0.078513026 0.09359974 -0.15438429
0.054371938 -0.118267246 0.13589582 0.0873752 0.12018996 0.08550109 -0.15416533 0.073742695
-0.10104628 0.1350908 -0.23400456 -0.04870012 0.22123934 -0.15299922 0.17681406 -0.017524164
0.083104834 0.109690346 -0.023175448 0.050691962 -0.10726411 0.088934876 -0.13935441 0.08102097
-0.01670017 0.18644907 0.14185911 0.02058554 0.12982997 -0.14739381 -0.23233673 -0.15923144
0.05821469 0.11119861 0.18347485 -0.18174781 -0.03294451 -0.20642091 -0.093445495 -0.05519179
-0.21666335 0.083850056 -0.14265841 0.1692262 -0.16846694 -0.20522991 0.02936901 -0.1684104
0.15881918 -0.08449789 0.114244744 -0.10960108 0.11898608 0.10153388 -0.12759568 0.22544762
-0.18415251 0.15277505 -0.12926053 0.08064544 -0.078245685 0.11989383 0.005491838 -0.12430622
0.14602768 -0.061133634 0.22983967 0.20464258 0.21191013 0.22397757 -0.006145286 0.09062111
-0.22858545 0.18529052 -0.26975393 -0.010136356 0.10758697 -0.12686914 0.088759325 -0.04401623
0.13129234 0.12014586 -0.0059216563 -0.07385227 -0.032584537 0.055706915 -0.111417465 0.03400891
0.069868185 0.075325385 0.06880955 0.08584515 0.011861812 -0.08878604 -0.1671612 -0.053204447
0.14811452 0.21411954 0.18496577 -0.2238256 -0.1214167 -0.23947872 -0.2309398 -0.053386178
0.12501043 -0.026123477 0.039121483 -0.23759957 0.12965007 0.12347243 -0.1651829 0.18493812
-0.27225015 -0.01850262 -0.21982422 0.13087855 -0.24415939 -0.082371384 -0.037058096 -0.05650546
0.145995 0.0034552203 0.12759255 -0.29139674 0.08496079 -0.2830806 -0.27363026 0.14979665
0.043562483 0.10138598 -0.24095206 -0.1601695 -0.104561746 -0.31476536 0.19836856 -0.11416087
0.075977445 -0.18439117 0.17567146 0.11205997 -0.076887794 0.14758217 -0.13993728 0.14794582
-0.16995394 -0.22619492 0.20158738 0.11017533 0.1804641 -0.11478501 0.28524917 0.20625466
0.15575631 -0.28609225 -0.22061212 -0.24421121 -0.17726141 0.029345287 0.07506682 0.13944569
-0.115228795 -0.056812536 -0.21197823 0.0076943776 0.17573269 0.21220264 0.101854466 0.22035486
0.10149228 -0.06905357 0.12392512 -0.058713973 0.18582901 0.24649705 -0.18721408 0.15144005
-0.15128395 0.1126186 -0.16305712 0.17230031 -0.16318037 -0.17906447 0.07647572 -0.13454837
0.09372583 -0.016061235 0.1844106 -0.3193905 0.10354369 -0.35293707 -0.22307535 0.22312307
-0.094228655 0.14083967 -0.20713289 -0.26187727 -0.07807373 -0.3258722 0.1989311 -0.19646813
0.12338355 -0.20924307 0.12664191 0.086276 -0.20446903 0.012389619 -0.24210727 0.17927442
-0.15415812 -0.2832045 0.16387296 0.22999692 0.15889142 -0.07394729 0.374571 0.19993597
0.24489392 -0.31202406 -0.298543 -0.2728571 -0.15580322 0.10452774 0.034255087 -0.01762406
-0.10806365 -0.100437015 -0.15608975 0.0073806425 0.106932245 0.2303423 0.17429039 0.16848503
00000000: 3679 66be 780d f33d 6359 b5bb ff28 193e
00000010: f7f6 0bbe de38 e5bd 88b3 ae3d c3dd 2cbd
00000020: bf69 2d3e 8e47 32be 9417 9d3d 9a38 52be
00000030: 330a 52ba 7dbb 833d 48ed 39be 33d1 e73d
00000040: 189f cfbd a1fe 0c3e 8095 07be 7830 7e3d
00000050: ab7c a0bd 70cb a03d 38b1 bf3d ea16 1ebe
00000060: 1cb5 5e3d 1936 f2bd 4628 0b3e c5f1 b23d
00000070: 2726 f63d 321b af3d 84dd 1dbe 6906 973d
00000080: 5af1 cebd 3e55 0a3e e49e 6fbe c779 47bd
00000090: 918c 623e d4ab 1cbe bf0e 353e d68e 8fbc
000000a0: de32 aa3d 55a5 e03d 70da bdbc 60a2 4f3d
000000b0: 49ad dbbd 7d23 b63d ecb2 0ebe 53ee a53d
000000c0: cbce 88bc 81ec 3e3e 8443 113e 02a3 a83c
000000d0: 26f2 043e 67ee 16be aee9 6dbe 910d 23be
000000e0: 8772 6e3d 19bc e33d d5e0 3b3e 191c 3abe
000000f0: d3f0 06bd 0160 53be 5a60 bfbd c910 62bd
00000100: ffdc 5dbe 94b9 ab3d 0c15 12be a249 2d3e
00000110: 9982 2cbe ca27 52be 4797 f03c c773 2cbe
00000120: 7fa1 223e 3b0d adbd 26f9 e93d 8876 e0bd
00000130: f9ae f33d fff0 cf3d 71a8 02be bedb 663e
00000140: 7a92 3cbe 1071 1c3e df5c 04be 7029 a53d
00000150: 463f a0bd e58a f53d e0f4 b33b 4294 febd
00000160: 4888 153e 4367 7abd 175b 6b3e d38d 513e
00000170: f8fe 583e 605a 653e 655e c9bb 8f97 b93d
00000180: 4e12 6abe ccbc 3d3e 301d 8abe f512 26bc
00000190: 8f56 dc3d fce9 01be 73c7 b53d 5d4a 34bd
000001a0: 8071 063e 080f f63d 740a c2bb dc3f 97bd
000001b0: 5d77 05bd ef2c 643d d72e e4bd ed4c 0b3d
000001c0: 0d17 8f3d 3244 9a3d 05ec 8c3d 95cf af3d
000001d0: 0c58 423c 75d5 b5bd 4e2c 2bbe e8ec 59bd
000001e0: 55ab 173e 2742 5b3e ab67 3d3e 8a32 65be
000001f0: 52a9 f8bd e939 75be 7c7b 6cbe 77ab 5abd
00000200: bc02 003e e700 d6bc d93d 203d 4d4d 73be
00000210: fdc2 043e 1ddf fc3d b525 29be 6b60 3d3e
00000220: 5f64 8bbe ce92 97bc 9a19 61be 0705 063e
00000230: eb04 7abe 54b2 a8bd 3bca 17bd 4572 67bd
00000240: b77f 153e fa70 623b 9fa7 023e f431 95be
00000250: ecff ad3d f1ef 90be 4419 8cbe 4b64 193e
00000260: 936e 323d 74a3 cf3d 23bc 76be 7903 24be
00000270: 7824 d6bd ed28 a1be 2121 4b3e 2dcd e9bd
00000280: 109a 9b3d 0ad1 3cbe 38e3 333e b37f e53d
00000290: 5977 9dbd c81f 173e b84b 0fbe 1c7f 173e
000002a0: 6808 2ebe a49f 67be ec6c 4e3e 9aa3 e13d
000002b0: 95cb 383e 6714 ebbd 2e0c 923e 6c34 533e
000002c0: 957e 1f3e af7a 92be 25e8 61be 8112 7abe
000002d0: 0484 35be 8765 f03c a2bc 993d daca 0e3e
000002e0: 13fd ebbd 43b4 68bd d210 59be 1e21 fc3b
000002f0: 45f3 333e a64b 593e 1399 d03d b4a4 613e
00000300: 2fdb cf3d f56b 8dbd 74cc fd3d 107e 70bd
00000310: f649 3e3e b969 7c3e 0cb5 3fbe 1a13 1b3e
00000320: 2eea 1abe 95a4 e63d 72f8 26be 7e6f 303e
00000330: c118 27be ad5c 37be 4d9f 9c3d 0cc7 09be
00000340: 54f3 bf3d da92 83bc 22d6 3c3e 2787 a3be
00000350: b70e d43d 2bb4 b4be dd6d 64be 607a 643e
00000360: f4fa c0bd 4638 103e a51a 54be c714 86be
00000370: 1fe5 9fbd b9d8 a6be 98b4 4b3e f12e 49be
00000380: 84b0 fc3d d143 56be 6bae 013e 79b1 b03d
00000390: 5460 51be d4fd 4a3c f8ea 77be b793 373e
000003a0: a0db 1dbe 2e00 91be 50ce 273e 5084 6b3e
000003b0: 6fb4 223e ad71 97bd c5c7 bf3e 04bc 4c3e
000003c0: 79c5 7a3e 9ec1 9fbe a1da 98be edb3 8bbe
000003d0: e18a 1fbe a412 d63d 104f 0c3d 5560 90bc
000003e0: 7a50 ddbd ecb1 cdbd fed5 1fbe 51d9 f13b
000003f0: 4bff da3d dade 6b3e 2e79 323e 5787 2c3e

encoder.W_e.bias f4 [3]
0.13960898 -0.38608468 -0.44982815
00000000: a8f5 0e3e e4ac c5be e04f e6be

encoder.v_e.weight f4 [1, 3]
-0.14689793 0.022270052 0.058336843
00000000: 696c 16be af6f b63c 9df2 6e3d

decoder.W_d.weight f4 [64, 128]
0.022408847 0.0017614221 0.080783516 0.041056026 -0.02849403 -0.06840348 -0.05198723 -0.03228615
0.037231576 0.018340295 0.07959775 -0.041183434 0.010843604 -0.056023013 0.007907687 -0.06636752
0.0068602636 0.038579065 0.061652366 -0.009989804 0.052192003 -0.03316312 0.0025953397 -0.0021828485
0.044693656 -0.03115513 -0.017677842 -0.083886065 0.0010510791 -0.041509565 0.008226253 -0.08708843
0.08812605 -0.04963162 -0.05164033 -0.049216032 0.07703076 0.014731388 -0.007257213 0.05380262
-0.029843066 -0.0616189 -0.03274375 0.037714455 0.014530547 0.061047822 -0.013158688 -0.0671622
0.027860679 0.0017530138 0.05592228 -0.05282845 -0.03452968 -0.02228286 -0.004739982 0.0829585
-0.06514983 0.080640405 -0.05206437 0.06402759 0.0068266094 -0.02959618 -0.07481131 -0.043195397
-0.08413524 -0.039675113 0.045870405 -0.037201557 0.049445543 -0.05683694 -0.0142627675 0.028229337
0.020534819 0.02173964 0.07183897 0.052713968 0.0024457604 0.035301104 0.08563652 0.014211338
-0.021680433 0.023074767 0.05243878 -0.08763816 0.03247113 0.087602064 0.0788398 0.033732705
-0.00637332 -0.07724327 -0.0568324 0.059057795 0.05297119 -0.031402268 0.028353365 0.06259979
-0.045036025 0.051078167 0.050855905 -0.0075511555 -0.075164676 0.08832036 -0.073868126 0.07527309
-0.08770667 0.024253868 -0.0075674877 -0.005170944 0.0115529355 0.053389624 0.042965896 -0.040047776
0.032153513 -0.019912846 0.016717842 0.0691247 0.03674575 -0.06485406 0.030542346 -0.082814
0.0119474195 -0.073431544 0.06830612 0.06158823 -0.011111342 -0.026020084 -0.07744411 0.060852103
0.08289424 0.010052434 0.048539333 -0.01320525 -0.07884423 -0.029022625 0.060155056 0.053586368
-0.08474168 0.015250721 0.017753717 0.0107882125 0.05396691 0.059216753 0.025482774 0.05842869
-0.04836847 0.0134532945 -0.0838879 0.05003402 -0.08672924 0.059839875 0.059980318 -0.061169405
-0.030730741 -0.03799635 -0.062374447 0.066946246 -0.06167068 0.07205965 0.020248357 -0.060519166
0.051512603 -0.07138115 -0.08275179 -0.07545268 0.08415445 0.003017377 0.07043315 -0.069975525
-0.057535704 0.07924814 0.04203573 -0.04014478 -0.07375724 0.046854366 0.026299633 -0.040308498
-0.026490053 -0.026515994 -0.0035610714 0.057181712 -0.002042468 0.036765527 -0.064005375 0.024440283
-0.04222125 -0.049984295 -0.06869584 -0.024705755 -0.04128147 0.022911849 0.03332998 -0.031039309
0.05094808 0.0015363579 0.0018906022 0.024499573 0.02646936 0.01563567 -0.010439616 -0.08384707
-0.060330693 -0.08750474 0.054474507 -0.017256763 -0.04365956 -0.03859689 -0.029594673 0.08434317
-0.07863976 0.064677216 0.0057880795 -0.07577177 0.08102247 -0.07967814 0.022972688 0.042875737
-0.032361265 -0.05973814 0.004613373 0.088109724 -0.04838889 -0.037041873 -0.04275566 -0.061916333
0.040303998 -0.027908325 0.027007416 -0.037050325 -0.022367395 -0.048062928 -0.013602432 0.05712899
-0.05125786 0.08641846 0.071405664 -0.0069010826 0.056707088 0.0584648 -0.022571122 0.032787677
0.023548646 -0.028652154 0.0069656624 -0.030622056 -0.037896592 -0.06375148 -0.03490562 -0.0059989085
0.048808854 0.055301186 0.0009527611 -0.078969 -0.023455944 0.023949452 -0.07848279 0.034119043
00000000: c292 b73c 85df e63a d471 a53d 5d2a 283d
00000010: 506c e9bc 2017 8cbd 90f0 54bd 7b3e 04bd
00000020: 2380 183d 633e 963c 2504 a33d f6af 28bd
00000030: 5fa9 313c 6378 65bd 3e8f 013c b2eb 87bd
00000040: 10cc e03b 1505 1e3d 3187 7c3d 46ac 23bc
00000050: 48c7 553d 0dd6 07bd 9316 2a3b 1f0e 0fbb
00000060: b210 373d 0b39 ffbc 1fd1 90bc 75cc abbd
00000070: 5dc4 893a ef05 2abd 68c7 063c 6b5b b2bd
00000080: 6e7b b43d 874a 4bbd d084 53bd c096 49bd
00000090: 4ec2 9d3d eb5b 713c eacd edbb 2360 5c3d
000000a0: 7279 f4bc 1a64 7cbd 4f1e 06bd 797a 1a3d
000000b0: 8811 6e3c 480d 7a3d 8a97 57bc 568c 89bd
000000c0: 143c e43c 62c5 e53a c30e 653d a562 58bd
000000d0: fe6e 0dbd 8b8a b6bc da51 9bbb 25e6 a93d
000000e0: 466d 85bd cc26 a53d 7341 55bd e620 833d
000000f0: c0b1 df3b b073 f2bc ac36 99bd a8ed 30bd
00000100: 194f acbd 5f82 22bd 9be2 3b3d a960 18bd
00000110: 6987 4a3d dacd 68bd 62ae 69bc 3641 e73c
00000120: a338 a83c 5417 b23c 4f20 933d 9aea 573d
00000130: 0d49 203b e497 103d 3362 af3d acd6 683c
00000140: 2a9b b1bc 4b07 bd3c 0cca 563d a37b b3bd
00000150: 7300 053d b668 b33d c376 a13d 4e2b 0a3d
00000160: 48d7 d0bb b831 9ebd 17c9 68bd 96e6 713d
00000170: 52f8 583d aa9f 00bd 5145 e83c 5234 803d
00000180: b277 38bd 5737 513d 484e 503d af6f f7bb
00000190: f0ef 99bd 4ee1 b43d 2c48 97bd c728 9a3d
000001a0: 8e9f b3bd 0cb0 c63c b0f8 f7bb 0671 a9bb
000001b0: 8648 3d3c 14af 5a3d 02fd 2f3d 2309 24bd
000001c0: 67b3 033d 4420 a3bc dbf3 883c 4091 8d3d
000001d0: b682 163d 35d2 84bd f133 fa3c 639a a9bd
000001e0: 1cbf 433c 4763 96bd 14e4 8b3d f143 7c3d
000001f0: 590c 36bc 1228 d5bc 049b 9ebd 0e40 793d
00000200: 75c4 a93d f7b2 243c 2ed1 463d d55a 58bc
00000210: 1579 a1bd dbc0 edbc 2665 763d 617d 5b3d
00000220: 0c8d adbd 29de 793c 3e70 913c 0bc1 303c
00000230: 680c 5d3d 448d 723d 40c1 d03c ec52 6f3d
00000240: 041e 46bd 356b 5c3c 6bcd abbd 79f0 4c3d
00000250: 1a9f b1bd a81a 753d ecad 753d c58c 7abd
00000260: 09bf fbbc 10a2 1bbd 597c 7fbd 1d1b 893d
00000270: 659a 7cbd 0394 933d e2df a53c f2e2 77bd
00000280: e1fe 523d 4830 92bd c579 a9bd ef86 9abd
00000290: 2b59 ac3d 30bf 453b 413f 903d 544f 8fbd
000002a0: 8faa 6bbd d94c a23d a82d 2c3d da6e 24bd
000002b0: 090e 97bd 5dea 3f3d 5472 d73c 861a 25bd
000002c0: ab01 d9bc 1238 d9bc dd60 69bb 5f37 6a3d
000002d0: edda 05bb 7397 163d 4015 83bd fd36 c83c
000002e0: 30f0 2cbd 55bc 4cbd 68b0 8cbd b963 cabc
000002f0: c216 29bd a1b1 bb3c 0485 083d 2646 febc
00000300: efae 503d 9e5f c93a 15ce f73a 54b3 c83c
00000310: 45d6 d83c 6016 803c ec0a 2bbc 03b8 abbd
00000320: 511d 77bd af35 b3bd a920 5f3d 0e5e 8dbc
00000330: 5ed4 32bd c617 1ebd 8770 f2bc 1dbc ac3d
00000340: e20d a1bd 7d75 843d eea9 bd3b 3b2e 9bbd
00000350: 1cef a53d 4b2e a3bd 3831 bc3c 789e 2f3d
00000360: 3f8d 04bd fbaf 74bd c72b 973b df72 b43d
00000370: 6e33 46bd 38b9 17bd 8f20 2fbd fb9b 7dbd
00000380: ce15 253d 00a0 e4bc a83e dd3c 15c2 17bd
00000390: d43b b7bc a2dd 44bd bcdc 5ebc 1600 6a3d
000003a0: c3f3 51bd 29fc b03d 223d 923d 7a22 e2bb
000003b0: b145 683d c978 6f3d 13e7 b8bc 5f4c 063d
000003c0: 17e9 c03c ecb7 eabc 3640 e43b 1bdb fabc
000003d0: 7539 1bbd 2390 82bd 32f9 0ebd 7e92 c4bb
000003e0: cbeb 473d 7f83 623d b7c2 793a 80ba a1bd
000003f0: ae26 c0bc a431 c43c 96bb a0bd 69c0 0b3d

decoder.W_d.bias f4 [64]
0.032731213 -0.06918997 0.09479648 -0.078742646 -0.084166944 0.005290653 -0.08777741 0.062230986
0.09454879 -0.03745024 -0.012715639 -0.019374078 -0.107592076 0.12722875 0.0761276 -0.06815669
0.08167443 -0.01350626 0.09027205 -0.007061224 -0.084191546 0.11431861 -0.08387967 0.023942016
0.09644227 -0.07491189 0.01712274 0.009992772 -0.07617056 -0.07326122 -0.06490806 -0.015385519
-0.06430441 0.051432654 0.05251371 0.0013051677 0.042286046 0.04329049 0.005826024 0.072023086
0.056419577 0.0644151 -0.06156052 -0.073926285 -0.09841649 0.08958888 0.07127718 0.033034917
-0.018011516 0.10265837 -0.016645482 -0.029489132 0.11223324 -0.11661288 -0.09827 -0.029705843
-0.0059949635 -0.017330103 0.025321582 -0.05347953 -0.06291934 0.12664664 0.13897988 -0.10405114
00000000: 2a11 063d 79b3 8dbd a824 c23d d343 a1bd
00000010: b85f acbd 375d ad3b a5c4 b3bd ebe5 7e3d
00000020: cca2 c13d 6c65 19bd 4155 50bc 63b6 9ebc
00000030: 3c59 dcbd 4148 023e cae8 9b3d bc95 8bbd
00000040: ec44 a73d 5c49 5dbc 8de0 b83d d761 e7bb
00000050: 9e6c acbd e01f ea3d 1bc9 abbd 0c22 c43c
00000060: 8683 c53d 686b 99bd fd44 8c3c b9b8 233c
00000070: 50ff 9bbd fa09 96bd 84ee 84bd 8b13 7cbc
00000080: 08b2 83bd 0cab 523d 9e18 573d 2912 ab3a
00000090: 2234 2d3d 5e51 313d 3be8 be3b d780 933d
000000a0: 3718 673d 10ec 833d e226 7cbd aa66 97bd
000000b0: 968e c9bd 607a b73d c5f9 913d 9f4f 073d
000000c0: e38c 93bc 8d3e d23d 1b5c 88bc 3193 f1bc
000000d0: 8ada e53d bcd2 eebd c841 c9bd ab59 f3bc
000000e0: 6671 c4bb dcf7 8dbc 356f cf3c 5a0d 5bbd
000000f0: dbdb 80bd a8af 013e be50 0e3e c418 d5bd

decoder.U_d.weight f4 [64, 64]
-0.22729449 0.38978454 0.2014167 0.177181 0.10373326 0.33762872 0.07130941 0.2712908
-0.035953138 -0.2582362 0.034844313 0.040743735 -0.08007699 0.12722215 -0.27796355 -0.03011847
-0.14150475 0.50473195 0.17429456 -0.15772045 0.2882153 -0.14934054 -0.1473565 -0.1441546
0.46713704 0.32298175 -0.08058126 -0.14787124 -0.168887 0.15759242 -0.07703593 0.023852717
0.30900908 -0.17124198 0.25509706 -0.2500981 -0.29308748 -0.09072518 0.022626108 -0.07487251
-0.29540187 0.12457066 -0.053639892 0.20639326 -0.14303246 0.12636654 0.19501774 -0.1113171
-0.09752457 -0.047031626 -0.12397365 -0.13253851 0.17266464 -0.24436644 -0.3244271 -0.3770674
0.42628083 -0.21561362 -0.18214373 -0.56024337 -0.12094292 0.06590476 -0.0846016 0.07896839
0.29962 0.8467228 0.5488426 0.021950023 0.18307523 0.6952197 0.07015435 0.43682975
0.12756479 -0.5549243 -0.2631136 -0.25623757 0.18220526 0.18986267 -0.5796465 0.001817647
-0.1884017 0.9165387 0.422774 -0.28708792 0.488932 -0.4191327 0.035952773 -0.41370252
0.7060074 0.38179713 -0.11744485 -0.4776775 -0.14989847 0.1479079 -0.047023837 0.2539488
0.6046368 -0.37286878 0.59304816 -0.7320173 -0.16860116 -0.47786903 0.045290474 0.056862812
-0.37116793 0.39937377 -0.35599953 0.26096213 -0.48189285 0.13902941 0.17975459 -0.2965772
-0.08314667 -0.36892354 -0.13622057 -0.114051245 0.4531221 -0.3942017 -0.62324727 -0.6347099
0.5584957 -0.1916727 -0.5579775 -0.8652871 -0.45883602 0.24713826 -0.17834128 0.05663242
-0.1152362 -0.8307576 -0.38906702 -0.08603075 -0.01508648 -0.728497 0.026135571 -0.48258865
-0.064407036 0.53818154 0.31752396 0.08617957 -0.23352806 -0.3439313 0.6915207 -0.016640965
0.077239186 -0.70814365 -0.30362445 0.1514982 -0.49982765 0.5877285 0.012370776 0.39555955
-0.7093097 -0.31406507 0.19971064 0.65726703 0.32341528 -0.28044838 -0.14135846 -0.1242553
-0.46354604 0.2865596 -0.51589704 0.58049065 0.22816104 0.41520128 0.051250264 -0.07224809
0.47036862 -0.5485353 0.383486 -0.32815555 0.53177446 -0.3025325 -0.28190395 0.26784438
0.16180632 0.28748438 0.2381444 0.24571708 -0.3621057 0.3440747 0.7116593 0.7274593
-0.5205366 0.27443713 0.4998176 0.9090633 0.26243204 -0.35451922 0.1992377 -0.0783954
0.25127602 0.81933606 0.5036494 -0.012771685 0.08057477 0.6503491 -0.015250266 0.45694745
-0.011707236 -0.5252036 -0.2398222 -0.09961829 0.08987214 0.26062113 -0.7224037 -0.06250796
-0.108372666 0.94214904 0.46211547 -0.3485218 0.45899975 -0.4333054 -0.118356876 -0.31553152
0.8417447 0.40982524 -0.09833046 -0.6326198 -0.13190731 0.21658646 0.16724205 0.09283057
0.55933046 -0.33773658 0.49822888 -0.62912107 -0.25553036 -0.48321348 -0.15014258 -0.027256489
-0.46568683 0.38067597 -0.40076602 0.19959235 -0.5412581 0.21000013 0.28438586 -0.43553096
-0.08924143 -0.41321078 -0.06266151 -0.26906207 0.3564987 -0.4532059 -0.7484602 -0.6622605
0.75120723 -0.1944011 -0.4389122 -0.93602484 -0.27459988 0.19964024 -0.104117736 0.06171372
00000000: e3bf 68be d791 c73e 2e40 4e3e f06e 353e
00000010: 1a72 d43d acdd ac3e ab0a 923d a1e6 8a3e
00000020: 9943 13bd 8937 84be e9b8 0e3d e7e2 263d
00000030: 68ff a3bd 8646 023e 3d51 8ebe 02bb f6bc
00000040: 9fe6 10be 1d36 013f 467a 323e 7881 21be
00000050: f590 933e baec 18be 9fe4 16be 439d 13be
00000060: 962c ef3e dd5d a53e ca07 a5bd 8f6b 17be
00000070: b7f0 2cbe e85f 213e 03c5 9dbd c666 c33c
00000080: 7036 9e3e 0f5a 2fbe 159c 823e dc0c 80be
00000090: 900f 96be 20ce b9bd 635a b93c c256 99bd
000000a0: ea3e 97be e71e ff3d 81b5 5bbd c158 533e
000000b0: 1a77 12be 3b66 013e bbb2 473e 38fa e3bd
000000c0: f6ba c7bd 3ca4 40bd e6e5 fdbd 2db8 07be
000000d0: 00cf 303e 323b 7abe 4f1b a6be fa0e c1be
000000e0: 7b41 da3e d1c9 5cbe e383 3abe 1c6c 0fbf
000000f0: ecb0 f7bd 13f9 863d 9b43 adbd 2eba a13d
00000100: cb67 993e d3c2 583f f380 0c3f 89d0 b33c
00000110: 1378 3b3e ebf9 313f 15ad 8f3d 26a8 df3e
00000120: 58a0 023e 850f 0ebf d3b6 86be 9231 83be
00000130: 0494 3a3e 5c6b 423e b763 14bf 1d3e ee3a
00000140: 60ec 40be 48a2 6a3f d575 d83e 30fd 92be
00000150: 4c55 fa3e 9098 d6be 3743 133d d1d0 d3be
00000160: e7bc 343f ea7a c33e ed86 f0bd 2592 f4be
00000170: fc7e 19be 2b75 173e 119c 40bd 9405 823e
00000180: 7ac9 1a3f a8e8 bebe 01d2 173f 7c65 3bbf
00000190: c8a5 2cbe 40ab f4be 8182 393d fbe8 683d
000001a0: b909 bebe b87a cc3e 9245 b6be d49c 853e
000001b0: a9ba f6be ba5d 0e3e 9611 383e f7d8 97be
000001c0: cd48 aabd 8ce3 bcbe 687d 0bbe b393 e9bd
000001d0: 9fff e73e ced4 c9be 228d 1fbf 597c 22bf
000001e0: 93f9 0e3f d945 44be 9dd7 0ebf 7583 5dbf
000001f0: 8eec eabe d011 7d3e 199f 36be 65f7 673d
00000200: f500 ecbd 88ac 54bf cb33 c7be e430 b0bd
00000210: 492d 77bc c87e 3abf 441a d63c dc15 f7be
00000220: d6e7 83bd 44c6 093f 8092 a23e ea7e b03d
00000230: fb21 6fbe c317 b0be 8007 313f a252 88bc
00000240: 942f 9e3d e748 35bf aa74 9bbe 5822 1b3e
00000250: 69e9 ffbe 6075 163f ccae 4a3c c886 ca3e
00000260: 5295 35bf 23cd a0be f280 4c3e a742 283f
00000270: b096 a53e ee96 8fbe 46c0 10be 9079 febd
00000280: e855 edbe f1b7 923e d411 04bf 099b 143f
00000290: 0ca3 693e 4395 d43e cceb 513d cef6 93bd
000002a0: 28d4 f03e cf6c 0cbf 4758 c43e 0104 a8be
000002b0: 5f22 083f 8ae5 9abe b755 90be e622 893e
000002c0: 8eb0 253e 2731 933e 20dc 733e 429d 7b3e
000002d0: eb65 b9be 8f2a b03e 4e2f 363f c63a 3a3f
000002e0: e341 05bf 0683 8c3e 18e8 ff3e 5fb8 683f
000002f0: 7e5d 863e 8b83 b5be f804 4c3e c48d a0bd
00000300: 40a7 803e 02c0 513f 2bef 003f 5440 51bc
00000310: 6304 a53d 477d 263f 40dc 79bc 04f5 e93e
00000320: b5cf 3fbc be73 06bf f393 75be ad04 ccbd
00000330: e20e b83d 2270 853e 73ef 38bf 2c04 80bd
00000340: 7df2 ddbd ae30 713f 669a ec3e 7371 b2be
00000350: 0402 eb3e 35da ddbe 1765 f2bd 598d a1be
00000360: 957c 573f 9dd4 d13e 7b61 c9bd 5ff3 21bf
00000370: b612 07be d7c8 5d3e 8041 2b3e f41d be3d
00000380: 4830 0f3f cfeb acbe db17 ff3e 140e 21bf
00000390: e0d4 82be c267 f7be fabe 19be 0049 dfbc
000003a0: 816e eebe f6e7 c23e 3431 cdbe f061 4c3e
000003b0: e48f 0abf 460a 573e 069b 913e eafd debe
000003c0: 36c4 b6bd 5d90 d3be ae54 80bd 81c2 89be
000003d0: ff86 b63e 9b0a e8be 169b 3fbf e789 29bf
000003e0: 1e4f 403f 1511 47be 1ab9 e0be 539f 6fbf
000003f0: 5b98 8cbe 7e6e 4c3e ae3b d5bd 87c7 7c3d

decoder.U_d.bias f4 [64]
-0.093840495 -0.038303543 0.014849078 -0.038030643 -0.025857003 0.10574105 -0.012719559 0.0529321
0.020679343 -0.07023934 -0.08692262 -0.071541466 0.005570039 -0.018163545 0.025686454 -0.040102202
0.020831116 -0.08768106 0.013966064 0.109837405 -0.015239035 -0.014660595 -0.02180958 0.07239624
0.0053041847 -0.025478115 0.09046281 -0.11390377 -0.03441883 -0.03688294 -0.046963878 -0.07992954
-0.046237286 0.055553585 0.046781566 -0.10548966 0.06876625 0.06867603 0.10509772 0.025949677
0.05195135 0.02958094 -0.04264725 -0.027169578 -0.008224179 0.021232247 0.026606496 0.06458992
0.1173204 -0.002790359 0.12026296 -0.06692498 0.0016830395 0.013915713 -0.011034269 -0.08492035
0.10039195 -0.088349424 -0.14057744 -0.052892003 -0.029085033 -0.028053373 -0.028979255 -0.012437412
00000000: 722f c0bd 2de4 1cbd 8c49 733c 05c6 1bbd
00000010: 11d2 d3bc c38e d83d b265 50bc 54cf 583d
00000020: ba67 a93c a5d9 8fbd 7d04 b2bd 5584 92bd
00000030: e084 b63b b7cb 94bc 666c d23c 3542 24bd
00000040: 04a6 aa3c 2192 b3bd ebd1 643c 6ff2 e03d
00000050: 25ad 79bc fe32 70bc 01aa b2bc 7b44 943d
00000060: bace ad3b 7bb7 d0bc 9144 b93d 6146 e9bd
00000070: c2fa 0cbd 9112 17bd 325d 40bd 19b2 a3bd
00000080: 4f63 3dbd 288c 633d 079e 3f3d f60a d8bd
00000090: 52d5 8c3d 05a6 8c3d 793d d73d 6b94 d43c
000000a0: f0ca 543d ba53 f23c e2ae 2ebd bc92 debc
000000b0: b5be 06bc 40ef ad3c def5 d93c b847 843d
000000c0: ae45 f03d 75de 36bb 6d4c f63d f70f 89bd
000000d0: 6f99 dc3a bbfe 633c 14c9 34bc b8ea adbd
000000e0: 4b9a cd3d 8bf0 b4bd 88f3 0fbe 49a5 58bd
000000f0: bc43 eebc 30d0 e5bc e765 edbc 49c6 4bbc

decoder.v_d.weight f4 [1, 64]
0.6080074 1.0536374 -1.0354431 1.010382 1.0111645 -1.0185019 1.0042653 -1.062304
-1.0588176 1.0675589 1.048472 0.8622895 0.9981445 -1.002633 -1.0295147 1.0679779
-0.97251964 0.9507127 -1.0390668 -0.9637481 0.95841265 -0.89966893 1.0079988 -1.0885487
-0.91963214 0.97180176 -1.1139506 0.96256036 1.0881058 1.0650206 1.0658889 0.9963093
0.98444104 -0.9125401 -1.0087566 1.0170381 -1.0377253 -1.0068574 -1.0731026 -0.9264824
-1.0740837 -0.8924106 0.99025255 0.9053247 0.971522 -1.0746411 -1.028859 -0.96937144
-1.043469 -1.0362583 -0.95659935 0.9105645 -1.0254086 1.0083449 0.9082967 1.0476358
-0.91866153 1.0145315 1.1055672 1.011575 0.9187374 -0.97259426 -1.0830415 1.0058888
00000000: 5fa6 1b3f 97dd 863f 6689 84bf 3354 813f
00000010: d76d 813f 455e 82bf c48b 803f 94f9 87bf
00000020: 5687 87bf c5a5 883f 5534 863f 01bf 5c3f
00000030: 6686 7f3f 4756 80bf 23c7 83bf 80b3 883f
00000040: 0cf7 78bf e861 733f 2400 85bf 32b8 76bf
00000050: 885a 753f b450 66bf 1b06 813f 9055 8bbf
00000060: 036d 6bbf 00c8 783f ef95 8ebf 5b6a 763f
00000070: 0d47 8b3f 9852 883f 0c6f 883f 200e 7f3f
00000080: 5404 7c3f 3a9c 69bf f01e 81bf 4e2e 823f
00000090: 2fd4 84bf b4e0 80bf 6d5b 89bf f32d 6dbf
000000a0: 937b 89bf 0575 64bf 3181 7d3f 5cc3 673f
000000b0: aab5 783f d78d 89bf a7b1 83bf ba28 78bf
000000c0: 6490 85bf 1da4 84bf b2e3 74bf c11a 693f
000000d0: 9740 83bf 7211 813f 2286 683f ee18 863f
000000e0: 672d 6bbf 2bdc 813f 3a83 8d3f 4a7b 813f
000000f0: 6032 6b3f f0fb 78bf 1ba1 8abf f7c0 803f
