weights/DARNN_L3_HDE32_HDD32_BS32_E50_s1.pth (torch, 106930 bytes, 22 tensors)

encoder.lstm.weight_ih_l0 f4 [128, 81]
0.17179792 0.15416573 0.15335633 0.27380696 -0.15761535 0.27469617 -0.047872387 0.081006326
0.17397831 0.10440562 0.28273046 0.096826166 0.24763848 -0.01584258 0.19037189 0.15517017
0.098647244 0.08936949 0.24967356 0.17165728 0.00054243265 -0.04305255 0.034809224 0.10659521
-0.100011006 0.105736196 0.3072856 0.14460963 0.0050466433 0.1727357 0.09485497 0.26456192
0.14065996 0.046287477 -0.22691289 -0.16011831 0.21797128 0.2655295 0.3114232 0.054145638
0.32959875 0.1159235 0.31726554 0.23699899 -0.083013415 0.1768646 0.078424595 0.0927237
0.1949784 0.13520746 -0.06958124 -0.04128206 0.11135373 0.059294283 0.29157373 0.32980075
0.07335938 -0.09057258 0.18246579 0.20703696 0.05828884 0.022670452 0.33973992 0.17189266
-0.016406255 0.10916951 0.19296528 0.097921304 -0.036765568 -0.21036375 0.050360873 0.07792063
0.35706747 -0.058727782 0.03425739 0.045326352 0.12099754 0.20682888 -0.29355425 0.15834625
0.09042692 -0.06665105 0.30355558 0.12902576 0.1542392 -0.088611454 0.029271187 0.13546862
-0.038413662 0.17921165 0.22575709 0.12949997 0.16067742 0.21123253 -0.080266245 0.16238116
0.266893 0.07221819 0.071458355 0.016820075 0.23802955 0.009927959 0.2796063 0.10177582
-0.008356901 -0.19038495 0.19637261 0.14181018 0.13404205 0.17705472 0.18012924 0.19475438
0.25571808 -0.18115819 0.2812026 0.10399586 0.059507225 0.19605045 0.22294576 0.1333861
0.029479437 0.19732866 0.3443221 0.053823315 0.28441343 -0.09411841 -0.1477798 0.07691291
0.24614653 0.41851944 0.036521 0.07920266 0.15996937 0.09035344 0.22356845 0.20713307
0.2644741 0.078749895 -0.09001188 -0.12636374 0.09984951 0.13385904 -0.16313756 0.23332515
0.09609817 -0.010175183 0.17141224 0.2525276 0.15901065 0.16579479 -0.1617094 0.15208349
0.10479143 0.21497376 -0.27816948 -0.17101473 -0.079164125 -0.009370995 0.2433805 -0.1446369
-0.12333507 0.36173528 0.08079348 0.27700377 0.05262063 0.178501 -0.09320627 0.05927087
-0.21995479 -0.14647311 0.04367338 0.120105885 0.23094127 0.078401394 0.3232283 0.16990133
0.2534309 0.0911488 -0.12852453 0.14098227 -0.031116713 0.03343227 -0.172545 -0.022839563
-0.0898386 0.3026524 -0.25999963 -0.06263579 0.114235625 -0.12910433 0.19329758 -0.05591674
-0.120802276 0.045206387 0.10650675 0.004521684 -0.0125266705 0.006996794 0.15897714 0.0767048
0.22785693 -0.0376293 0.23470728 0.06873651 0.23656987 0.1649027 -0.05135595 0.0003646461
0.13390875 0.049434848 0.21341823 0.147436 -0.100742795 0.08882821 0.10322845 0.19757573
0.19473606 0.0035452473 -0.0045166975 0.116935804 -0.09066341 0.28604007 -0.016600657 -0.278765
0.26636153 -0.17382003 -0.021170642 0.22703083 0.27232212 0.19000556 0.015460427 -0.25013086
0.06473572 -0.0074085617 0.12181294 -0.0866666 -0.20145519 0.05274636 0.12799029 -0.08074715
-0.29746312 0.025674306 0.22379182 0.06479862 0.21812607 0.14150134 -0.08210134 -0.100642264
0.014444939 0.0884672 0.12767912 0.016015187 0.15471588 0.36650056 0.12739968 0.085333884
00000000: cbeb 2f3e 9fdd 1d3e 7109 1d3e 6d30 8c3e
00000010: eb65 21be faa4 8c3e d615 44bd a5e6 a53d
00000020: 5f27 323e 9dd2 d53d 0cc2 903e cc4c c63d
00000030: f194 7d3e 4cc8 81bc d9f0 423e eee4 1e3e
00000040: 9107 ca3d 5a07 b73d 6daa 7f3e edc6 2f3e
00000050: 0a32 0e3a df57 30bd 1e94 0e3d 974e da3d
00000060: 92d2 ccbd 388c d83d 8a54 9d3e 8c14 143e
00000070: 505e a53b a1e1 303e 5343 c23d a974 873e
00000080: 2a09 103e f097 3d3d da5b 68be 0ef6 23be
00000090: dd33 5f3e 7cf3 873e dd72 9f3e d1c7 5d3d
000000a0: 2bc1 a83e 4d69 ed3d a170 a23e ddaf 723e
000000b0: f002 aabd fe1b 353e 139d a03d ece5 bd3d
000000c0: 6ba8 473e d373 0a3e 9c80 8ebd 6117 29bd
000000d0: 6d0d e43d 90de 723d 2749 953e a5db a83e
000000e0: 713d 963d 1e7e b9bd 50d8 3a3e 7f01 543e
000000f0: 47c0 6e3d 62b7 b93c 64f2 ad3e a104 303e
00000100: 6966 86bc 4494 df3d b198 453e f78a c83d
00000110: 7e97 16bd 9869 57be 3447 4e3d da94 9f3d
00000120: 8cd1 b63e 8b8c 70bd 7a51 0c3d 20a8 393d
00000130: 8fcd f73d f3ca 533e be4c 96be 8525 223e
00000140: c031 b93d 5880 88bd a36b 9b3e 541f 043e
00000150: e1f0 1d3e ec79 b5bd 21ca ef3c 49b8 0a3e
00000160: a557 1dbd 4283 373e de2c 673e a49b 043e
00000170: 9f88 243e 574d 583e a162 a4bd 3f47 263e
00000180: 33a6 883e 21e7 933d c258 923d 41ca 893c
00000190: 05be 733e e1a8 223c 8f28 8f3e d76f d03d
000001a0: 62eb 08bc 46f4 42be e715 493e b036 113e
000001b0: 5242 093e d54d 353e cd73 383e b16d 473e
000001c0: 7bed 823e 8881 39be caf9 8f3e c8fb d43d
000001d0: d9bd 733d 73c1 483e e54b 643e 5e96 083e
000001e0: dc7e f13c 8610 4a3e fc4a b03e d675 5c3d
000001f0: a39e 913e 27c1 c0bd 9753 17be 8484 9d3d
00000200: d60d 7c3e 2e48 d63e 0b97 153d 0135 a23d
00000210: 03cf 233e 390b b93d 21ef 643e b11a 543e
00000220: 2669 873e a047 a13d 2658 b8bd 7f65 01be
00000230: e67d cc3d 5812 093e 880d 27be caec 6e3e
00000240: 1ecf c43d d0b5 26bc b186 2f3e 4c4b 813e
00000250: b0d3 223e 1cc6 293e 2697 25be c6bb 1b3e
00000260: e49c d63d 1522 5c3e 3b6c 8ebe 7c1e 2fbe
00000270: cd20 a2bd cd88 19bc bd38 793e b21b 14be
00000280: 1997 fcbd 5e35 b93e 0d77 a53d 70d3 8d3e
00000290: bb88 573d f7c8 363e eee2 bebd 03c6 723d
000002a0: d43b 61be 0cfd 15be dce2 323d 13fa f53d
000002b0: de7b 6c3e e990 a03d 2e7e a53e 9dfa 2d3e
000002c0: b2c1 813e 39ac ba3d ef9b 03be a85d 103e
000002d0: 7ae8 febc 47f0 083d a3af 30be 091a bbbc
000002e0: 4dfd b7bd 41f5 9a3e ac1e 85be 3147 80bd
000002f0: 5ef4 e93d ed33 04be cdef 453e f408 65bd
00000300: 2f67 f7bd 552a 393d 3620 da3d a22a 943b
00000310: aa3c 4dbc 5d45 e53b e7ca 223e 6817 9d3d
00000320: 5453 693e 2e21 1abd 1b57 703e bac5 8c3d
00000330: 5f3f 723e 41dc 283e 9e5a 52bd f92d bf39
00000340: 601f 093e 327c 4a3d 4f8a 5a3e 76f9 163e
00000350: 3d52 cebd 91eb b53d 7069 d33d 4b51 4a3e
00000360: e468 473e 6157 683b ce00 94bb 0a7c ef3d
00000370: bdad b9bd d873 923e 1afe 87bc 49ba 8ebe
00000380: 8a60 883e e1fd 31be 0e6e adbc c57a 683e
00000390: ce6d 8b3e d190 423e bb4d 7d3c 2711 80be
000003a0: 2994 843d 85c3 f2bb 1079 f93d 427e b1bd
000003b0: 454a 4ebe 910c 583d e30f 033e c35e a5bd
000003c0: 164d 98be ec52 d23c af29 653e 24b5 843d
000003d0: 715c 5f3e bae5 103e bf24 a8bd 881d cebd
000003e0: 77aa 6c3c 4b2e b53d 51be 023e 4832 833c
000003f0: d76d 1e3e f6a5 bb3e 1075 023e 88c3 ae3d

encoder.lstm.weight_hh_l0 f4 [128, 32]
0.03473461 -0.030351574 0.00036723443 -0.072608426 -0.28506196 0.1333375 0.19688955 0.10654821
-0.0007803441 0.17977844 -0.14740561 0.17851098 0.16536939 -0.066102736 -0.06794749 0.12369754
0.101378165 0.021126715 0.14157999 0.037180703 -0.12921023 0.080322914 -0.002376588 -0.094617754
-0.09753429 -0.11074653 -0.046989 0.010205456 -0.124334715 -0.21269488 -0.023470417 0.023042949
-0.13729186 0.14377074 0.021115968 -0.19103393 0.018334126 0.22165257 0.08617796 0.009263813
-0.122704126 0.057710476 0.12300381 -0.08750081 -0.03297057 -0.008164402 -0.1946267 0.13155796
0.09821926 0.1989129 0.03539555 -0.1348517 -0.05247704 -0.016442453 -0.025464894 0.20325997
0.034163397 0.20223577 0.1385533 -0.085256346 -0.20117584 -0.13024232 -0.18489282 -0.074800484
-0.1689031 -0.03687477 -0.13752472 0.09651108 -0.24004702 0.16977812 0.06504694 0.10039721
0.06061024 -0.03327926 -0.08785624 -0.01561825 -0.0346915 0.08630338 0.107718594 -0.16149186
-0.071091995 0.0947538 -0.105262324 0.1880101 0.09040939 -0.044215806 -0.16822132 0.069116816
0.15324177 0.13007538 0.18087883 0.11225139 0.16318393 -0.089054 -0.10075039 -0.017887892
-0.13144611 -0.03258548 -0.15183516 0.13755532 -0.10704957 -0.041176647 0.01203108 -0.09175492
-0.1556241 -0.06835024 0.080712795 -0.018485658 0.025340417 0.0895317 -0.044722956 -0.063563116
0.008919046 -0.0041960417 -0.022832781 0.045235693 -0.00091558 -0.02222726 0.03869107 -0.023488237
0.100326836 -0.037815455 0.021898922 0.13024312 -0.076622695 -0.107993655 0.024230558 -0.051990137
-0.3406549 0.19115143 -0.03702333 -0.09942948 0.24261793 0.19557326 0.03205696 -0.12728676
0.2396803 0.23392299 -0.036181614 0.23017073 0.2847308 -0.2701873 -0.0758252 0.20283939
-0.24442166 -0.106932215 0.3438976 0.045376237 -0.08567798 -0.058991093 -0.14019229 0.32257515
0.17013024 0.18521337 -0.1714301 -0.04790252 -0.13044317 -0.016191214 -0.08881275 -0.2396084
-0.032096367 0.040413037 -0.21826874 -0.20556273 0.08129053 0.22365768 -0.03291966 0.12924314
-0.030810844 0.24787295 -0.10806957 0.051501613 0.1295157 -0.20804133 0.034297656 0.065831296
-0.18914407 -0.018579843 0.24642423 0.23465478 0.0958608 0.06027289 -0.08663574 0.04925272
0.31020474 0.06467344 -0.06930072 0.2339553 -0.1764074 0.012330222 -0.006764153 -0.11600618
-0.1358439 0.20657118 0.017792782 -0.04056072 -0.2437033 -0.048638836 -0.06935673 -0.00415853
-0.08059537 -0.13012755 -0.10598259 0.085820965 0.17855439 -0.17610767 -0.21950468 0.051047325
-0.2301064 0.061600752 0.19360708 -0.05786799 0.06841347 -0.005428824 0.10292263 0.08122081
0.040614743 0.0034067933 -0.13087903 0.25668335 -0.14233492 0.119022325 0.036462765 -0.19590674
0.17354077 -0.017459348 0.15030384 -0.041218612 0.014352244 0.05192669 -0.011334128 -0.0013122945
-0.04496349 -0.13783677 0.17767227 0.14513865 -0.13297082 0.005731961 -0.106167674 -0.092779726
0.06041054 0.14161102 -0.21489026 -0.0532308 -0.15644214 0.09176359 -0.12764843 0.019996496
0.0054131793 0.052537303 0.08144511 0.1174487 0.21216659 0.019510724 0.15393361 0.1356085
00000000: e145 0e3d dda3 f8bc 5f89 c039 bab3 94bd
00000010: a4f3 91be a089 083e 6a9d 493e f335 da3d
00000020: 0290 4cba d717 383e 7ff1 16be 95cb 363e
00000030: 9856 293e df60 87bd 0e28 8bbd 2355 fd3d
00000040: 5b9f cf3d ef11 ad3c 58fa 103e cb4a 183d
00000050: b04f 04be 5780 a43d 88c0 1bbb f4c6 c1bd
00000060: 0fc0 c7bd 14cf e2bd 8a77 40bd c934 273c
00000070: 33a3 febd b0cc 59be 0845 c0bc 91c4 bc3c
00000080: 3d96 0cbe a338 133e 65fb ac3c 669e 43be
00000090: 7331 963c e4f8 623e 127e b03d 3fc7 173c
000000a0: 4d4c fbbd d261 6c3d 6ce9 fb3d a033 b3bd
000000b0: 260c 07bd fcc3 05bc 394c 47be 21b7 063e
000000c0: 2e27 c93d d3af 4b3e edfa 103d 9016 0abe
000000d0: 2af2 56bd 53b2 86bc c19b d0bc 6223 503e
000000e0: ebee 0b3d e516 4f3e ebe0 0d3e e19a aebd
000000f0: 0a01 4ebe 3e5e 05be 8b54 3dbe ff30 99bd
00000100: eff4 2cbe 000a 17bd 48d3 0cbe 9aa7 c53d
00000110: e3ce 75be 51da 2d3e 5537 853d 0d9d cd3d
00000120: 7142 783d d54f 08bd f9ed b3bd b0e3 7fbc
00000130: ad18 0ebd d4bf b03d 919b dc3d 1f5e 25be
00000140: ae98 91bd 480e c23d c693 d7bd b885 403e
00000150: 8f28 b93d a21b 35bd 3642 2cbe 1e8d 8d3d
00000160: 69eb 1c3e 7b32 053e 4d38 393e 0fe4 e53d
00000170: b019 273e f261 b6bd 3856 cebd a189 92bc
00000180: cf99 06be 5a78 05bd ad7a 1bbe 4ddb 0c3e
00000190: ce3c dbbd d8a8 28bd 021e 453c 01ea bbbd
000001a0: ed5b 1fbe 36fb 8bbd c04c a53d 3c6f 97bc
000001b0: b596 cf3c 655c b73d 6b2f 37bd 612d 82bd
000001c0: 3121 123c f37e 89bb d00b bbbc 1049 393d
000001d0: 8903 70ba f115 b6bc 877a 1e3d 676a c0bc
000001e0: 2878 cd3d 61e4 1abd 5e65 b33c 745e 053e
000001f0: 5cec 9cbd c72b ddbd 2a7f c63c 9cf3 54bd
00000200: 526a aebe 33bd 433e c6a5 17bd afa1 cbbd
00000210: d670 783e 5b44 483e 294e 033d 7657 02be
00000220: c16e 753e 8289 6f3e 2c33 14bd e0b1 6b3e
00000230: 3cc8 913e fd55 8abe 3e4a 9bbd 21b5 4f3e
00000240: ac49 7abe 47ff dabd 5913 b03e 6fdc 393d
00000250: f077 afbd a5a0 71bd 918e 0fbe 9228 a53e
00000260: 9f36 2e3e 93a8 3d3e 5f8b 2fbe 6f35 44bd
00000270: e592 05be 70a3 84bc 76e3 b5bd e85b 75be
00000280: 7b77 03bd 2488 253d d781 5fbe 097f 52be
00000290: a67b a63d 8506 653e c4d6 06bd 5058 043e
000002a0: 0667 fcbc 68d2 7d3e 9453 ddbd 5bf3 523d
000002b0: c39f 043e c908 55be b37b 0c3d 8fd2 863d
000002c0: fcae 41be c134 98bc a256 7c3e 5849 703e
000002d0: ab52 c43d b5e0 763d 146e b1bd 38bd 493d
000002e0: 28d3 9e3e 8273 843d 89ed 8dbd fa91 6f3e
000002f0: 24a4 34be b304 4a3c d4a5 ddbb a694 edbd
00000300: aa1a 0bbe 6587 533e 2bc2 913c ff22 26bd
00000310: 5c8d 79be 8439 47bd e70a 8ebd 4744 88bb
00000320: 2f0f a5bd 2840 05be 660d d9bd e7c2 af3d
00000330: f6d6 363e 9255 34be d6c5 60be 0017 513d
00000340: 03a1 6bbe 1251 7c3d ef40 463e fc06 6dbd
00000350: 5d1c 8c3d 47e4 b1bb 1ac9 d23d 1957 a63d
00000360: a55b 263d 8244 5f3b 2705 06be 006c 833e
00000370: 3fc0 11be fac1 f33d fb59 153d c79b 48be
00000380: acb4 313e e806 8fbc 40e9 193e d9d4 28bd
00000390: ad25 6b3c 15b1 543d c7b2 39bc 4c01 acba
000003a0: a32b 38bd 1525 0dbe b8ef 353e 3a9f 143e
000003b0: 8129 08be 2dd3 bb3b 706e d9bd 4c03 bebd
000003c0: 0b71 773d 7b02 113e 310c 5cbe 8a08 5abd
000003d0: 5e32 20be 8dee bb3d 45b6 02be b1cf a33c
000003e0: 0a61 b13b 5b31 573d b2cc a63d f288 f03d
000003f0: 3342 593e f4d4 9f3c c6a0 1d3e f4dc 0a3e

encoder.lstm.bias_ih_l0 f4 [128]
0.16486792 -0.050844252 0.044294044 -0.046732515 0.08362991 0.12789078 -0.047197558 0.06554159
-0.001960412 0.14234163 0.117298335 0.017624114 -0.06465681 -0.17280287 0.09036396 -0.011841039
-0.12864862 0.13394167 -0.015888935 0.079459675 -0.025960302 0.09547516 0.1712985 0.040077783
-0.17888787 -0.047542248 0.10831725 0.14553306 0.119477026 0.12453154 0.0046675657 -0.030284293
-0.118650794 0.019901915 0.116962194 0.1487663 0.10551921 0.13143235 0.12912631 0.06255766
-0.001262824 0.15076984 0.0037630387 0.012985832 -0.091136694 -0.15243347 -0.14002807 -0.08155905
-0.15679319 -0.031094357 -0.08402889 0.12199721 -0.27314988 -0.09158811 0.07978925 -0.1662515
-0.044014208 0.09482816 -0.06093608 -0.16793995 -0.031995498 0.06644314 0.09412162 -0.1649818
-0.08140556 0.120931596 0.012207315 -0.12426544 0.1538661 0.09237326 -0.119008645 0.06445135
-0.002979012 0.07020139 0.08791116 -0.025118602 0.053088427 0.0106021 -0.08148238 0.048560973
-0.12395202 -0.079304196 0.099527396 0.03864538 -0.08241781 -0.07238151 -0.12688568 -0.04103528
-0.034709126 0.055872604 -0.08486895 -0.114706084 -0.002572222 -0.10698122 0.055321176 -0.09763208
0.034644872 0.06296935 0.07695449 -0.18896692 0.2683242 -0.07101313 -0.060091842 -0.18500896
0.045050412 0.07295686 0.04053839 0.23416357 -0.10996755 -0.093313366 0.12133891 0.1638933
0.09619975 -0.121749446 -0.05664546 0.116606236 0.016659906 -0.12700102 0.015016662 0.058055565
-0.15664566 -0.065865815 0.13950112 0.30627194 -0.0976218 -0.17674288 -0.009959549 0.056557264
00000000: 23d3 283e 1042 50bd ac6d 353d 986a 3fbd
00000010: 2946 ab3d cdf5 023e 3a52 41bd ab3a 863d
00000020: 417a 00bb 01c2 113e 1c3a f03d 7260 903c
00000030: ca6a 84bd 3cf3 30be bd10 b93d eb00 42bc
00000040: 77bc 03be 0128 093e 8329 82bc c1bb a23d
00000050: b3aa d4bc 7b88 c33d e068 2f3e 9a28 243d
00000060: 622e 37be a9bb 42bd 6fd5 dd3d 9e06 153e
00000070: 5fb0 f43d 640a ff3d 61f2 983b c416 f8bc
00000080: 30ff f2bd 5709 a33c e089 ef3d 3156 183e
00000090: 751a d83d 3496 063e b039 043e 3b1e 803d
000000a0: 5885 a5ba 6963 1a3e 509d 763b 87c2 543c
000000b0: e0a5 babd 8517 1cbe 8563 0fbe 6e08 a7bd
000000c0: 658e 20be 98b9 febc 5717 acbd acd9 f93d
000000d0: 4dda 8bbe 8c92 bbbd 8c68 a33d d53d 2abe
000000e0: 3e48 34bd 4435 c23d 1c98 79bd 73f8 2bbe
000000f0: b60d 03bd 5713 883d d6c2 c03d fdf0 28be
00000100: f5b7 a6bd fcaa f73d 3101 483c e17e febd
00000110: 138f 1d3e 312e bd3d ceba f3bd 12ff 833d
00000120: 873b 43bb bfc5 8f3d c40a b43d 87c5 cdbc
00000130: 4073 593d 6eb4 2d3c 3ce0 a6bd dfe7 463d
00000140: 8fda fdbd 3d6a a2bd 05d5 cb3d 9e4a 1e3d
00000150: abca a8bd c23c 94bd 52ee 01be 9c14 28bd
00000160: 282b 0ebd acda 643d c6cf adbd 06eb eabd
00000170: b992 28bb f818 dbbd 7598 623d 54f3 c7bd
00000180: c8e7 0d3d 13f6 803d 519a 9d3d 8b80 41be
00000190: ca61 893e 556f 91bd dd22 76bd fd72 3dbe
000001a0: c886 383d 686a 953d 950b 263d 93c8 6f3e
000001b0: ab36 e1bd 141b bfbd 8980 f83d a5d3 273e
000001c0: 6004 c53d c657 f9bd 1205 68bd 40cf ee3d
000001d0: 5b7a 883c 8e0c 02be 7208 763c accb 6d3d
000001e0: b867 20be a8e4 86bd 62d9 0e3e adcf 9c3e
000001f0: f0ed c7bd 16fc 34be 602d 23bc 97a8 673d

encoder.lstm.bias_hh_l0 f4 [128]
-0.046090975 -0.1799256 0.096074805 0.030587532 0.062493697 -0.020697348 0.025651164 -0.23599339
-0.1111511 -0.18991444 0.107180625 0.21043245 0.011083712 -0.112311736 -0.216199 -0.08542114
-0.0075954814 -0.026503019 0.15885623 -0.19070981 0.12653548 0.051014204 -0.09157069 -0.1159117
-0.18468963 -0.12396305 -0.1731708 0.023555106 -0.003359529 -0.084361985 0.15461637 -0.087180674
0.08482497 0.11245349 -0.15378067 0.015004119 0.10085745 -0.10569938 -0.08860426 -0.053314194
-0.14360268 -0.04571898 0.11512001 -0.19777064 -0.09295773 0.0706989 0.14427036 -0.09467845
-0.098417886 -0.010612158 -0.07782328 0.053854473 0.05228469 -0.015993 -0.074171856 0.06630831
0.103266224 -0.042061247 -0.18910885 -0.0051599587 0.11999726 -0.041435678 0.048661243 -0.15960975
0.10869056 -0.14649624 -0.024636637 0.045465954 -0.055489935 -0.15821399 0.0758053 -0.0869328
-0.042842064 0.11982128 -0.11375544 -0.0519795 0.089343496 -0.0018361255 -0.01903729 0.045035154
0.102834895 0.06501564 -0.07770481 -0.07260254 0.087338544 0.061844848 0.10326039 0.00048491382
0.088977754 0.04007523 -0.115291044 0.04181504 -0.07960214 -0.056399483 -0.01578405 0.089507155
0.0923591 -0.013448496 0.118787445 -0.13121657 0.29222974 -0.0749469 -0.044853404 -0.20522578
-0.0465895 0.03222303 0.067801334 0.11904867 0.031651974 0.004903736 -0.07570986 -0.016759902
-0.16914053 0.12226263 -0.04944601 -0.08391851 0.044797983 -0.062814064 0.12109039 0.07844261
-0.16834494 0.053315196 0.02021125 0.09651388 -0.0480694 -0.13590023 -0.05750008 -0.05665451
00000000: e4c9 3cbd 6b3e 38be dec2 c43d b492 fa3c
00000010: 64f9 7f3d 7c8d a9bc 6422 d23c 40a8 71be
00000020: 30a3 e3bd ee78 42be 8481 db3d 9b7b 573e
00000030: 7598 353c b203 e6bd 4563 5dbe 47f1 aebd
00000040: 84e3 f8bb dc1c d9bc 35ab 223e 6f49 43be
00000050: 8492 013e 45f4 503d 6a89 bbbd 1d63 edbd
00000060: 471f 3dbe 57e0 fdbd b053 31be a3f6 c03c
00000070: 8b2b 5cbb fac5 acbd c153 1e3e c88b b2bd
00000080: b7b8 ad3d 044e e63d ae78 1dbe d6d3 753c
00000090: 5a8e ce3d eb78 d8bd 2676 b5bd fc5f 5abd
000000a0: 950c 13be d343 3bbd 0ac4 eb3d 6384 4abe
000000b0: 9f60 bebd 96ca 903d 9cbb 133e c6e6 c1bd
000000c0: 518f c9bd 9ede 2dbc d061 9fbd 8296 5c3d
000000d0: 7928 563d c003 83bc 6ae7 97bd a7cc 873d
000000e0: 3e7d d33d 6a48 2cbd c0a5 41be df14 a9bb
000000f0: 20c1 f53d 75b8 29bd 0351 473d bd70 23be
00000100: 2899 de3d 1c03 16be c6d2 c9bc 823a 3a3d
00000110: 6a49 63bd d902 22be cf3f 9b3d d309 b2bd
00000120: 297b 2fbd dc64 f53d 9df8 e8bd 75e8 54bd
00000130: b9f9 b63d 26aa f0ba 17f4 9bbc c876 383d
00000140: 1a9b d23d eb26 853d b323 9fbd a4b0 94bd
00000150: 8dde b23d 0651 7d3d 2f7a d33d 083c fe39
00000160: f839 b63d ed25 243d b61d ecbd 3f46 2b3d
00000170: 7206 a3bd 2503 67bd 8d4d 81bc 874f b73d
00000180: c526 bd3d 1557 5cbc d546 f33d a35d 06be
00000190: 239f 953e c37d 99bd 34b8 37bd b526 52be
000001a0: a2d4 3ebd 4cfc 033d 6ddb 8a3d cacf f33d
000001b0: 80a5 013d 85af a03b c50d 9bbd 104c 89bc
000001c0: 2d33 2dbe d464 fa3d e687 4abd 78dd abbd
000001d0: 177e 373d a9a4 80bd 3dfe f73d 85a6 a03d
000001e0: 9e62 2cbe 0961 5a3d 1092 a53c 12a9 c53d
000001f0: 6be4 44bd 6e29 0bbe 3485 6bbd 8f0e 68bd

encoder.U_e.weight f4 [3, 3]
-0.027271178 0.2892661 0.72198105 -0.19384424 0.1491816 -0.24461812 -0.38266435 0.06583016
-0.4807558
00000000: ce67 dfbc b01a 943e c0d3 383f 1b7f 46be
00000010: 10c3 183e 2c7d 7abe 95ec c3be f7d1 863d
00000020: a025 f6be

encoder.U_e.bias f4 [3]
-0.7144453 0.54596317 0.09558808
00000000: e3e5 36bf 3ec4 0b3f afc3 c33d

encoder.W_e.weight f4 [3, 64]
0.18874073 -0.2660294 0.085144766 0.16543491 -0.31954303 -0.106662 -0.08854316 0.24210887
-0.12895036 -0.24933591 0.25000036 -0.19158693 -0.08466001 0.06602092 0.06896919 -0.05086703
0.056401726 -0.2707213 -0.26228103 -0.08679108 -0.099587366 -0.24233192 0.094617635 -0.06396022
-0.23033194 -0.119384095 0.15169762 -0.22005816 0.07833604 0.11740799 0.24513243 0.2912524
0.18290639 -0.16708814 0.07614156 0.060210932 -0.25185162 -0.04488385 -0.16671693 0.37223744
-0.28650284 -0.13461314 0.2605826 -0.3198004 -0.059994977 0.110361055 0.15734184 -0.07627044
0.13995825 -0.24213497 -0.08270379 -0.23662215 -0.21090615 -0.2529804 0.20117867 -0.18568547
-0.09700185 -0.24638906 0.0765246 -0.10892915 0.2937959 0.25425705 0.1439585 0.28103566
-0.2836839 0.064433195 -0.11695939 -0.08333266 -0.016370613 0.19377144 0.20938393 -0.10013555
0.084833995 0.14713366 -0.11928944 0.06853849 0.044909783 -0.13218349 -0.20605373 0.041530482
-0.03673095 0.24354722 0.11818021 0.15669514 0.03271688 0.07819177 -0.21425536 0.06989898
0.2173245 0.24270692 -0.058816623 0.25723967 -0.030525377 -0.17227066 -0.11706978 -0.04566155
-0.28884798 0.20346747 -0.20855246 -0.22853914 0.021535125 0.2902368 0.16999345 -0.10631893
0.24117441 0.16034263 -0.17790334 0.23338115 0.02559655 -0.15720032 -0.14215139 0.25041553
-0.22199798 0.21128055 0.27440068 0.11186067 0.13311604 0.286931 -0.21769206 0.08138861
0.23674197 0.23277627 -0.23144649 0.21582812 -0.2481262 -0.21088801 -0.2900301 -0.19095752
-0.14524584 0.103512436 -0.35225987 -0.2503772 0.31063262 0.03906435 0.11206559 -0.5755867
0.19885333 0.27630553 -0.13750094 0.030739337 0.2817473 -0.14921215 -0.40928456 0.31116366
-0.061144155 0.12876667 0.14950414 0.25184026 0.36209834 0.2211574 -0.19339573 0.1950079
0.10552423 0.32437253 -0.28605968 0.1029754 -0.25864276 -0.3901073 -0.20956428 -0.10206417
-0.26484635 0.21800612 -0.17282869 -0.24658245 0.32478437 0.0031706537 0.12640908 -0.45496005
0.28706044 0.30908254 -0.2792665 0.028516823 0.1589247 -0.25394922 -0.23990245 0.24491614
-0.17299545 0.32698095 0.31982636 0.22186501 0.31032455 0.40535656 -0.2640216 0.19961241
0.24762565 0.20560734 -0.1802239 0.23244515 -0.23635106 -0.2937934 -0.20199841 -0.20887487
00000000: 4045 413e 0135 88be 6160 ae3d c567 293e
00000010: 259b a3be 9b71 dabd 1e56 b5bd 63eb 773e
00000020: 900b 04be ea51 7fbe 0c00 803e 5d2f 44be
00000030: 3a62 adbd fa35 873d b83f 8d3d f259 50bd
00000040: 7f05 673d fb9b 8abe b349 86be 86bf b1bd
00000050: 76f4 cbbd dc25 78be e4c6 c13d 93fd 82bd
00000060: 23dc 6bbe a67f f4bd 9f56 1b3e ed56 61be
00000070: a56e a03d 9a73 f03d ff03 7b3e 091f 953e
00000080: d04b 3b3e 2719 2bbe 1bf0 9b3d bd9f 763d
00000090: b2f2 80be 21d8 37bd d8b7 2abe e895 be3e
000000a0: 80b0 92be 07d8 09be 156b 853e e1bc a3be
000000b0: 4bbd 75bd fa04 e23d 381e 213e ad33 9cbd
000000c0: 3751 0f3e 3bf2 77be 9b60 a9bd 144d 72be
000000d0: c8f7 57be a686 81be c801 4e3e 5524 3ebe
000000e0: e8a8 c6bd 6a4d 7cbe eeb8 9c3d 3f16 dfbd
000000f0: 6b6c 963e fb2d 823e db69 133e e8e3 8f3e
00000100: 043f 91be 8df5 833d 6888 efbd 50aa aabd
00000110: aa1b 86bc 056c 463e be68 563e de13 cdbd
00000120: 72bd ad3d 35aa 163e 064e f4bd e85d 8c3d
00000130: 52f3 373d 1c5b 07be c0ff 52be de1b 2a3d
00000140: 3173 16bd 7164 793e 7708 f23d b174 203e
00000150: 2302 063d 0223 a03d c265 5bbe 3227 8f3d
00000160: 508a 5e3e 2a88 783e b3e9 70bd ebb4 833e
00000170: 5b10 fabc b867 30be 48c2 efbd 9b07 3bbd
00000180: e2e3 93be c759 503e c78e 55be 2a06 6abe
00000190: 6e6a b03c eb99 943e c312 2e3e bdbd d9bd
000001a0: 6df6 763e dc30 243e 4b2c 36be 78fb 6e3e
000001b0: dbaf d13c 1ff9 20be 2290 11be 7736 803e
000001c0: 7053 63be ee59 583e 3f7e 8c3e 3517 e53d
000001d0: 924f 083e 9fe8 923e abea 5ebe 12af a63d
000001e0: 7d6c 723e e75c 6e3e 4f00 6dbe 0c02 5d3e
000001f0: cb14 7ebe 07f3 57be d37e 94be 5e8a 43be
00000200: 53bb 14be 54fe d33d 685b b4be 7131 80be
00000210: 3d0b 9f3e f101 203d a582 e53d a659 13bf
00000220: 35a0 4b3e eb77 8d3e 0ccd 0cbe 10d1 fb3c
00000230: 2f41 903e 12cb 18be bf8d d1be d850 9f3e
00000240: 4b72 7abd 69db 033e 9d17 193e 35f1 803e
00000250: f464 b93e 1677 623e 8809 46be 27b0 473e
00000260: 161d d83d 2814 a63e 6a76 92be c4e4 d23d
00000270: d36c 84be 25bc c7be 0598 56be 0507 d1bd
00000280: f199 87be ff3c 5f3e 01fa 30be 1c80 7cbe
00000290: 234a a63e beca 4f3b 6271 013e 86f0 e8be
000002a0: 96f9 923e 1140 9e3e 05fc 8ebe 1d9c e93c
000002b0: 28bd 223e a205 82be fda8 75be 4ccb 7a3e
000002c0: b825 31be 0c6a a73e 48c0 a33e 9530 633e
000002d0: dce2 9e3e e58a cf3e d72d 87be 3267 4c3e
000002e0: 9491 7d3e bb8a 523e 9d8c 38be 1a06 6e3e
000002f0: 0306 72be 176c 96be acd8 4ebe 4be3 55be

encoder.W_e.bias f4 [3]
-0.34568936 0.22570734 0.72236526
00000000: 32fe b0be d31f 673e eeec 383f

encoder.v_e.weight f4 [1, 3]
0.41996613 -0.37597463 -0.6853049
00000000: cd05 d73e bf7f c0be 2470 2fbf

decoder.W_d.weight f4 [32, 64]
-0.07344571 -0.12302312 0.108364195 -0.015418783 -0.042072326 0.106791526 -0.0944117 0.0732248
0.018845946 0.113635466 0.05834037 -0.1152302 -0.07635762 0.112569675 0.068383396 -0.092352614
-0.0380255 -0.091717094 0.11695117 -0.035881862 0.025519207 0.0077612996 0.07186559 -0.089922294
0.061370894 0.07723518 0.06631455 -0.07488716 0.03208442 -0.069034606 0.11228369 -0.044028357
-0.09799129 -0.020093992 0.11812453 0.048201784 0.11349772 0.04245852 -0.10254158 -0.10808638
0.05270508 0.0071641356 0.0028595775 -0.045094848 0.065154165 -0.008889943 0.053853318 0.09385894
0.03656231 -0.07953285 0.123560324 0.12115246 0.013341263 0.04933594 0.11878222 0.10237509
-0.10407062 0.046717867 0.09353703 0.08482596 -0.11789034 0.026015997 -0.017690346 0.046909854
0.063586235 -0.097788125 -0.0111692995 0.05634047 -0.09312856 -0.05320941 -0.065963954 -0.08763766
0.09184137 -0.008552372 0.061961055 0.10225983 0.08128087 -0.11127642 -0.07720797 -0.05519192
-0.04019898 -0.053381503 0.08072296 0.005130872 -0.06470254 0.05956529 -0.119275555 -0.01619716
0.042053014 0.007778093 0.07498725 0.112209365 0.025216952 -0.010350376 0.0639928 -0.034245133
0.08610459 0.07066283 -0.10943547 -0.040699303 0.10151577 0.124828026 0.06413345 0.034228683
-0.034762368 0.042335123 0.12364173 -0.10634723 0.05236399 0.04279673 -0.055782586 -0.08811596
0.0033705682 -0.04494092 0.08073594 0.059644252 0.08670314 -0.035428062 -0.07059421 0.103275985
0.0008531809 0.07019892 0.118921414 -0.115302965 -0.03267075 0.011727452 -0.0060546994 -0.060299367
0.013273463 -0.07157867 0.09318863 -0.029450879 -0.019960225 0.02325137 -0.123063326 -0.015507534
-0.078730896 0.08397533 0.11679889 0.064535424 -0.07653643 -0.12246379 0.07838425 0.045794025
0.039923966 -0.0723699 -0.010072723 0.057221606 0.05759348 0.111217245 -0.105350345 -0.09396714
0.018607289 -0.017283484 -0.07859485 0.08993401 -0.07816151 0.045347422 -0.0588852 -0.09965807
-0.015332028 -0.10947095 0.025702849 -0.0922315 0.03246498 -0.099833384 -0.027284056 -0.084509626
-0.044075012 -0.0068942904 -0.06846999 -0.05832638 0.11092591 0.11008291 -0.1038982 0.062129527
-0.11783023 -0.0014594048 -0.09246148 -0.0024684817 -0.08420053 0.07856624 0.010105744 -0.008653432
-0.006395906 -0.12411484 -0.022844404 0.100575775 -0.010963023 0.029178038 0.021282583 0.06463769
0.017673284 -0.05961086 0.04662037 0.042239875 0.06644878 0.09624545 0.114407584 0.03732653
0.038987577 0.045213968 -0.03829825 -0.08822857 0.08892685 -0.014079481 -0.114800274 0.046027392
0.07973227 -0.110023946 0.023371473 0.086896524 0.09343499 -0.036693513 0.033181712 0.12333052
0.029674083 -0.11303657 0.014628157 -0.028104186 -0.06060505 0.049897358 -0.11666414 -0.032626823
0.063859046 0.04503113 -0.03841515 -0.018489689 -0.06682642 -0.11594315 -0.11148697 0.088064
0.006337464 0.094381526 0.081347734 0.08498171 0.06737837 0.08494224 0.11454229 0.0034118295
0.11748041 -0.07470915 0.121576 -0.094479024 -0.09686643 -0.08973679 -0.069177434 0.07892792
-0.0067695826 0.12310955 0.12376705 0.06109354 0.09954491 -0.063656494 0.10098955 0.049304694
00000000: b46a 96bd 8cf3 fbbd 0cee dd3d 109f 7cbc
00000010: 0854 2cbd 84b5 da3d ec5a c1bd e2f6 953d
00000020: d062 9a3c b6b9 e83d 50f6 6e3d d0fd ebbd
00000030: 6261 9cbd ee8a e63d 980c 8c3d 5e23 bdbd
00000040: a0c0 1bbd 2cd6 bbbd 1884 ef3d dcf8 12bd
00000050: a80d d13c 8052 fe3b 442e 933d 2e29 b8bd
00000060: 0c60 7b3d 7a2d 9e3d eccf 873d 705e 99bd
00000070: f46a 033d 0462 8dbd fef4 e53d 1457 34bd
00000080: a8af c8bd 289c a4bc 46eb f13d 3c6f 453d
00000090: 7e71 e83d fce8 2d3d 5201 d2bd 645c ddbd
000000a0: 48e1 573d 20c1 ea3b c067 3b3b 60b5 38bd
000000b0: 8c6f 853d 20a7 11bc 4c95 5c3d 1e39 c03d
000000c0: 5cc2 153d 1ee2 a2bd 320d fd3d c81e f83d
000000d0: 5095 5a3c 7c14 4a3d 1844 f33d 08aa d13d
000000e0: fa22 d5bd 3c5b 3f3d 5890 bf3d 3cb9 ad3d
000000f0: 7e70 f1bd 801f d53c 58eb 90bc 8c24 403d
00000100: 8039 823d 2445 c8bd 70ff 36bc 44c5 663d
00000110: 30ba bebd 1cf2 59bd 1c18 87bd 607b b3bd
00000120: 5417 bc3d 401f 0cbc e0ca 7d3d 9a6d d13d
00000130: 9676 a63d e4e4 e3bd 361f 9ebd ec10 62bd
00000140: b0a7 24bd 90a6 5abd 1452 a53d e020 a83b
00000150: c482 84bd bcfa 733d be46 f4bd e8af 84bc
00000160: c83f 2c3d 60df fe3b ea92 993d 06ce e53d
00000170: c893 ce3c a094 29bc a80e 833d a044 0cbd
00000180: 9a57 b03d acb7 903d b41f e0bd 50b4 26bd
00000190: 80e7 cf3d d6a5 ff3d 6658 833d 6033 0c3d
000001a0: fc62 0ebd 9867 2d3d e037 fd3d 94cc d9bd
000001b0: a07b 563d a04b 2f3d 487c 64bd 2476 b4bd
000001c0: c0e4 5c3b f813 38bd e258 a53d 884d 743d
000001d0: 6a91 b13d 041d 11bd b293 90bd 5c82 d33d
000001e0: 00a8 5f3a 74c4 8f3d 128d f33d f623 ecbd
000001f0: c4d1 05bd 8024 403c 8066 c6bb 78fc 76bd
00000200: f078 593c d697 92bd aed9 be3d f842 f1bc
00000210: a083 a3bc a879 be3c a008 fcbd 5013 7ebc
00000220: aa3d a1bd 42fb ab3d 4234 ef3d 262b 843d
00000230: 22bf 9cbd 4cce fabd ec87 a03d 8492 3b3d
00000240: 5087 233d ac36 94bd 1008 25bc 3461 6a3d
00000250: 24e7 6b3d dec5 e33d ecc1 d7bd d871 c0bd
00000260: 506e 983c 1896 8dbc 56f6 a0bd 522f b83d
00000270: 2413 a0bd 38be 393d 9c31 71bd 8819 ccbd
00000280: 3033 7bbc 4e32 e0bd c88e d23c dee3 bcbd
00000290: 00fa 043d 7275 ccbd d082 dfbc 6213 adbd
000002a0: 0088 34bd 80e9 e1bb fe39 8cbd a4e7 6ebd
000002b0: 202d e33d 2673 e13d 94c8 d4bd 887b 7e3d
000002c0: fa50 f1bd 8049 bfba 725c bdbd 40c6 21bb
000002d0: 5471 acbd 56e7 a03d 9092 253c 20c7 0dbc
000002e0: c094 d1bb ec2f febd 3024 bbbc acfa cd3d
000002f0: 409e 33bc c806 ef3c d058 ae3c c460 843d
00000300: 90c7 903c 842a 74bd 00f5 3e3d b803 2d3d
00000310: 4c16 883d 561c c53d 864e ea3d b4e3 183d
00000320: 70b1 1f3d 4832 393d a0de 1cbd 2eb1 b4bd
00000330: 481f b63d a0ad 66bc 681c ebbd 3887 3c3d
00000340: ac4a a33d 3c54 e1bd 8875 bf3c cef6 b13d
00000350: d85a bf3d f04b 16bd 8ce9 073d b694 fc3d
00000360: 1017 f33c b87f e7bd f0aa 6f3c c03a e6bc
00000370: 003d 78bd 2c61 4c3d 9ced eebd b4a3 05bd
00000380: 88c8 823d 9072 383d 3459 1dbd b077 97bc
00000390: 4adc 88bd 9a73 edbd 4853 e4bd e65a b43d
000003a0: 80aa cf3b 1a4b c13d a499 a63d e40a ae3d
000003b0: acfd 893d 32f6 ad3d 2695 ea3d 0099 5f3b
000003c0: 9299 f03d 1c01 99bd d6fc f83d 387e c1bd
000003d0: e861 c6bd ecc7 b7bd e6ac 8dbd f6a4 a13d
000003e0: 60d3 ddbb dc20 fc3d 9479 fd3d 383d 7a3d
000003f0: 34de cb3d 565e 82bd 9cd3 ce3d b8f3 493d

decoder.W_d.bias f4 [32]
-0.02547195 0.016842274 -0.048951387 0.029264461 0.00656869 -0.0036127903 -0.06651919 -0.10603524
0.0736251 0.061250307 -0.0072351056 0.07417326 0.015177142 0.09833667 0.022062622 -0.008681909
-0.047325976 -0.065798245 0.023205934 -0.07235606 0.050575968 0.13396834 0.0655252 -0.10852001
-0.014452135 -0.12386978 -0.035112947 -0.032200776 0.0074035404 0.021263106 0.06645373 0.012216546
00000000: 8daa d0bc cff8 893c 4081 48bd 06bc ef3c
00000010: 2a3e d73b 90c4 6cbb 373b 88bd 0129 d9bd
00000020: c2c8 963d 9ae1 7a3d 7714 edbb 26e8 973d
00000030: 8ca9 783c bc64 c93d acbc b43c 913e 0ebc
00000040: e2d8 41bd 3bc1 86bd 5f1a be3c 6a2f 94bd
00000050: bf28 4f3d ff2e 093e 1332 863d bd3f debd
00000060: a6c8 6cbc 70af fdbd 98d2 0fbd f6e4 03bd
00000070: 6699 f23b f72f ae3c e518 883d e827 483c

decoder.U_d.weight f4 [32, 32]
-0.116806924 0.048569083 0.060644533 -0.052261192 -0.026489511 0.2239081 0.122721 0.26790968
0.09611315 0.29308602 -0.110459514 0.12124619 0.017850779 -0.04323823 -0.21957503 0.097533666
-0.29242238 0.020701407 0.18911436 0.139253 0.03606317 0.19670871 -0.092190936 0.100370295
0.0783327 0.12253085 0.041061856 0.22284633 -0.1719169 -0.027774228 -0.22212218 -0.20935583
-0.005686402 0.076845214 0.058244172 -0.014995596 0.18927902 0.0064858953 -0.029596368 -0.1307045
-0.19040975 -0.09907642 0.17801705 -0.22047013 -0.19271195 0.13910542 0.2005053 -0.17727025
0.12676466 -0.23438105 -0.051704098 -0.21810888 0.15870215 -0.01695937 0.02481861 -0.24177477
-0.25884417 -0.2518733 0.24976312 -0.19858451 0.25315866 0.23058017 0.043138184 0.21161065
-0.05044461 0.2378342 -0.025123686 -0.042509783 0.093534365 0.13894632 0.20610915 0.13644691
-0.040187337 0.21165317 -0.23572934 0.13850781 0.25418842 -0.16816357 -0.26012537 0.24916624
-0.06979177 0.24934109 0.16813521 -0.046717674 0.07726846 -0.025473518 -0.12899917 -0.046829954
0.2728646 0.26407853 -0.10154831 0.1105632 -0.026814694 0.03663507 -0.1002923 0.01933658
0.08642677 -0.1861086 0.21357194 0.006321245 -0.08408858 -0.044737164 -0.04188617 -0.044074822
-0.22827953 -0.061245006 0.18053362 -0.09511372 -0.24752371 0.18528083 0.16428523 -0.20934124
0.060122963 -0.2703629 0.09011837 -0.112288855 -0.07657717 0.020678293 0.000834989 -0.08175011
-0.19271398 -0.11355728 0.12143972 -0.17655797 0.2597228 0.24029493 0.15027063 0.046643004
-0.13775553 0.01590249 -0.058972027 -0.06196136 0.09021022 -0.017034443 -0.041310363 0.12890638
0.25713333 0.20919017 -0.19441369 0.22259234 0.19358511 -0.09418481 0.0014732743 0.2919395
-0.050264444 -0.009015124 0.12991863 0.13571116 0.14566655 0.22073363 -0.14783102 0.13564116
0.20595634 0.2727561 -0.011584377 0.19729489 -0.033468034 -0.015744632 0.042974573 -0.10312464
0.14103958 -0.101772785 0.1917977 0.036964044 0.07370494 -0.23242536 -0.13297588 -0.059687395
-0.10120596 -0.28906476 0.14068367 -0.2204763 -0.08924774 0.17889942 0.08680191 -0.028617542
-0.035313755 -0.07462229 0.07848834 -0.11552324 0.160909 -0.17725508 0.2007915 -0.25947192
-0.14994623 -0.2018812 0.19167009 -0.086377144 0.10223602 0.020064646 -0.008468623 0.18884669
-0.12510884 -0.09510411 0.074624576 -0.08619228 0.09037203 0.22056258 0.08034225 -0.019992543
0.096904755 0.096608795 -0.05841977 -0.035008654 0.076274805 -0.25618064 -0.18559629 -0.05828295
0.010973543 0.24512775 -0.025199722 0.040445898 0.08109654 0.09493717 -0.17450564 0.082876116
-0.04752688 -0.03194893 0.011294979 0.031275805 -0.024952132 -0.18554057 -0.19621992 -0.16587643
0.19059226 -0.26040462 0.13340223 0.16881853 0.10596079 -0.3172139 -0.2469417 -0.16661732
-0.18397449 -0.17853834 0.17790994 -0.064518526 0.036492348 0.038009036 0.0086299805 0.041193426
0.115275264 -0.15561347 0.028876169 -0.26105553 0.078812525 -0.1899244 0.14929947 -0.19350226
-0.26650867 -0.122508064 0.1540658 -0.2526182 0.16451696 -0.02204631 -0.031795386 0.16543338
00000000: 7838 efbd 60f0 463d 6766 783d d50f 56bd
00000010: 8800 d9bc 2a48 653e 2655 fb3d 752b 893e
00000020: f9d6 c43d 5f0f 963e 9938 e2bd ec4f f83d
00000030: cc3b 923c 921a 31bd 47d8 60be bbbf c73d
00000040: 63b8 95be ff95 a93c 32a7 413e 5798 0e3e
00000050: f9b6 133d 026e 493e 9ace bcbd f18e cd3d
00000060: e56c a03d 74f1 fa3d 7a30 283d d431 643e
00000070: fc0a 30be c786 e3bc ff73 63be 6061 56be
00000080: ff54 babb 0661 9d3d 7191 6e3d 17b0 75bc
00000090: 5cd2 413e a287 d43b 1574 f2bc 67d7 05be
000000a0: c6fa 42be 94e8 cabd 1a4a 363e ecc2 61be
000000b0: 4856 45be a771 0e3e 4351 4d3e 5586 35be
000000c0: 98ce 013e 9601 70be adc7 53bd ef57 5fbe
000000d0: d182 223e 60ee 8abc 6650 cb3c ce93 77be
000000e0: 3987 84be 8af5 80be e7c1 7f3e bd59 4bbe
000000f0: 039e 813e 351d 6c3e aab1 303d 76b0 583e
00000100: 029f 4ebd cf8a 733e 30d0 cdbc bd1e 2ebd
00000110: f28e bf3d f247 0e3e 470e 533e bdb8 0b3e
00000120: 7a9b 24bd 9cbb 583e 0863 71be fed4 0d3e
00000130: fc24 823e 1233 2cbe 272f 85be 6f25 7f3e
00000140: fdee 8ebd 4553 7f3e a32b 2c3e 085b 3fbd
00000150: ed3e 9e3d d7ad d0bc 5c18 04be c4d0 3fbd
00000160: e9b4 8b3e 4d35 873e 8ff8 cfbd f66e e23d
00000170: 7daa dbbc a80e 163d 0d66 cdbd bf67 9e3c
00000180: 8500 b13d 4193 3ebe 9ab2 5a3e 7222 cf3b
00000190: a236 acbd 513e 37bd d590 2bbd cd87 34bd
000001a0: 1cc2 69be 0bdc 7abd cedd 383e fbca c2bd
000001b0: db76 7dbe 42ba 3d3e 633a 283e 8d5d 56be
000001c0: 7f43 763d 026d 8abe fb8f b83d b3f7 e5bd
000001d0: 7ed4 9cbd 8665 a93c 2ae3 5a3a 9a6c a7bd
000001e0: d056 45be b890 e8bd 63b5 f83d 9dcb 34be
000001f0: 63fa 843e e00f 763e 8be0 193e bc0c 3f3d
00000200: c90f 0dbe f045 823c a78c 71bd 32cb 7dbd
00000210: 23c0 b83d d18b 8bbc 0e35 29bd 0900 043e
00000220: fba6 833e f335 563e 6214 47be 3fef 633e
00000230: 2d3b 463e f7e3 c0bd e21a c13a 1879 953e
00000240: 17e2 4dbd 2cb4 13bc 6409 053e def7 0a3e
00000250: 9d29 153e ff07 623e 0461 17be 84e5 0a3e
00000260: 38e6 523e b0a6 8b3e 66cc 3dbc ac07 4a3e
00000270: c715 09bd e3fa 80bc 1b06 303d 0333 d3bd
00000280: ae6c 103e 406e d0bd 9e66 443e 9c67 173d
00000290: 9ef2 963d ea00 6ebe d42a 08be c57a 74bd
000002a0: 1245 cfbd 4c00 94be 610f 103e 8ac4 61be
000002b0: 85c7 b6bd 6931 373e 33c5 b13d 566f eabc
000002c0: 28a5 10bd 92d3 98bd 7fbe a03d 7397 ecbd
000002d0: 54c5 243e 5b82 35be 499c 4d3e 81d9 84be
000002e0: 818b 19be f2b9 4ebe 2a45 443e 80e6 b0bd
000002f0: 1e61 d13d 9d5e a43c fbbf 0abc 0761 413e
00000300: 881c 00be f2c5 c2bd c5d4 983d 9485 b0bd
00000310: f914 b93d 28db 613e 7a8a a43d 67c7 a3bc
00000320: 0076 c63d d5da c53d 9249 6fbd 3c65 0fbd
00000330: f735 9c3d 1c2a 83be f40c 3ebe 1aba 6ebd
00000340: 60ca 333c c502 7b3e a66f cebc 99aa 253d
00000350: f115 a63d 6b6e c23d 9bb1 32be f4ba a93d
00000360: 8cab 42bd e2dc 02bd 930e 393c 0f1b 003d
00000370: 6a68 ccbc 59fe 3dbe e0ed 48be 83db 29be
00000380: 9e2a 433e c153 85be 989a 083e c4de 2c3e
00000390: f801 d93d dc69 a2be 49de 7cbe bb9d 2abe
000003a0: cf63 3cbe c1d2 36be 062e 363e 4a22 84bd
000003b0: 0079 153d 5daf 1b3d c364 0d3c 70ba 283d
000003c0: 7015 ec3d 2359 1fbe b78d ec3c 12a9 85be
000003d0: 7668 a13d 8b7b 42be f6e1 183e 7525 46be
000003e0: d373 88be 82e5 fabd 6dc3 1d3e 2c57 81be
000003f0: 2277 283e 779a b4bc e13b 02bd 5e67 293e

decoder.U_d.bias f4 [32]
-0.0172915 -0.03267301 -0.07302443 0.08575805 -0.05183916 0.019759953 -0.090513304 0.052806713
0.13677548 0.041562196 0.046035916 -0.05625309 0.09685778 -0.10088298 -0.026573382 0.09325251
0.044378985 0.18312676 -0.034431044 0.08582892 0.010598274 -0.058027048 -0.15603949 0.17307276
0.10922793 0.024942985 0.16971555 0.0114308335 -0.058831412 -0.00993941 -0.032716393 -0.03944583
00000000: e7a6 8dbc 22d4 05bd d58d 95bd eba1 af3d
00000010: 4d55 54bd a0df a13c 0a5f b9bd da4b 583d
00000020: df0e 0c3e 1f3d 2a3d 2890 3c3d a469 66bd
00000030: 5f5d c63d bc9b cebd 6cb0 d9bc 2cfb be3d
00000040: bdc6 353d 9585 3b3e 9107 0dbd 13c7 af3d
00000050: 62a4 2d3c c5ad 6dbd d1c8 1fbe fc39 313e
00000060: e5b2 df3d 3b55 cc3c eac9 2d3e 6448 3b3c
00000070: 35f9 70bd e8d8 22bc a001 06bd f391 21bd

decoder.v_d.weight f4 [1, 32]
0.15420051 -0.1113631 0.18668495 -0.26413316 0.20251809 -0.18724523 0.16786066 -0.2135528
0.17915168 -0.182031 0.17873082 0.117104456 -0.1556264 0.21082684 0.18991196 -0.11247005
0.14840338 -0.20228417 0.1612102 -0.15498014 0.18675125 -0.29192328 0.23755214 -0.24089575
-0.28109092 0.15502755 0.21320722 -0.1711122 0.27091557 0.23935331 -0.14692871 -0.21545394
00000000: bde6 1d3e 5612 e4bd 572a 3f3e 763c 87be
00000010: e760 4f3e 37bd 3fbe aae3 2b3e 96ad 5abe
00000020: 8a73 373e 5666 3abe 3605 373e 76d4 ef3d
00000030: 875c 1fbe fee2 573e 4878 423e b356 e6bd
00000040: 0ef7 173e 9523 4fbe 4914 253e 1db3 1ebe
00000050: b83b 3f3e f876 95be de40 733e 60ad 76be
00000060: 26eb 8fbe 8bbf 1e3e fe52 5a3e 0938 2fbe
00000070: 72b5 8a3e 0919 753e 7b74 16be f59f 5cbe

decoder.w_tilde.weight f4 [1, 33]
0.109235 0.0698862 0.013976051 -0.061015178 -0.10134759 0.16676155 -0.09446525 -0.016536476
-0.09540717 0.055760093 -0.08303784 0.005506919 -0.10840707 -0.14469342 0.003757002 -0.16242287
-0.07287863 0.07869839 0.09606035 -0.1038336 0.019448489 0.1511984 -0.093721524 -0.073395245
0.07593122 -0.034243293 -0.07567218 0.14414774 -0.17056672 -0.13649587 0.058195908 0.09141724
0.61047035
00000000: 9ab6 df3d 7f20 8f3d cefb 643c 0deb 79bd
00000010: 538f cfbd 8ac3 2a3e ff76 c1bd 8177 87bc
00000020: d664 c3bd b264 643d be0f aabd 6373 b43b
00000030: 8704 debd 832a 14be 0938 763b 2e52 26be
00000040: 6441 95bd 9f2c a13d 4abb c43d b6a6 d4bd
00000050: 7052 9f3c c1d3 1a3e 12f1 bfbd 3f50 96bd
00000060: d481 9b3d b242 0cbd 04fa 9abd 779b 133e
00000070: 0ba9 2ebe 93c5 0bbe d55e 6e3d f638 bb3d
00000080: c947 1c3f

decoder.lstm.weight_ih_l0 f4 [128, 1]
-0.07629279 0.30217454 0.05577773 0.35840917 0.37740764 0.22814548 -0.027367024 0.12453335
0.13309665 -0.4631543 0.12761164 0.124060564 0.07629936 0.016897999 0.11337543 0.34638897
-0.32631984 0.17286724 -0.017226342 0.07915401 0.12650183 0.20902744 -0.089608364 0.48648196
-0.18825972 0.28366747 0.109116524 0.0024946698 0.08528392 0.24089073 0.23288952 0.09844077
0.10502967 0.15584202 0.052569997 0.051027104 0.1608948 0.16046299 -0.04787357 0.0015956797
-0.016751666 0.09206246 0.17498328 0.0051327273 0.026297357 -0.01565355 -0.018511401 -0.073515
-0.055560797 -0.09563581 -0.026618032 -0.09730801 0.09982611 -0.06867298 -0.02177342 -0.1671257
-0.14199233 -0.034932192 0.083229065 -0.010532708 -0.0065328246 0.1217739 0.08145607 0.083804704
-0.006898069 0.25976092 -0.22763792 0.2891295 -0.3737303 -0.2251835 -0.2892942 0.05946443
-0.42936397 0.28270277 -0.061153147 -0.14220162 0.28449833 0.1697838 -0.18306135 -0.32734436
-0.364127 0.11938241 -0.33947927 -0.15919234 0.3090885 -0.14347835 0.057074796 -0.47184905
0.35030332 -0.19892615 0.013788522 -0.29503623 -0.16341358 0.1572784 -0.18179742 0.12051678
0.18012469 0.006521408 -0.11733557 0.2500154 0.31051552 0.16839226 0.13224056 0.101747565
0.09204931 -0.6566051 0.022433804 0.21084674 0.054125153 -0.030883333 0.27789864 0.33994257
-0.50065 0.21395329 -0.031575926 -0.020807147 0.1882866 0.16749397 0.10569874 0.5496279
-0.1123406 0.05613097 0.14361474 0.12064173 0.2600405 0.16196218 0.126523 0.30377504
00000000: 653f 9cbd 9fb6 9a3e 3077 643d 6881 b73e
00000010: 933b c13e f89e 693e cf30 e0bc 570b ff3d
00000020: 7d4a 083e 8f22 edbe a0ac 023e 7713 fe3d
00000030: d742 9c3d ac6d 8a3c 6131 e83d e559 b13e
00000040: 6513 a7be 1c04 313e 421e 8dbc 7f1b a23d
00000050: b289 013e 4a0b 563e 9784 b7bd 2a14 f93e
00000060: 28c7 40be dd3c 913e 7c78 df3d 9d7d 233b
00000070: 56a9 ae3d 0fac 763e 977a 6e3e 509b c93d
00000080: cc19 d73d 0d95 1f3e a353 573d cc01 513d
00000090: 9bc1 243e 6950 243e 1417 44bd 2026 d13a
000000a0: ca3a 89bc 3e8b bc3d d12e 333e 7030 a83b
000000b0: 8e6d d73c e03b 80bc 39a5 97bc 088f 96bd
000000c0: b893 63bd b5dc c3bd 0f0e dabc 6c49 c7bd
000000d0: a271 cc3d 6ba4 8cbd 2c5e b2bc 0023 2bbe
000000e0: 7066 11be 0f15 0fbd 0074 aa3d 6191 2cbc
000000f0: 4e11 d6bb 9864 f93d 71d2 a63d cda1 ab3d
00000100: 3209 e2bb 62ff 843e ea19 69be c808 943e
00000110: 9459 bfbe 8196 66be 5f1e 94be f990 733d
00000120: 98d5 dbbe 6bbe 903e b97b 7abd 4d9d 11be
00000130: c4a9 913e cedb 2d3e 6f74 3bbe ae99 a7be
00000140: db6e babe c47e f43d 3ad0 adbe 5103 23be
00000150: d940 9e3e fdeb 12be 43c7 693d 3396 f1be
00000160: f55a b33e 4cb3 4bbe 41e9 613c fd0e 97be
00000170: e455 27be 970d 213e 1a29 3abe 80d1 f63d
00000180: 9b72 383e 89b1 d53b a24d f0bd 0502 803e
00000190: e4fb 9e3e 056f 2c3e 126a 073e 0761 d03d
000001a0: 5984 bc3d 4617 28bf 19c7 b73c 35e8 573e
000001b0: 56b2 5d3d 0bff fcbc bb48 8e3e f40c ae3e
000001c0: 992a 00bf 9216 5b3e c255 01bd c073 aabc
000001d0: 34ce 403e 8a83 2b3e 9578 d83d 6ab4 0c3f
000001e0: d412 e6bd 97e9 653d be0f 133e 0313 f73d
000001f0: 0724 853e 6ad9 253e 3f8f 013e 6788 9b3e

decoder.lstm.weight_hh_l0 f4 [128, 32]
0.081668936 0.05711132 0.015722292 -0.10416368 0.09530399 -0.13221782 0.13271351 -0.036474135
0.1142023 -0.028516978 -0.06867475 -0.017353311 -0.12364924 -0.1055635 -0.13388 0.1742211
0.030981263 -0.042806678 -0.13311961 -0.0665456 0.06659198 -0.108447045 -0.13656972 -0.1347395
0.08965703 -0.085302986 0.03876429 0.11853236 0.055632826 -0.15528934 -0.0630972 0.025054088
-0.14525953 -0.076988764 0.12007557 0.1428755 -0.16465022 0.0146236075 0.1121834 -0.016090803
0.14529523 0.074173376 0.1581748 -0.029589321 0.17380787 0.0036463134 0.16349295 -0.03278494
-0.06680284 -0.16127545 -0.004855823 0.14263418 -0.16434133 0.1667434 0.044348326 -0.17378332
0.14091413 -0.015722208 0.16469686 0.030272184 -0.15657984 -0.10379808 -0.1643545 -0.12902115
0.060581923 0.16311418 -0.08232108 0.17583407 -0.027902436 0.12562184 -0.0069975145 0.15989715
0.056666143 0.15271947 -0.07162122 0.023865357 0.07951007 0.025856353 -0.1292649 0.06419363
-0.02246939 -0.05903827 -0.024717208 -0.17155945 0.043722235 -0.043471124 -0.11160837 -0.018254895
-0.05648194 -0.14550407 -0.15268266 -0.16121767 0.09463419 -0.08359779 -0.059433397 0.09665197
0.07880242 0.14403152 -0.07316465 0.110755466 -0.12691382 -0.100725636 0.13994174 -0.027847202
0.15009445 0.002114086 -0.041198965 -0.12993045 -0.15553728 0.13889554 -0.14540842 0.11016189
0.08113338 0.010865015 0.11476106 -0.08066841 -0.008100519 0.12249939 -0.05828907 -0.13552928
-0.07593937 0.026203413 -0.11188188 -0.10829447 -0.16430613 -0.027745629 -0.08389857 0.05716122
-0.06296954 -0.1663721 0.12468325 0.13025214 -0.17201418 -0.0037759782 0.113143764 0.022961898
-0.0676466 -0.07705672 0.17626671 -0.017402519 -0.069169804 0.049914468 0.13852231 0.17333677
0.063188285 0.024878968 0.16362552 -0.15340981 0.1640955 -0.060809094 0.07187034 -0.062696405
-0.013937499 -0.16598809 -0.02562385 -0.11070995 -0.06536277 -0.12603201 0.082614586 0.16959308
-0.10361811 0.11209919 0.056082346 0.15388592 -0.07815172 -0.052985754 0.08281854 -0.13468447
-0.110122845 0.059694476 -0.08015201 0.05024252 0.050491165 -0.17674449 -0.05355227 0.022520557
-0.079718806 -0.16938455 -0.080765896 0.17655538 -0.07186912 0.08897071 -0.038717758 -0.006200518
0.12189471 -0.1314845 -0.039271567 -0.15106604 -0.08638224 0.1050416 -0.14847791 0.094474226
-0.004756946 0.007926979 0.03476095 0.012758947 0.16024351 -0.15560481 -0.030859584 0.12734897
0.09329997 0.15234718 -0.11673922 -0.10420188 -0.051819295 0.16753298 -0.13911343 -0.042486362
-0.0037806986 -0.035715006 -0.081479505 0.16549815 -0.032220274 -0.053015254 0.08089824 -0.0018390777
0.020108914 -0.032753136 0.024631651 -0.054156106 -0.15572801 0.171168 0.12066179 0.16991793
-0.12641628 -0.085872665 0.08003254 0.012891119 0.0029922156 0.09592113 0.123807564 0.0058838055
1.6858739e-06 -0.079632506 -0.14500473 0.038008258 0.0153774675 0.06460526 -0.1172817 0.07343296
0.09352754 -0.1682314 0.021363648 -0.1302275 0.06451323 0.07891302 0.03063393 -0.14950974
0.06723632 0.14314762 0.0112695405 -0.022174722 -0.16373049 -0.17242311 -0.17355128 0.11384024
00000000: 0b42 a73d 8fed 693d 09cc 803c c453 d5bd
00000010: bd2e c33d 1c64 07be 0de6 073e e765 15bd
00000020: e5e2 e93d 709c e9bc 59a5 8cbd 8828 8ebc
00000030: d03b fdbd ad31 d8bd d717 09be 0467 323e
00000040: 6bcc fd3c 0e56 2fbd 8250 08be 0f49 88bd
00000050: 6061 883d 7c19 debd efd8 0bbe 27f9 09be
00000060: 1b9e b73d 55b3 aebd 4ec7 1e3d 18c1 f23d
00000070: 3fdf 633d 2b04 1fbe 1b39 81bd 3b3e cd3c
00000080: eabe 14be 49ac 9dbd 2eea f53d f44d 123e
00000090: 119a 28be db97 6f3c 69c0 e53d dcd0 83bc
000000a0: 46c8 143e 36e8 973d 93f8 213e 4e65 f2bc
000000b0: b1fa 313e fdf6 6e3b b26a 273e 8049 06bd
000000c0: edcf 88bd 6425 25be 981d 9fbb b20e 123e
000000d0: 1849 28be c8be 2a3e 97a6 353d 41f4 31be
000000e0: cb4b 103e dccb 80bc 4ba6 283e 5ffd f73c
000000f0: 7756 20be 1694 d4bd 8c4c 28be 1f1e 04be
00000100: c024 783d 6707 273e f497 a8bd d90d 343e
00000110: a693 e4bc 03a3 003e 684b e5bb 14bc 233e
00000120: c21a 683d 7e62 1c3e 25ae 92bd 4881 c33c
00000130: 2dd6 a23d b4d0 d33c 055e 04be f377 833d
00000140: ba11 b8bc 1dd2 71bd be7b cabc 48ad 2fbe
00000150: 1616 333d c70e 32bd ee92 e4bd 4a8b 95bc
00000160: 9b59 67bd 05ff 14be d858 1cbe 3f16 25be
00000170: 92cf c13d 5135 abbd 6f70 73bd 78f1 c53d
00000180: 2a63 a13d 007d 133e 59d7 95bd c3d3 e23d
00000190: b2f5 01be 3e49 cebd e34c 0f3e d11f e4bc
000001a0: 5cb2 193e 7a8c 0a3b 3fc0 28bd 7d0c 05be
000001b0: 2a45 1fbe a23a 0e3e f2e5 14be 8f9c e13d
000001c0: 4229 a63d 2d03 323c d907 eb3d 7b35 a5bd
000001d0: 0ab8 04bc f6e0 fa3d 85c0 6ebd 30c8 0abe
000001e0: 1a86 9bbd 8aa8 d63c 5422 e5bd 7ec9 ddbd
000001f0: de3f 28be cd4a e3bc 03d3 abbd e221 6a3d
00000200: 2df6 80bd 735d 2abe ef59 ff3d d160 053e
00000210: 7c24 30be 6776 77bb ebb7 e73d 971a bc3c
00000220: 4d8a 8abd eacf 9dbd 437f 343e ba8f 8ebc
00000230: e6a8 8dbd 1d73 4c3d cbd8 0d3e 327f 313e
00000240: dc68 813d face cb3c 738d 273e 7617 1dbe
00000250: a708 283e f512 79bd c230 933d f966 80bd
00000260: 1c5a 64bc c8f8 29be 1ce9 d1bc e6bb e2bd
00000270: eadc 85bd 890e 01be d631 a93d cfa9 2d3e
00000280: bb35 d4bd 4394 e53d 9ab6 653d 4594 1d3e
00000290: 020e a0bd 9707 59bd c49c a93d baea 09be
000002a0: 1688 e1bd 3282 743d bd26 a4bd 1acb 4d3d
000002b0: d3cf 4e3d 82fc 34be a059 5bbd 087d b83c
000002c0: 9d43 a3bd 2573 2dbe 9768 a5bd efca 343e
000002d0: 1e30 93bd 4736 b63d 8396 1ebd b72d cbbb
000002e0: efa3 f93d dfa3 06be 39db 20bd 0eb1 1abe
000002f0: 2ce9 b0bd 0d20 d73d 980a 18be b47b c13d
00000300: 28e0 9bbb 29e0 013c 7f61 0e3d e70a 513c
00000310: e016 243e de56 1fbe 3dcd fcbc c567 023e
00000320: 0e14 bf3d e600 1c3e f914 efbd cc67 d5bd
00000330: 7840 54bd c48d 2b3e c073 0ebe 2e06 2ebd
00000340: 99c5 77bb e649 12bd bade a6bd 5978 293e
00000350: 68f9 03bd 8626 59bd faad a53d 350d f1ba
00000360: 73bb a43c 2728 06bd 51c8 c93c cbd2 5dbd
00000370: 2a77 1fbe aa46 2f3e 871d f73d f7fe 2d3e
00000380: 4573 01be 02de afbd 1ae8 a33d 4635 533c
00000390: 0c19 443b 4c72 c43d d28e fd3d f0cc c03b
000003a0: 3046 e235 5e16 a3bd 1f7c 14be 8cae 1b3d
000003b0: c6f1 7b3c c34f 843d 6331 f0bd 0564 963d
000003c0: 5e8b bf3d da44 2cbe d102 af3c 5c5a 05be
000003d0: 831f 843d 269d a13d 02f4 fa3c 1519 19be
000003e0: 32b3 893d 4a95 123e e1a3 383c c3a7 b5bc
000003f0: f7a8 27be af8f 30be 6db7 31be 1225 e93d
