weights/DARNN_L3_HDE32_HDD32_BS32_E50_s3.pth (torch, 106930 bytes, 22 tensors)

encoder.lstm.weight_ih_l0 f4 [128, 81]
000000 3f de b6 bd f4 8a a5 3e e6 22 4e 3d 4c 80 f3 bd
       -0.08929109 0.32332575 0.05032625 -0.11889705
000010 f1 27 83 3d 73 c7 84 bd ac c8 b9 3d ab c1 7b 3e
       0.064041026 -0.064833544 0.09071478 0.24585597
000020 7e 13 f0 3c 1b 26 b3 3e 48 17 85 3e f3 03 6a 3e
       0.02930617 0.3499001 0.25994325 0.22853069
000030 69 e1 6c 3d f4 8d c7 bd b1 c0 ac bc d0 9b 51 3e
       0.057832155 -0.09743872 -0.021087976 0.20469594
000040 11 20 6a bd ee f9 c0 3e 3a 19 15 3e 2f 47 36 3e
       -0.057159487 0.3769068 0.14560404 0.17800592
000050 d6 ad 12 3e 0f 7d a1 ba fc 09 50 3e 22 95 62 be
       0.14324126 -0.0012320596 0.20316309 -0.22127202
000060 cf b3 15 3b 40 e8 15 be 3a bf 78 3d a4 92 70 3e
       0.002284277 -0.14639378 0.060729243 0.23493439
000070 f4 5a c4 bd 71 5f af bd 78 c3 01 3d 48 d1 85 3e
       -0.095876604 -0.08563126 0.031680554 0.2613623
000080 bb ac 5d be d2 ad 83 3e 55 08 cd bd dc 4b 79 bd
       -0.21647923 0.25718552 -0.10011355 -0.06086336
000090 6c 3c c2 3c 7e 41 9c 3e 58 43 1e 3d ca 02 de 3d
       0.023710452 0.30518717 0.038638443 0.10840376
0000a0 50 84 78 3e 43 6d 96 3c d9 e8 6c 3d 32 95 82 bd
       0.24269223 0.018362647 0.05783925 -0.06376113
0000b0 8c 69 be 3d 92 b5 62 39 b9 14 bb bd a5 c1 0c 3e
       0.09297475 0.0002162068 -0.09134812 0.13745745
0000c0 6e 46 a4 3e 69 87 1a 3e 11 08 85 3e 34 59 97 3d
       0.32084984 0.15090717 0.25982717 0.07390061
0000d0 19 b0 23 3d c8 31 c1 3e ec cd 08 3e 12 a8 0f 3e
       0.03996286 0.37733293 0.13359803 0.14028957
0000e0 9e 80 ad 3b 7e 21 28 3e 9c 09 30 3e 67 1e 47 3e
       0.0052948734 0.16419026 0.17191166 0.19445191
0000f0 c7 34 b2 3e 4a 97 0b 3d d0 72 5a bd a3 24 94 3d
       0.3480589 0.034079827 -0.05333215 0.072335504
000100 59 26 66 be 98 cf ed bd 67 0a 39 3e 1b 37 88 bd
       -0.22475566 -0.11611861 0.18070374 -0.066511355
000110 dc 54 8b 3e bd 0f 10 3e 21 5e 58 3e d1 67 b9 3e
       0.2721318 0.14068504 0.21129657 0.36212018
000120 fd 26 5f 3d 47 1e 48 bc fa 27 c3 3d 62 4d 2b 3e
       0.05448054 -0.01221425 0.09529109 0.16728738
000130 09 ac ef 3d 99 a7 8e 3e 9c ce 81 bd bc a2 27 3e
       0.11702735 0.27862242 -0.06338236 0.16370672
000140 7d 6e 4f 3d 39 eb 3c bb e1 c9 c0 3c d1 fd 74 3e
       0.05064248 -0.0028826727 0.023533763 0.23924948
000150 18 6d 83 3e d0 3a 50 be 66 f3 88 3e 1f 36 0f be
       0.2566917 -0.20334935 0.26748198 -0.1398549
000160 21 ee 20 bd 0d fd e0 3d ce ae 98 3d c5 e0 21 3e
       -0.039289597 0.109857656 0.07455216 0.15808399
000170 7c f0 2f bb 25 cb c9 3e ce d8 8f 3d 93 fc 9e 3e
       -0.002684622 0.394128 0.07023774 0.31052074
000180 ce 72 e0 3d 1d 25 81 3e e0 ce 93 3d f6 5c e5 3d
       0.10959397 0.25223628 0.07217193 0.111993715
000190 52 5b 27 3e c3 2d 68 3e 59 8f 7e 3d 59 c7 71 3d
       0.1634343 0.22673707 0.062148426 0.059028003
0001a0 16 fe 81 3e 6f fe 7f 3c e8 7d 4c 3d 66 4b 30 3e
       0.25389165 0.015624627 0.04992476 0.17216262
0001b0 19 0c 42 3e a6 96 76 3d 33 b3 48 3e 2a 1c 2c 3e
       0.18949927 0.060202263 0.19599609 0.16807619
0001c0 e8 66 b0 3d e9 40 49 bd 58 52 d3 3d f8 34 3d be
       0.08613378 -0.04913417 0.1031844 -0.18477237
0001d0 49 95 16 3e 42 a9 53 3e 5e 8a 93 3e 11 db 9a 3e
       0.14705385 0.20670035 0.28816503 0.3024526
0001e0 f0 27 86 3e 75 f0 59 3d 05 c6 b3 bc 57 8f 8a 3d
       0.26202345 0.053207833 -0.021945009 0.06765621
0001f0 2b e9 85 bc 40 9e c7 bb b8 75 6a 3e a2 c5 4b 3e
       -0.016346535 -0.006091863 0.22896469 0.1989961
000200 3c 4e cd 3b 5e bc 50 3e 61 1c a2 3e bc b6 27 3e
       0.00626543 0.20384356 0.31662276 0.16378301
000210 ed 97 6f 3e 00 2a 1e bd 84 66 7c 3d 07 26 63 3e
       0.23397799 -0.038614273 0.061621204 0.22182475
000220 13 e6 66 3e 72 81 96 3e c7 5a 5d bd e0 b7 a8 3d
       0.22548704 0.29395634 -0.05404165 0.082381964
000230 4b 78 a1 3c 42 8c 2e 3e d7 a9 ca bc f1 b8 67 3e
       0.01971068 0.17045692 -0.02473919 0.22629143
000240 e7 19 88 3c 95 bf 09 3c a7 90 2c 3e ea a5 3a 3d
       0.016613914 0.008407493 0.16852055 0.045568384
000250 e3 ea 79 3e b0 7a 9a 3e 0e 2d d8 bd b2 c2 72 3e
       0.24406008 0.30171728 -0.105554685 0.23707083
000260 c2 dc f5 3d 73 2f a3 3e c4 3d 97 3e f2 fb 3f bd
       0.12004997 0.31872138 0.2953931 -0.046871133
000270 f6 fb 81 3e f4 de bb 3d 78 7a 0f 3e 4b 45 1d be
       0.25387543 0.09173384 0.14011562 -0.15358464
000280 58 ea f8 3c 06 53 8f 3e b2 99 fa 3c db 97 d0 bc
       0.030385181 0.2799303 0.030590866 -0.025463035
000290 0f 6f b9 bd d9 98 30 be 5a b7 5f bd b9 8b df bc
       -0.09054386 -0.17245807 -0.054618217 -0.027288305
0002a0 c9 8e 09 be bc b0 28 be df 7c 9a 3c 01 af f7 bd
       -0.13433374 -0.16473669 0.018858371 -0.12093926
0002b0 c1 70 a6 be 60 fe b6 3c b0 94 b8 bb ba 51 c8 bd
       -0.325079 0.022338092 -0.0056329593 -0.09781213
0002c0 39 73 5b bd a2 19 19 3d fe 44 54 3d c6 4b 8d be
       -0.05357668 0.03737796 0.05182361 -0.27596873
0002d0 b1 15 01 3e 38 99 86 bd aa a7 44 3c d9 66 4e ba
       0.12605931 -0.06572193 0.012002865 -0.0007873602
0002e0 27 97 b3 3c a0 85 07 3d 8c 7e d8 bd 9c 11 95 3d
       0.021922661 0.03308642 -0.10571012 0.07278749
0002f0 8b 58 ce bd 5e c4 14 be f1 ea 50 3e 55 d5 25 be
       -0.10075482 -0.14528033 0.20402123 -0.16194661
000300 63 85 8b be 30 97 7f 3c 00 e9 5d bd d2 d6 f7 3c
       -0.27250203 0.015600011 -0.054177284 0.030253801
000310 92 5e 51 be 30 86 da bd 14 aa 5f be cd 28 28 3e
       -0.20446232 -0.106701255 -0.21842223 0.16421814
000320 7d 34 fa bd 82 74 fe 3d 2d 10 60 3d 4b c8 ba 3d
       -0.122170426 0.12424566 0.054702926 0.09120234
000330 74 22 e2 3d a6 62 af bd 62 7f 0f bc b6 7c 54 be
       0.11041728 -0.085637376 -0.008758398 -0.20750698
000340 11 e5 bd 3d b8 05 9c be 5b d7 71 be eb 19 07 be
       0.092722066 -0.30473113 -0.23617308 -0.1319348
000350 aa a0 9c 3d ff 32 84 bd 32 9c 80 be f6 ba 20 be
       0.07647832 -0.06455039 -0.25119168 -0.1569632
000360 80 08 3b 3d a9 d7 97 bd f8 39 cb 3d 00 f4 86 3d
       0.045662403 -0.07414181 0.09923166 0.06589508
000370 cb 91 42 be 6a 7a 45 be 52 10 a2 3b 51 99 c3 bd
       -0.19000928 -0.19284979 0.004945793 -0.09550727
000380 92 d5 1a 3e f0 67 28 be 54 35 0a be 3b 2a 30 3d
       0.15120533 -0.16445899 -0.13496906 0.043009024
000390 1b e6 0f 3e 2e bf 23 be ed eb 8b bd f6 7f 43 3d
       0.14052622 -0.15990898 -0.06832109 0.047729455
0003a0 dd 87 ad bd 66 3b 24 bd 02 7d 94 bd a5 d5 b9 3d
       -0.084731795 -0.04009571 -0.07250406 0.090739526
0003b0 7f 7a 91 be 55 ef e5 bd 9e 70 89 bd 9f 5e b0 3d
       -0.2841377 -0.112272896 -0.06710933 0.086117975
0003c0 2c 88 21 be 39 38 e8 3d f2 36 4c be e7 20 9e bb
       -0.15774602 0.113388486 -0.19942835 -0.0048256996
0003d0 e8 d4 16 3e 80 7e 16 3e 82 91 79 3d 20 04 69 bc
       0.14729655 0.14696693 0.060929783 -0.014222175
0003e0 bc 62 82 bd 5b 64 97 be 8f a8 09 3e 08 78 11 3e
       -0.06366488 -0.29568753 0.13443206 0.14205945
0003f0 4b 4c a8 3d bb f2 80 be b2 b5 78 bd bd 6a 07 be
       0.08217677 -0.2518519 -0.060720153 -0.13224311

encoder.lstm.weight_hh_l0 f4 [128, 32]
000000 36 94 67 3e 17 4c e2 3d f4 08 52 3e bd 2f 61 3e
       0.22615132 0.11049669 0.20511228 0.21990867
000010 87 92 43 3e 6f 1b a5 be 87 20 07 3e 2c 2c c4 bd
       0.19098864 -0.32247493 0.13196002 -0.095787376
000020 8e 6b 18 bc 22 9e 70 bd e1 c2 c3 bd 12 42 61 bd
       -0.009302987 -0.058744557 -0.095586546 -0.05499465
000030 cd ec ab 3d 21 10 4e bd 53 98 1e 3e 92 df 4f bc
       0.083947755 -0.05030835 0.15487795 -0.012687581
000040 98 04 23 3e 24 3a 4b bd 1f 2a 02 bd 67 8d 3d bd
       0.15919721 -0.049615994 -0.03177845 -0.04627743
000050 44 e0 65 be 4f ba c3 bd 0f db 19 3e d2 74 19 3e
       -0.22448832 -0.0955702 0.1502497 0.1498597
000060 09 db 05 3e 9e 26 80 bd 64 20 92 3d 1a fe f8 3c
       0.13071837 -0.06257366 0.07135084 0.030394603
000070 e4 f0 db bd e6 3d be 3e f0 98 7a 3d 9c 9f ae 3e
       -0.107393056 0.371566 0.06118101 0.34106147
000080 ea 95 de be 73 70 63 be 8c 89 b5 3e 9e 6c f9 3b
       -0.4347375 -0.22210865 0.35456502 0.007611825
000090 b6 96 44 3d 25 08 b0 bd 0a 54 7c 3c 9f 2c 26 be
       0.04799529 -0.085953034 0.015400896 -0.16227959
0000a0 34 b0 0c 3e 2f 41 96 3e ff 87 f5 bd 70 93 2b bd
       0.13739091 0.29346606 -0.1198883 -0.041888654
0000b0 7b 99 21 3e b2 4e 0f 3e fe c1 ed 3d cb c7 66 3e
       0.15781204 0.13994864 0.11609267 0.22537152
0000c0 e2 10 8b 3e 71 56 78 be 47 b7 30 3e 6c 4e d3 3d
       0.27161318 -0.24251725 0.17257415 0.10317692
0000d0 0a a5 98 3d c7 c6 52 bd ce 86 93 3c f8 60 fb 3d
       0.07453354 -0.0514591 0.018008616 0.12274355
0000e0 e4 96 7e be 3a 11 98 be a5 c8 f1 be a0 b3 c9 be
       -0.24862248 -0.29700643 -0.47223392 -0.39394855
0000f0 fe 30 24 be 17 55 6a be 8b 1a b9 bd d9 ef b1 3c
       -0.16034314 -0.22884022 -0.09038266 0.021720814
000100 88 90 82 3d 9a 4d 61 be 3f cd 02 bd 48 1f 6f be
       0.063752234 -0.22002259 -0.03193402 -0.23351777
000110 f5 cb 70 be 8b 2d 6e 3e 96 98 68 be dd ad 43 bd
       -0.23515303 0.23259561 -0.22714457 -0.04777323
000120 ad 64 19 bd ac c6 ad 3b 80 89 ac bd 1b bf 7a 3d
       -0.037449528 0.0053032245 -0.084246635 0.06121741
000130 7f 8e dc 3b a3 e6 2a be 8f 8e 4c bd 8d a7 33 bd
       0.006730854 -0.16689543 -0.049940642 -0.04386096
000140 f0 8f aa 3c ea 7d 35 3d 9a 9b 5b 3d 5b 0a 63 3e
       0.020820588 0.044309534 0.05361519 0.22171919
000150 45 77 2a bd 13 99 de 3c 31 d1 98 3d 6b f4 94 be
       -0.04161765 0.0271726 0.07461775 -0.29092726
000160 0b bb b2 be a0 c5 8b bc 4d 40 48 bd 09 8c 6f be
       -0.34908327 -0.017062008 -0.048889447 -0.23393263
000170 27 8b 45 3d c7 b7 84 be 64 f5 00 3e d8 7f c0 be
       0.04822841 -0.2592146 0.12593609 -0.37597537
000180 8a 70 a5 3b df 76 84 bb f1 38 d8 bd 94 e6 8f 3c
       0.005048816 -0.004042491 -0.10557736 0.017566003
000190 fc a6 d6 bd 2e 14 3b 3e f0 82 d6 3d 94 e6 3c 3d
       -0.104810685 0.18269417 0.10474193 0.046118334
0001a0 f8 24 a8 3d d9 2a 20 be 44 72 7a 3e d0 16 bb bd
       0.08210176 -0.15641345 0.24457651 -0.091352105
0001b0 27 86 bc bd f3 46 13 3e 9b 57 6a 3e 9c 60 a4 3d
       -0.09205275 0.14382534 0.22884981 0.08026239
0001c0 c2 bd 96 3e 1e 05 c3 3d fa 05 16 be a8 9b b3 be
       0.2944165 0.095224604 -0.14650717 -0.35079694
0001d0 83 07 fc bd a3 ad b4 be 94 86 77 3d a0 73 70 bd
       -0.1230612 -0.35288724 0.060431078 -0.05870402
0001e0 d5 a3 dc bd 56 b5 02 3e 32 58 36 3d d5 0d 87 bd
       -0.10773436 0.12764487 0.044517703 -0.06594435
0001f0 ac 00 89 3d 02 54 44 3d 09 5d dd be 51 09 71 bd
       0.06689581 0.04793168 -0.43235043 -0.058846775
000200 4c cd 7c bb 59 1f 84 3d c3 87 3c be 8f c6 4d bd
       -0.0038574515 0.064512916 -0.18411164 -0.05023819
000210 54 60 07 be 46 72 8c 3d 2a 0c 11 3e 7a e1 f1 bc
       -0.1322034 0.068577334 0.14164796 -0.02952646
000220 47 0f 6b bd 32 b0 c7 bc e1 79 fc 3d 3a d1 af be
       -0.057387616 -0.024376009 0.12327934 -0.34339315
000230 11 41 90 bd ec b0 8f 3e ea 21 4b 3e 21 9c 52 3e
       -0.070436604 0.28064668 0.19837156 0.20567371
000240 b5 c3 fc 3d f7 c3 6a 3d 20 12 cb 3d 93 40 39 be
       0.12342016 0.057315793 0.099155664 -0.1809104
000250 4b db 39 3e f5 c2 45 be ee f7 b3 bb 3d d6 9c bc
       0.1815006 -0.19312651 -0.005492202 -0.019145126
000260 5b d5 85 3d 17 eb f5 bd ea 63 15 be 89 39 f6 3d
       0.06534835 -0.120077305 -0.14588895 0.12022693
000270 39 4a 7a 3c e8 35 38 be 19 a8 c3 be 3c d8 29 bc
       0.015276485 -0.17989314 -0.38214186 -0.010366496
000280 b4 41 1c 3e ec 2a ea 3b 1a 7f dc 3c a6 52 08 bd
       0.15259439 0.00714623 0.026916075 -0.033281945
000290 d3 0e 02 3d dc 9c e4 bd 0b 06 cc 3d b3 01 a5 3e
       0.03175242 -0.11162731 0.0996209 0.3222786
0002a0 03 78 b0 3d f3 61 58 be 7e 84 de 3d 21 b6 11 be
       0.086166404 -0.21131115 0.10865115 -0.14229633
0002b0 e5 a1 b1 bc 6c a9 17 3e 57 e1 c7 bd a3 67 bb bb
       -0.021683643 0.14810723 -0.09759777 -0.0057191416
0002c0 dd 2a 4e 3e b2 42 fe bc d2 ae 87 ba 1e 4d 88 be
       0.20133539 -0.031037662 -0.0010351783 -0.26621336
0002d0 dd 79 10 3e aa da 78 be 36 c4 5b bd 34 53 2c 3e
       0.14108987 -0.24302164 -0.05365392 0.16828614
0002e0 c0 71 09 3c 0d 10 ec bd 0b b9 35 be 6c 6c a4 bd
       0.0083889365 -0.11526499 -0.1774637 -0.08028492
0002f0 51 73 b5 bd c1 0c 56 be 5c 1e aa be 05 2e 36 3e
       -0.088598855 -0.20903303 -0.33226287 0.17790993
000300 81 9f 2a bf f0 0b 4f be ba db 90 3f c1 c3 20 3e
       -0.66649634 -0.20219398 1.1317055 0.15699674
000310 bb 24 ee 3d 8f d8 3c 3e 34 86 81 3e a1 b9 48 bf
       0.116280995 0.18441986 0.252977 -0.7840825
000320 79 3f 8b 3d c0 28 82 3f e1 9d 72 bf 26 68 99 be
       0.06799216 1.0168686 -0.94772154 -0.2996227
000330 df 17 e2 3e 06 b9 c0 3a 65 b1 a6 3e 35 50 b1 3c
       0.44158837 0.0014703579 0.32557216 0.021644691
000340 79 ee 98 3e 50 eb 25 bf 61 c5 7a 3f 80 eb 10 3f
       0.2986944 -0.64812183 0.97957426 0.56609344
000350 b7 b3 82 be e9 78 83 3e 64 90 d1 bd fb 40 1a 3e
       -0.25527737 0.25678185 -0.102326185 0.1506385
000360 56 25 01 bf 8b 04 10 bf 84 36 ca be 04 0d de be
       -0.50447595 -0.5625693 -0.39494717 -0.43369305
000370 b8 b8 e7 3c ce 94 94 be 30 1b 31 3f 2d 81 ba be
       0.028286323 -0.2901978 0.6918211 -0.36426678
000380 2c 01 00 3e e0 c8 04 3e d9 ee fd ba 30 8c 47 3e
       0.12500447 0.12967253 -0.001937355 0.19487071
000390 37 1b 09 3d 1e 66 c0 bd 2d 52 7c 3c 4f 13 2a bd
       0.03347322 -0.09394477 0.015400452 -0.04152232
0003a0 d7 0b 76 3d 1e 27 2d 3d 09 bc 06 3e bf 8c 1f 3e
       0.060069885 0.042273633 0.13157667 0.15581034
0003b0 4b 63 a1 be 60 5a 34 be 12 50 d8 3d 8b 09 13 bd
       -0.31521067 -0.176126 0.10562147 -0.035897773
0003c0 38 50 15 3e ac 87 90 bd 63 cc 9e ba f3 ea c9 bd
       0.14581382 -0.07057127 -0.0012115355 -0.09859266
0003d0 e7 cf da bd 62 88 6f bd 40 93 65 bd 28 ef 6a bd
       -0.106841855 -0.058479674 -0.05604863 -0.057356983
0003e0 f2 f2 46 3e 70 99 56 3e 58 50 1f 3e 8b 90 13 3e
       0.19428614 0.2095697 0.15557992 0.14410608
0003f0 83 23 7a 3d d2 37 4b 3e 0a 7b 06 be 03 fb e3 bd
       0.061069023 0.19845513 -0.13132873 -0.11131861

encoder.lstm.bias_ih_l0 f4 [128]
000000 f8 00 07 3e ab c2 23 3e ba 56 40 bd 8d 64 0f 3e
       0.13183963 0.15992229 -0.04695771 0.14003201
000010 a0 5d 31 3e 7e bb b5 bd 6b bf 52 3f 13 a9 97 ba
       0.17320871 -0.08873652 0.8232333 -0.0011570774
000020 89 e8 76 3e 16 3d 11 be 2d 7d e8 bd c1 69 12 3f
       0.24112143 -0.14183459 -0.113520004 0.5719262
000030 ed 44 88 3b d2 01 88 3e 35 8f d4 3e 8d a8 59 3f
       0.004158607 0.2656389 0.41515508 0.85022813
000040 1c e4 03 3f 71 55 bf 3d 17 f2 df 3d 77 33 d5 3e
       0.5151994 0.093424685 0.10934847 0.41640827
000050 47 6a 1c bd fe d4 e8 3d b2 55 9d bc 92 21 cc 3e
       -0.03818729 0.1136875 -0.019205902 0.39869362
000060 80 c5 46 3e e4 25 92 3e 64 fc ea bd d5 41 02 3e
       0.19411278 0.28544533 -0.11473921 0.12720425
000070 75 7b d2 3e 95 7f f1 3e 81 67 0e 3e 56 10 b3 3e
       0.41109815 0.4716765 0.13906671 0.349734
000080 69 09 af ba f8 16 ca bd 66 33 b5 3d 26 5b f4 be
       -0.0013354245 -0.09867662 0.08847694 -0.4772579
000090 82 b6 49 be 90 c4 be be dc 62 a7 be b1 fa 86 be
       -0.19698527 -0.3725934 -0.3269261 -0.26363137
0000a0 1f bb 9b be 93 9c 48 3e 59 cd d1 3d f8 b9 84 be
       -0.304162 0.19590978 0.10244245 -0.25923133
0000b0 d7 8b 4c 3a 31 33 a6 3d ef 04 91 be 36 c1 27 be
       0.000780282 0.08115233 -0.28324077 -0.16382298
0000c0 56 2c d7 be f7 54 3f 3d a0 38 8e bd fd 8f 72 bd
       -0.42026013 0.04671189 -0.06944394 -0.05921935
0000d0 06 ae 91 be 7c e6 84 bd 17 ea 1d 3d 5e 92 d0 bd
       -0.28453082 -0.06489274 0.038553324 -0.10184167
0000e0 e4 d8 d0 bd 01 7b 5e be c4 04 46 be a9 c5 df 3c
       -0.101976186 -0.2172661 -0.19337755 0.027315931
0000f0 e3 da bd be 6a 57 e1 be 1e b0 b6 bd cd 6f 42 bf
       -0.3708106 -0.44012004 -0.089203104 -0.75951844
000100 f9 e2 03 3e fa 58 a3 3c bd e3 ac 3d 9f bf 37 bd
       0.12879552 0.019939888 0.08441875 -0.04486048
000110 9d fc aa 3d 93 9d af 3c 00 9e 1f 3d 5a 77 c2 3c
       0.083489634 0.021437442 0.03896904 0.023738552
000120 76 d4 ea 3d b4 d4 d6 3d 79 78 a4 bc b3 c6 55 bd
       0.11466305 0.10489789 -0.020076977 -0.052191447
000130 f9 70 0d be 83 4b ed 3d 80 5e 06 bc 67 f0 8d 3d
       -0.13812627 0.11586668 -0.0082012415 0.06930619
000140 12 28 16 3d 9d 37 fc 3d d2 37 aa 3d c4 0a 3c be
       0.036659308 0.12315295 0.08311428 -0.18363482
000150 c7 c8 e1 3c 34 49 78 3d 26 5b 3f be 27 2a 5a bd
       0.027561558 0.060616687 -0.18687114 -0.053262856
000160 af ae 95 3c ec 9c 0f 3e f0 82 a0 bd bf 9f 7a bd
       0.018271772 0.14024705 -0.07837474 -0.061187502
000170 60 c0 8f bd c5 c9 90 3d 70 12 b6 3d 63 03 cf 3d
       -0.070191145 0.070697345 0.088902354 0.10108068
000180 27 53 ad 3d c6 cb f8 3d 84 16 e8 bd d0 38 db bd
       0.08463126 0.12148242 -0.113324195 -0.107041955
000190 bc a6 f2 3c 7f 10 2e bd 75 d8 20 3f 5b 53 31 be
       0.02962052 -0.0424962 0.6283029 -0.17316954
0001a0 5c 70 09 3f 9d cb 1c be 3a 8a b8 3d d6 3c c2 3e
       0.5368707 -0.15312047 0.090107396 0.3793704
0001b0 73 c0 59 3e af b7 2d 3e 4f 18 e0 3e da 58 44 3f
       0.2126482 0.16964601 0.43768546 0.76698077
0001c0 a0 72 b7 3e 1f 85 2d be 9a bb 62 bd e7 16 ad 3e
       0.3582964 -0.16945313 -0.055354692 0.33806536
0001d0 cd 1c ae bd 7a e9 f7 3c 22 25 0b 3e 83 f6 7a 3e
       -0.08501587 0.030262697 0.13588384 0.245081
0001e0 fc 2d 6b 3e f3 68 3e 3e 8b 06 4c 3d 1f 07 3d 3e
       0.2296676 0.18594722 0.049810927 0.18459748
0001f0 2e b1 42 3e d6 84 a5 3e 20 31 d8 bd af 96 32 3e
       0.19012901 0.32327908 -0.10556245 0.17440294

encoder.lstm.bias_hh_l0 f4 [128]
000000 e5 de a6 3c 66 89 55 3c 57 3f 8f bd f6 37 b6 bd
       0.020369956 0.013033247 -0.06994503 -0.088973925
000010 44 3b 1e 3e 95 23 a9 bd 4c 89 67 3f 45 74 fa bd
       0.15452296 -0.0825874 0.90443873 -0.12229208
000020 25 13 cd 3e e9 86 87 3c 7f f8 a5 bc ed 18 21 3f
       0.4005367 0.016543822 -0.020260094 0.6292866
000030 dd a6 05 3e 0e 9e 14 3e 2b ee 00 3f 1c 1d 2c 3f
       0.13051935 0.14513418 0.50363415 0.6723192
000040 64 ca b7 3e 46 0b fb 3c 64 2c 9d 3d 98 8e bf 3e
       0.358966 0.030645024 0.076744825 0.37413478
000050 cc 21 59 3e 86 fa 3b 3d ed 2e 99 3e 21 f2 6f 3e
       0.21204299 0.045893215 0.29918614 0.23432209
000060 0c 7c f4 3d 7b a7 a7 3e 5a 80 09 be b0 e7 72 bd
       0.119377226 0.32744965 -0.13427868 -0.059302986
000070 df 2c cb 3d 2b ee f1 3e 36 4f 06 3e f5 91 34 3e
       0.09920668 0.4725202 0.13116154 0.17633803
000080 bc f6 a4 be 65 58 26 be 97 a7 dc 3c 11 79 d6 be
       -0.32219493 -0.16244657 0.026935382 -0.4188924
000090 68 82 ec be 7b e9 e9 be 90 26 58 be 00 b4 e6 bd
       -0.46193242 -0.45685944 -0.2110846 -0.11264801
0000a0 4b f6 36 be db 7b d9 3e 32 da 3b be 20 70 20 be
       -0.17867391 0.42477307 -0.18344954 -0.15667772
0000b0 15 d3 82 be e7 90 8e bd 53 4e d7 be 7e 96 a1 3d
       -0.25551668 -0.06961232 -0.42051944 0.07890032
0000c0 3c 5d f8 bd 67 14 05 be 85 82 88 bd 3e 79 8c bd
       -0.12127158 -0.12996064 -0.066655196 -0.068590626
0000d0 21 98 69 be eb 76 a4 bd 14 3e 2f bd 3e f9 e4 bd
       -0.22811939 -0.08030494 -0.04278381 -0.11180352
0000e0 65 9a 71 be 6f 7d 49 be 20 52 8e bd 30 7a 32 be
       -0.23594053 -0.19676755 -0.06949258 -0.17429423
0000f0 5d 9e a5 be a8 64 11 bf 23 5e 65 be 13 df 05 bf
       -0.32347384 -0.56794214 -0.22399192 -0.5229351
000100 fb 10 51 bd 06 a6 8f 3d b3 ed 47 3d 2f 62 ac 3d
       -0.051041584 0.07014088 0.048810672 0.084171645
000110 e6 6d 78 bc f1 1c 9d bd 78 bb ff 3d ad 77 11 3b
       -0.015162921 -0.07671536 0.12486929 0.0022196576
000120 11 93 4d bc cb b4 59 3d 2f 16 82 3d 05 14 34 be
       -0.01254727 0.053150933 0.063518874 -0.17585762
000130 3a e9 b9 3d c5 4b 01 bd 1a 4c 5c 3e c1 48 2a 3e
       0.090776876 -0.0315664 0.21513405 0.16629316
000140 60 e8 0e 3e 3e c3 7e bd 10 bc f5 bd fa 76 ac 3c
       0.13955832 -0.062197916 -0.11998761 0.021052826
000150 31 b1 5b 3d 63 53 12 3d 81 ad ef 3d 06 a6 77 3e
       0.05363578 0.035724055 0.11703015 0.24184427
000160 20 8b 83 3d 4b ef 98 bd f5 3d 00 3e 14 92 e8 3d
       0.0642302 -0.074675165 0.12523635 0.11355987
000170 68 94 16 3e 96 8d ea bc 18 6d f1 bc d9 fb 3c bd
       0.1470505 -0.028631967 -0.029470965 -0.04613862
000180 43 c6 ac bd 63 5c 1f 3e 6e 8d 8b bb 07 4f 34 3d
       -0.08436253 0.15562586 -0.004258803 0.04402068
000190 42 1a 8a 3e e6 6c da 3c 23 f6 3d 3f 1b 16 bd bd
       0.26973158 0.026663255 0.742037 -0.09232732
0001a0 b0 cf 9c 3e b7 f6 15 3e 2d 37 80 bd 0b 33 d0 3e
       0.30627203 0.14644895 -0.06260524 0.40663943
0001b0 c1 1f e3 bc fd a1 99 3e 0b f2 ad 3e 9f a5 67 3f
       -0.027725102 0.300064 0.33973727 0.9048709
0001c0 cf cb 82 3e 90 9f a0 3c db 39 47 be 57 1d 93 3e
       0.2554612 0.019607335 -0.19455664 0.28733322
0001d0 88 cc 0b 3e 9b 6a f7 3d c3 40 4e 3e 1e e2 f0 3e
       0.13652241 0.1208088 0.20141892 0.47047514
0001e0 20 da c1 3d 17 70 70 3e c3 a9 2e be 8c 57 68 bd
       0.09465432 0.23480259 -0.17056946 -0.056724116
0001f0 d7 e0 9f 3e b3 f3 a4 3e 5e 82 f2 3d bd 4f 68 3e
       0.31226227 0.32217178 0.11841272 0.22686668

encoder.U_e.weight f4 [3, 3]
000000 97 96 1b bd d4 68 bc bd f4 5e 35 3e 55 59 cd 3e
       -0.03798541 -0.09199682 0.17712003 0.40107217
000010 31 72 3d 3f 28 49 6d 3e da da 0c 3f 74 91 81 be
       0.7400237 0.23172438 0.5502144 -0.25306284
000020 0a db 04 3e
       0.12974182

encoder.U_e.bias f4 [3]
000000 f7 7d a4 be e5 52 2c be 37 f0 48 be
       -0.32127354 -0.16828497 -0.19622885

encoder.W_e.weight f4 [3, 64]
000000 9b 12 c5 3e 9e 40 05 3e d6 79 b6 bd 15 fc 59 be
       0.38490757 0.13012931 -0.08909957 -0.21287568
000010 25 eb df bb 65 ff dc 3d 74 96 e8 3e f5 48 b1 3d
       -0.0068334513 0.107909 0.45427287 0.086564936
000020 73 e3 01 3e 84 70 d5 bd 08 fd 78 3e e9 98 79 be
       0.12684421 -0.10421851 0.24315274 -0.24374737
000030 d3 d7 1f be d9 42 3b bd 40 91 19 be bc 0e 5a 3e
       -0.15609674 -0.045718048 -0.14996815 0.21294683
000040 df 66 84 3d a0 88 8c 3e 54 a5 29 be f0 54 c1 bd
       0.064649336 0.27447987 -0.16566974 -0.09440029
000050 51 97 8c 3e c7 80 13 be d0 c7 87 bd 4d 44 55 3e
       0.27459195 -0.14404593 -0.06629908 0.20826836
000060 d5 fd dc 3e c4 34 ab 3e c4 07 c6 3e c8 a8 95 3e
       0.43162408 0.33438694 0.386778 0.29230332
000070 f9 33 36 3e 0f 84 ee bd 8f 21 c0 3c 94 a3 a7 be
       0.17793263 -0.11646282 0.023453502 -0.32741988
000080 d1 c0 cd 3e 11 bd 36 3e f5 ec f7 bd a3 c1 3f be
       0.4018617 0.1784556 -0.12105743 -0.1872621
000090 24 09 1d be ab de 5a 3e 8f 5b a4 3e 69 8e 85 3d
       -0.15335518 0.21374004 0.32101104 0.06521303
0000a0 c6 a2 87 3e 3c 24 b1 bc e9 68 bf 3d 2c d4 1f be
       0.26491374 -0.021623723 0.09346182 -0.15608281
0000b0 ea 89 3f be dd 5c 8e 3d 44 27 cf bd 6b 28 c3 3d
       -0.18704954 0.06951306 -0.10114911 0.095291935
0000c0 f3 17 4e 3e b3 d5 30 3e 35 ee 80 be d5 4f de 3b
       0.20126323 0.1726902 -0.25181738 0.006784419
0000d0 49 8b 93 3e c6 ca 99 be b9 d5 b7 3a bd 67 73 3e
       0.28817204 -0.30037516 0.0014025486 0.23770042
0000e0 4c 25 a3 3e b8 99 cd 3e 0f 7e 13 3f 89 2c ad 3e
       0.31864393 0.4015634 0.57614225 0.3382304
0000f0 cf 96 41 3e 4c 2e 23 be cb 3c de bd d8 36 78 be
       0.18905185 -0.1593563 -0.10851439 -0.24239671
000100 f4 8b 47 3e e9 e8 db 3e 0e b9 56 be e9 be 82 be
       0.19486982 0.42951134 -0.2096903 -0.25536278
000110 87 47 d1 be f7 93 9b 3e 0b c9 d2 3e 2d fb cf 3e
       -0.40874884 0.30386326 0.4116901 0.4062132
000120 16 83 af 3e 32 8d bd bd 8b 66 8f 3e 0b 85 93 be
       0.34279698 -0.092554465 0.28007922 -0.2881244
000130 29 0c e9 be 47 f1 bd 3d 03 95 54 be 04 d8 87 3d
       -0.4551709 0.092745356 -0.20759968 0.066329986
000140 d2 2e 1f 3e ec 74 8e 3e a2 9f 9b be 22 84 1e bd
       0.15545204 0.2782358 -0.30395228 -0.03870023
000150 c4 ac cc 3e 4e b4 08 bf ff d5 c1 3a 2d 9d d5 3e
       0.3997556 -0.53400123 0.0014788507 0.41721478
000160 17 6f b4 3e 8d 0e c2 3e 52 82 29 3f 41 7c 31 3e
       0.35241005 0.37901726 0.6621448 0.17332555
000170 56 4a b3 3e 37 5b c1 be f6 2b 8c be 7a d6 f0 be
       0.3501765 -0.37764904 -0.2737729 -0.47038633
000180 17 76 6a 3e 75 8f 05 3f 2f d5 10 be 13 f6 49 be
       0.2289661 0.52172023 -0.14143823 -0.19722776
000190 bb aa 8b be 59 c1 b7 3e 5b be 0d 3f 0e eb 8e 3e
       -0.27278695 0.358897 0.55368584 0.27913707
0001a0 6c f2 bf 3e 90 18 bd bd 61 6b 9c 3e 82 2a f2 bd
       0.3748964 -0.092332006 0.30550674 -0.11824514
0001b0 9c 7e d5 be 26 51 8f ba d4 15 9c be 0e 1f e5 3d
       -0.41698158 -0.0010934218 -0.30485404 0.11187564
0001c0 96 e3 88 3e 4c 2e 4f 3e 79 65 5d be 47 a0 c8 bd
       0.26736134 0.20232505 -0.2162074 -0.097961955
0001d0 54 52 ae 3e 52 47 03 bf 05 68 84 3c 89 f7 d3 3e
       0.34047186 -0.512807 0.016162882 0.41399792
0001e0 f2 f1 92 3e 37 42 8f 3e 08 5c 23 3f 98 8a 5f 3e
       0.28700215 0.27980205 0.63812304 0.21830213
0001f0 14 a2 ab 3e 42 7c b0 be f4 71 a0 be c2 89 da be
       0.33522093 -0.344698 -0.3133694 -0.42683226
000200 3d f5 d7 3c bc c3 ea 3d 18 61 2f 3e 98 57 2e bd
       0.026362056 0.114631146 0.17126882 -0.042564005
000210 7f 02 a5 bc e5 6a e9 3c b7 b4 22 3e 1c d4 2d be
       -0.020142792 0.028493354 0.1588925 -0.16975445
000220 e5 90 41 bd 49 05 9c 3d 42 99 e9 bd 7a 76 85 bd
       -0.047257323 0.076181956 -0.11406185 -0.06516738
000230 a8 c7 a4 bd 91 b4 95 3d f8 5f e7 bd f9 03 c7 bd
       -0.08045894 0.07309831 -0.112976015 -0.097175546
000240 f9 5d eb bd de 72 4d 3d e1 b4 f8 bd 80 bb 40 3e
       -0.11492533 0.050158374 -0.12143875 0.18821526
000250 2c 26 2e 3d bc 0c 96 3d d2 7c 1a be b5 a0 c2 3d
       0.042516872 0.07326648 -0.15086678 0.09503309
000260 ac ec 57 3e b6 bb 91 3e 26 e7 27 3e 5a 40 dc 3d
       0.21086377 0.28463525 0.1639677 0.107544616
000270 0e 42 ab bc b1 da 1c 3e d6 94 65 3e b1 66 a3 3d
       -0.02090552 0.15317799 0.22420058 0.07978571
000280 36 f1 b9 3d a8 df 8e 3d 5d 11 5f 3e 96 c6 1a bb
       0.090792105 0.06976253 0.21783967 -0.0023616902
000290 e2 8a d5 3d 37 67 01 be e8 a5 2e 3d e4 01 29 be
       0.104268804 -0.1263703 0.04263869 -0.16504627
0002a0 4b 7a c3 3d a6 fa 4c 3d f2 9e 04 be 9a 64 62 3d
       0.0954481 0.050043724 -0.12951258 0.055271722
0002b0 24 b7 18 be c4 a5 09 bd 0f 24 79 be 4c 29 15 bb
       -0.14913613 -0.033605352 -0.24330162 -0.002276021
0002c0 8e ba a0 bd 2a 34 07 be 09 87 c5 bd ef 20 0d 3e
       -0.078480825 -0.13203493 -0.096448965 0.13782094
0002d0 53 ac 39 be 89 45 88 3d 84 f0 b6 bd af f3 7b 3c
       -0.18132143 0.06653888 -0.089325935 0.015377923
0002e0 e7 90 bd 3e 3d b1 9e 3e 90 86 4a 3e 94 4a f7 3d
       0.37024614 0.30994597 0.19777894 0.120747715
0002f0 d7 f9 43 3e a9 72 07 3e 24 72 13 3e 62 6c e6 bc
       0.19138275 0.13227333 0.1439901 -0.028127853

encoder.W_e.bias f4 [3]
000000 25 f5 e8 be fa 24 fc be 4a 47 10 3d
       -0.4549953 -0.4924696 0.035224237

encoder.v_e.weight f4 [1, 3]
000000 74 ad 23 3e d7 4a 73 3d de f1 cd be
       0.15984136 0.059397545 -0.40223593

decoder.W_d.weight f4 [32, 64]
000000 6c 25 f6 bd 50 4a 63 3c f0 12 a9 bd 64 2b 86 bd
       -0.120188564 0.013872698 -0.08255565 -0.06551245
000010 40 a8 70 3d 22 35 ed bd e2 fa ca 3d f8 bd f5 3d
       0.058754206 -0.115824 0.09911133 0.11999124
000020 ca b3 e8 3d 40 e5 6a 3b ee 6f f5 3d a0 95 1b bc
       0.11362417 0.003584221 0.119842395 -0.009496123
000030 18 fa 11 3d 00 52 e0 3c f8 d1 81 bc 78 ac e4 3c
       0.0356389 0.02738285 -0.015847191 0.02791427
000040 c0 d8 e7 3d 0c 54 44 bd 7e 02 94 3d 50 6a 5f bd
       0.11320639 -0.047931716 0.07227038 -0.054544747
000050 a8 10 a6 bc 82 57 e5 bd 90 16 89 3d ce d2 b8 3d
       -0.020271614 -0.111983314 0.066937566 0.09024583
000060 e8 74 a4 bc 54 83 87 bd be 17 85 3d f2 c1 bc bd
       -0.020075276 -0.06616846 0.06498669 -0.0921668
000070 fa b5 9b bd 7a 54 85 bd 14 2f e7 3d 56 7d ba 3d
       -0.07603069 -0.06510253 0.11288276 0.09105937
000080 80 aa 75 bc 2c f3 49 3d bc 3b ed bd 1c ad 4d bd
       -0.014994264 0.049304172 -0.11583659 -0.050213918
000090 3e 04 b7 bd 0a 5d a9 3d b8 aa 1d 3d 90 b6 47 3d
       -0.08936356 0.08269699 0.03849289 0.04875809
0000a0 d4 b6 39 bd c4 9f 6d bd 6c c6 96 bd 48 43 46 bd
       -0.045340374 -0.058013692 -0.07362065 -0.04840401
0000b0 80 0f 6e 3b 80 9e 33 3d e8 cf b3 3c d8 ac fe 3d
       0.0036325157 0.04385233 0.021949723 0.12435311
0000c0 7a a8 dd 3d 30 28 08 bc f0 f2 07 3d 82 41 e9 3d
       0.1082315 -0.008310363 0.033190668 0.11389448
0000d0 e0 f4 39 3c c0 71 dc bd 36 00 a7 bd 2a 1a be bd
       0.011349887 -0.107638836 -0.08154337 -0.09282334
0000e0 2e de e2 3d 6a e0 d0 bd 0e 41 a1 3d 6e 21 c0 bd
       0.11077534 -0.101990536 0.07873736 -0.09381376
0000f0 88 d8 99 bd 2c 6b 00 bd 0a fb b9 bd 68 c6 bd 3c
       -0.07512003 -0.031352207 -0.09081085 0.023165897
000100 a8 92 ad 3d c8 d2 2b 3d ca af b0 bd 90 73 f4 bd
       0.08475238 0.041949064 -0.08627279 -0.11936104
000110 40 f2 87 3c 2e bd cb 3d 54 f0 5f 3d e4 c6 9f 3d
       0.016595006 0.099481925 0.054672554 0.07801607
000120 50 72 48 bc 1c 1a 62 3d 00 2c d6 bc 60 19 4f bc
       -0.0122342855 0.05520068 -0.026144028 -0.012640327
000130 bc 47 11 bd 64 75 2c 3d a0 03 88 bb f0 93 76 3c
       -0.0354688 0.04210414 -0.0041508228 0.0150499195
000140 6a 48 d6 3d 40 31 99 3c d8 f6 6f 3d 8e 07 f7 3d
       0.10463031 0.018700242 0.058585018 0.12061988
000150 a0 ec bf 3d ac 7c 21 bd c0 c3 da bd 08 ff 82 3d
       0.093713045 -0.039425537 -0.106818676 0.063962996
000160 e2 7a c8 bd e4 6c 57 3d fc 5d 6d bd e0 53 b0 3d
       -0.09789063 0.05259408 -0.05795096 0.08609748
000170 6c ef ab 3d 04 2c b8 3d 70 59 4d bd 02 01 f5 bd
       0.083952755 0.0899277 -0.050134122 -0.11963083
000180 0e 07 ea 3d c0 34 8b 3d 50 fa d3 3d e6 14 9c bd
       0.11427127 0.06797171 0.10350478 -0.076211736
000190 14 20 18 bd 90 64 a5 3c aa 10 df bd 44 99 92 3d
       -0.037139967 0.020189553 -0.1089185 0.07158139
0001a0 80 12 12 3c 68 57 99 3c b4 64 74 3d 80 26 e8 bb
       0.008915544 0.018718436 0.05966635 -0.0070846677
0001b0 08 73 1a 3d cc 8c 36 3d a8 40 76 3d 12 1a fe 3d
       0.03770736 0.044567868 0.060120255 0.12407316
0001c0 08 e3 c6 3d b0 a0 68 3c 5e 59 a4 bd 80 57 41 3c
       0.097112715 0.014198467 -0.08024858 0.011800647
0001d0 10 6f 15 bd 98 ad ba bd 20 b9 40 3c e2 63 b7 bd
       -0.03648287 -0.09115142 0.011762887 -0.08954598
0001e0 d8 3d 68 3d da 60 a1 bd 4c 15 50 bd 58 8a 81 bd
       0.056699604 -0.07879801 -0.05080156 -0.06325215
0001f0 58 81 19 bd 78 59 bf bd 44 f0 47 bd 94 d1 b3 bd
       -0.037476867 -0.09343237 -0.04881312 -0.08780208
000200 96 33 d5 3d 08 89 80 bc da 60 e4 bd 44 eb 98 bd
       0.1041023 -0.015690342 -0.111512855 -0.07466748
000210 18 cb 31 bd f2 92 f4 bd 70 16 7b bd da 8c ae bd
       -0.043406576 -0.1194209 -0.061300695 -0.08522959
000220 98 01 65 bd e2 b7 db 3d c8 ef 76 3d 58 3e bb bd
       -0.055909723 0.10728432 0.060287267 -0.091427505
000230 4e b0 a6 3d f2 de f8 3d 3a 0b ce 3d 2e 6c d0 bd
       0.08139096 0.121518984 0.10060735 -0.10176884
000240 aa 8a cf 3d 64 30 fb 3d 74 15 31 bd 58 52 16 3d
       0.1013387 0.12265089 -0.04323335 0.036699623
000250 20 b8 7a bc 00 d0 0b 3d a4 86 a4 3d 00 5c be 3b
       -0.015302688 0.03413391 0.08033493 0.005809307
000260 72 a5 db bd 50 be aa 3c e0 26 fc 3d 68 da 84 3d
       -0.107249156 0.020842701 0.12312102 0.0648697
000270 2c 49 6d 3d 48 f7 97 3d 86 43 ed bd ce 4e ad 3d
       0.05793111 0.07420212 -0.11585145 0.084622964
000280 82 e2 e5 bd 88 36 96 bc 30 8e 4f bd d0 a0 63 3d
       -0.112248436 -0.01833655 -0.05067271 0.055573285
000290 9c 0f 94 3d de 9e 92 bd 20 9c a7 bb ca 67 f0 bd
       0.0722954 -0.07159208 -0.005115047 -0.11738546
0002a0 28 20 65 bd c2 e5 d5 bd b8 4b cc 3c c0 b5 71 3d
       -0.05593887 -0.104442134 0.02493845 0.05901122
0002b0 14 ce 92 bd 76 69 bd bd c0 1d c2 bb f0 da 37 3d
       -0.071682125 -0.09248631 -0.0059239566 0.04488653
0002c0 f4 a1 12 3d 3e 87 fa 3d dc 9e ac bd 50 a4 6f bd
       0.03579898 0.12232827 -0.084287375 -0.05850631
0002d0 f4 72 08 3d a0 f8 24 bd 12 61 80 bd d0 f5 a4 3c
       0.033312753 -0.04027617 -0.06268515 0.020136744
0002e0 c6 eb a6 bd f8 43 80 3c 6c 3b f3 bd 32 b4 b3 3d
       -0.08150439 0.01565741 -0.11876568 0.08774604
0002f0 c0 70 89 bc 14 5e d1 bd b8 c4 79 bd 00 f4 7b 39
       -0.016777396 -0.10223022 -0.06097862 0.00024028122
000300 30 a2 55 3d 34 17 f8 3d d4 e2 f3 bd 3c 9e 99 3d
       0.052156627 0.12113801 -0.119084984 0.07500884
000310 c8 35 24 bd b0 ce d0 bd ce 50 b3 3d fc c1 21 3d
       -0.040090352 -0.101956725 0.08755647 0.03949164
000320 c4 31 f9 bd 9c 0b 06 3d e0 40 68 bc 8e c8 b0 3d
       -0.12167695 0.032725915 -0.014175624 0.08632003
000330 a4 f5 de 3d 88 60 a6 3d bc 90 4e bd 82 0f e4 bd
       0.10886696 0.081238806 -0.050431 -0.111357704
000340 a4 38 73 bd 28 a4 1e bd e0 5c e7 3b dc c5 27 3d
       -0.05938019 -0.03873077 0.007060632 0.040960178
000350 62 06 d1 bd 56 b1 f9 3d 12 4e d1 bd d6 f4 9e bd
       -0.102062955 0.12192027 -0.10219969 -0.077615425
000360 96 b8 a3 3d 80 03 e8 3c 80 b8 c3 3a 3a eb 84 bd
       0.07994191 0.028321981 0.0014932305 -0.064901784
000370 40 15 56 3c ee ce 8f 3d 08 d2 cd 3c 28 40 98 bd
       0.01306659 0.070218906 0.025124565 -0.07434112
000380 c0 33 7b bc 7e 5c ca 3d c0 d9 35 bb 88 8f c8 3d
       -0.015332162 0.09880923 -0.0027748197 0.097930014
000390 b4 26 d1 3d 14 fa 26 3d 88 06 bb bc 60 b2 50 3c
       0.1021246 0.040765837 -0.022830263 0.01273784
0003a0 10 ac 44 bd 00 99 5d bb e2 71 c0 bd 92 94 9f bd
       -0.048015654 -0.003381312 -0.093967214 -0.077920094
0003b0 16 1a b1 bd 38 1d a0 3c 6e a4 cb 3d 4a 58 e3 bd
       -0.086475536 0.019545183 0.09943472 -0.11100824
0003c0 d0 ed 6f bd a0 6f dd bb c4 7d 6b 3d 00 62 3c ba
       -0.058576405 -0.0067576915 0.057492986 -0.0007186234
0003d0 e8 82 2e bd b4 e8 f5 3d bc 66 cf bd 86 fa f4 3d
       -0.04260531 0.12007275 -0.10127017 0.11961846
0003e0 60 f5 20 bc 90 b0 78 3d 80 1b 24 bd 16 56 ed 3d
       -0.009824127 0.060715258 -0.04006529 0.11588685
0003f0 48 a2 f9 bd a0 bb 6c 3c ac af 54 bd ac f1 4a 3d
       -0.12189156 0.01444903 -0.051925346 0.049546883

decoder.W_d.bias f4 [32]
000000 20 3d 20 bd 30 65 fe 3c e0 47 e9 3d e9 e6 37 3d
       -0.039120793 0.03105411 0.11390662 0.044897947
000010 b5 75 db bc 7b e5 be ba a1 b2 d3 bd 0f 4a 58 3d
       -0.026789526 -0.001456424 -0.10336805 0.052805003
000020 88 88 03 bc ab 32 90 3b e1 33 e5 bb c7 1a de 3c
       -0.008028157 0.0044005713 -0.00699471 0.027112378
000030 a9 23 74 bd 76 04 ff 3d 42 af 27 3e 7f d5 96 bc
       -0.05960432 0.12452023 0.1637545 -0.01841235
000040 5e 42 09 3d 41 77 36 3c 55 5d 5f bd a8 31 1e 3d
       0.03351056 0.011136831 -0.054532368 0.038621575
000050 c0 df 94 3d 40 a8 91 3c b3 8c b3 3d 54 6f a4 3d
       0.072692394 0.017780423 0.087670706 0.08029047
000060 d1 93 c9 3d 0c da 9b bc ec 22 29 bd 1e a4 7c 3d
       0.09842647 -0.019024871 -0.04129307 0.06167995
000070 5e d9 13 be 99 8c cc 3d b6 43 97 3d ce a3 82 3d
       -0.14438388 0.099877544 0.07385962 0.063788995

decoder.U_d.weight f4 [32, 32]
000000 8b 43 96 be e8 9e 77 3f da 65 e8 3f 67 f7 2f 3e
       -0.29348406 0.96726847 1.8156083 0.1718422
000010 fc 89 5f bf 9d 87 24 3d 80 22 88 3e 45 6c a3 bf
       -0.8731992 0.040168393 0.2658882 -1.2767416
000020 75 2f f3 bd df 74 ed 3f 8c 89 8a bf f2 49 0f 3f
       -0.11874286 1.8551291 -1.0823226 0.55972207
000030 58 cf 16 bf 13 0e 88 bf 0d ac 86 3e fc 66 19 bf
       -0.5891013 -1.0629295 0.2630314 -0.59922767
000040 7a 50 ce 3e e5 bb 87 be cd a6 7e 3f a3 03 ad 3f
       0.40295774 -0.2651054 0.9947327 1.3516735
000050 eb a3 ec 3e c8 a5 10 3f 67 26 ae 3f d7 7b b7 3e
       0.4621881 0.5650296 1.360547 0.3583667
000060 4d 35 1a 3e fe 45 3b 3f 86 41 97 3f 71 ea 21 3e
       0.15059395 0.73153675 1.1816871 0.15812089
000070 6f aa 3b 3f ac 6d 06 bc 7f 05 97 3f c2 5d 9f bd
       0.73306936 -0.008204859 1.1798552 -0.07781555
000080 45 7e d8 3e 58 27 90 bf 9c 66 e1 bf f4 36 50 be
       0.42283836 -1.1262007 -1.7609439 -0.20333463
000090 c1 db 6c 3f ed 01 5d be 2a 30 6d be 4a 1a 89 3f
       0.9252282 -0.21582766 -0.23162904 1.0711148
0000a0 02 f2 80 3e ec 62 01 c0 aa d2 8e 3f f4 13 3e bf
       0.25184637 -2.0216627 1.115804 -0.74249196
0000b0 7e c7 3b 3f d9 22 8d 3f 2f 82 92 be c6 73 22 3f
       0.73351276 1.102626 -0.28614947 0.63457906
0000c0 dc eb d4 be 34 7c 34 3d 3a 9a 87 bf 83 0d a7 bf
       -0.41586196 0.04406376 -1.0593941 -1.3050998
0000d0 8d 72 ad be a3 4d e6 be 99 e7 a1 bf 1d b5 9a be
       -0.33876458 -0.44981107 -1.2648803 -0.30216303
0000e0 4c f2 ab be ac 01 80 bf 47 db 9d bf 7e a6 2f 3d
       -0.33583295 -1.000051 -1.2332543 0.04288339
0000f0 8e 0b 14 bf d6 5f 4e 3e ee 9d ab bf 03 03 3a 3e
       -0.5783013 0.20153746 -1.3407571 0.18165211
000100 ee af 37 3e 27 3e 6a bf 95 19 d7 bf c5 35 24 3d
       0.17938206 -0.91501087 -1.6804682 0.04009034
000110 f4 4f 24 3f 6c 84 1f be 99 74 9f be 77 0f 82 3f
       0.641845 -0.15577859 -0.31143644 1.016097
000120 37 e8 75 3e 3e ca 03 c0 e9 b5 88 3f 44 a4 36 bf
       0.24014364 -2.059219 1.0680515 -0.713444
000130 8e 2d 10 3f 0b 12 81 3f 5b ba b9 be ff 83 08 3f
       0.5631951 1.0083631 -0.3627499 0.5332641
000140 e5 92 99 be c6 f0 36 3e a6 d4 71 bf a7 a6 b4 bf
       -0.29994884 0.17865285 -0.944651 -1.4113358
000150 01 b5 22 bf 9d 86 a5 be 1e 67 ae bf 39 cb ab be
       -0.6355744 -0.32329264 -1.3625219 -0.33553484
000160 43 0d 16 be 3d c9 61 bf 9b 2e 6d bf 88 85 82 be
       -0.14653496 -0.8819769 -0.9264924 -0.254925
000170 be 50 cf be 12 b3 11 3e 37 f0 34 bf 0c b3 b8 3e
       -0.4049129 0.14228466 -0.7067904 0.36074102
000180 9c 0f b6 be 28 06 8b 3f 3b e1 05 40 d1 07 c3 3e
       -0.35558784 1.0861254 2.091872 0.380919
000190 7f 13 4a bf b8 c5 45 3e be 63 01 3f 71 7e 96 bf
       -0.78936 0.19313705 0.5054282 -1.1757337
0001a0 70 1b 94 be 49 91 07 40 c0 02 8d bf fb 4a 44 3f
       -0.28927183 2.1182425 -1.1016464 0.7667691
0001b0 1b ac 13 bf 0a 6e 81 bf 13 e3 18 3e 32 6f 54 bf
       -0.5768449 -1.0111706 0.14930372 -0.8298217
0001c0 50 e2 6b 3e 44 fb 69 be eb 1f a1 3f d8 7f b8 3f
       0.2303555 -0.22849756 1.2587866 1.4414015
0001d0 ee b0 f4 3e b4 20 05 3f 62 a0 c7 3f 3e 32 0d 3f
       0.47791237 0.52003026 1.559582 0.5515479
0001e0 59 6e d2 3d dd 25 83 3f 96 87 69 3f b4 3e ff 3d
       0.102749534 1.024593 0.9122251 0.124631315
0001f0 3d 1f 37 3f 36 76 84 be 29 29 6f 3f 2f fb 3b be
       0.7153204 -0.25871438 0.9342218 -0.18357538
000200 1b 9f d1 3e 74 6c 42 bf f6 fe e6 bf 67 ce 59 bd
       0.409417 -0.75946736 -1.8046558 -0.053175356
000210 c0 54 40 3f c8 82 d2 bd b6 db 60 be b9 4b 8f 3f
       0.7512932 -0.10278851 -0.21958813 1.1194984
000220 c2 77 c5 3e 0e ab 05 c0 2d 86 98 3f 01 d3 5e bf
       0.3856793 -2.0885653 1.1915947 -0.87040716
000230 54 9d d2 3e da e3 54 3f 3e 96 a7 be 4c 9b 29 3f
       0.41135657 0.83160174 -0.32731813 0.6625259
000240 b1 67 b7 be 50 09 89 3e 0c 75 84 bf 44 25 b5 bf
       -0.35821298 0.26764917 -1.034822 -1.4151998
000250 bf 4b c1 be 5e 8f c8 be 21 79 b9 bf fe a8 8b be
       -0.37753102 -0.3917188 -1.4490091 -0.27277368
000260 7a 60 19 3b 07 2e 5f bf 18 c9 81 bf 1e 1d e0 bd
       0.0023403452 -0.8717961 -1.0139494 -0.10943054
000270 f3 e5 13 bf f4 25 8e 3e 51 54 93 bf 0a 89 bf 3d
       -0.5777275 0.2776333 -1.1510106 0.0935231
000280 b5 3c b3 3e 39 51 5b bf 9c 2f de bf 15 fb 2e be
       0.35007253 -0.8567081 -1.7358279 -0.17087968
000290 20 a9 30 3f da 9b f0 bd 96 9e 51 be f2 62 84 3f
       0.69008064 -0.11748476 -0.20470652 1.0342696
0002a0 64 47 ca 3e 14 a5 e6 bf 9f e7 8d 3f 4d 0e 16 bf
       0.39507592 -1.8019128 1.108631 -0.5861557
0002b0 7c c5 16 3f 3c 41 6c 3f 58 98 a1 be 14 1c 54 3f
       0.5889509 0.9228704 -0.31561542 0.82855344
0002c0 8c e9 f7 be ea c7 cb 3d f2 df 90 bf 4f 73 bd bf
       -0.4842037 0.0995024 -1.1318343 -1.4800814
0002d0 50 2d 01 bf e1 e0 c4 be 73 69 c5 bf 9f 0b cc be
       -0.50459766 -0.3845282 -1.5422806 -0.39852616
0002e0 9f b0 97 be c2 39 7f bf 39 f7 87 bf 4a e1 d9 3d
       -0.2962694 -0.99697506 -1.0622321 0.106386736
0002f0 2b bd d8 be 9c 18 6c 3e 29 c2 9d bf e2 29 a9 bc
       -0.42331824 0.23056263 -1.2324878 -0.020649854
000300 40 ca 92 be 9e d4 68 3f 28 7f eb 3f c5 09 89 3e
       -0.2866993 0.9094943 1.839818 0.26765266
000310 90 6c 48 bf c8 5f fa 3d 26 a0 bd 3e 51 97 99 bf
       -0.78290653 0.122253 0.37036246 -1.1999303
000320 fe e0 3e be 19 0f 03 40 6c a1 79 bf ca fc 1e 3f
       -0.18640515 2.0477965 -0.97511935 0.62104475
000330 21 d4 36 bf be fe 8a bf 38 c1 bf 3d 3c a9 19 bf
       -0.71417433 -1.0858991 0.093630254 -0.60023856
000340 58 30 03 3f ff e4 64 be 71 95 80 3f 5d a3 a4 3f
       0.5124564 -0.2235298 1.0045606 1.2862355
000350 85 0d 0b 3f b2 a3 0a 3f c4 2f ba 3f d9 08 0e 3f
       0.54317504 0.5415603 1.4545827 0.5548225
000360 77 b0 20 3c 0e 35 50 3f af 3e 6d 3f 55 08 91 3d
       0.0098076975 0.81330955 0.9267377 0.07081667
000370 7a 30 19 3f 86 a6 f6 3b 30 49 88 3f 0a 0a ca bd
       0.59839594 0.0075271754 1.0647335 -0.09865196
000380 f9 84 98 3e ac df 5c bf f4 d6 e0 bf 57 df a0 be
       0.2978895 -0.86278796 -1.7565598 -0.31420395
000390 78 69 4d 3f b5 dc d6 bd 57 18 83 be db c9 aa 3f
       0.8023906 -0.10491315 -0.25604507 1.3342851
0003a0 06 41 75 3e 4b 6c fa bf 72 ef 8a 3f 40 e3 39 bf
       0.23950586 -1.9564298 1.0854323 -0.7261238
0003b0 59 c5 07 3f 13 13 5d 3f c2 31 43 be 67 76 19 3f
       0.53035504 0.8635723 -0.1906195 0.5994629
0003c0 52 51 e5 be 4f c8 41 3e ca 83 86 bf a0 d3 b5 bf
       -0.44788605 0.18924068 -1.0508969 -1.4205208
0003d0 9c a4 d6 be 67 0a 06 bf c8 16 ae bf 0a 56 e5 be
       -0.41922462 -0.5235962 -1.3600702 -0.44792205
0003e0 bb 63 f7 bd 7a 3d 64 bf 09 8b 7b bf 3f 7f 55 3d
       -0.12079569 -0.89156306 -0.98259026 0.052123304
0003f0 28 38 1f bf dc 36 50 3b 86 ea 72 bf 51 64 33 3e
       -0.6219506 0.003177098 -0.94889104 0.17518736

decoder.U_d.bias f4 [32]
000000 40 46 a5 bd 6d d4 bf 3d 83 89 2c 3c de 62 3b be
       -0.0807004 0.09366689 0.010530832 -0.18299434
000010 c7 a5 1e 3e 29 10 f3 3d af d5 b5 bc f5 0f 8d 3d
       0.15492927 0.11868317 -0.022196619 0.06887809
000020 ee 92 0e 3e ae 30 fd bd 63 2d e9 bd 58 e9 11 be
       0.13923237 -0.123628005 -0.1138561 -0.1424917
000030 99 44 7b bd a7 7e 70 bb 26 9a ee bc 88 e9 10 3e
       -0.061344717 -0.0036696584 -0.029126238 0.14151585
000040 8d 05 d9 3d 62 20 0f be c0 41 ae bd 39 75 aa 3d
       0.10596762 -0.13977197 -0.085086346 0.0832314
000050 5e 1c 7c 3d b9 8a 14 be d6 43 35 3d 35 cf 29 3d
       0.06155049 -0.14506043 0.044254147 0.041457374
000060 09 dc 9f 3c d9 81 d7 bd 71 06 b0 bd da 64 92 3d
       0.0195141 -0.10522813 -0.085949786 0.07148142
000070 8b a9 d6 3c 73 61 05 3d 7a ee 4a be 17 80 87 3d
       0.026203891 0.032563638 -0.19817534 0.06616228

decoder.v_d.weight f4 [1, 32]
000000 e4 55 11 40 51 bb 15 c0 c0 e8 0b c0 16 1f 0f 40
       2.2708673 -2.339558 -2.186081 2.2362723
000010 ac 62 04 c0 5f 1d 13 c0 a0 19 13 40 e9 d6 0e c0
       -2.0685225 -2.2986677 2.298439 -2.231867
000020 dd b7 15 c0 fc de 0b 40 1c bb 0e 40 87 0e 0a 40
       -2.3393471 2.185485 2.2301702 2.1571367
000030 b1 db 13 40 31 92 15 c0 cd 41 14 c0 a0 0e 0b c0
       2.310284 -2.3370478 -2.3165162 -2.1727676
000040 ef a2 18 c0 95 b6 19 40 42 a5 10 40 e4 47 0d c0
       -2.3849447 2.401769 2.2600865 -2.2075129
000050 b4 59 0f c0 03 ee 09 40 a3 45 11 c0 f8 2b 0c c0
       -2.23985 2.155152 -2.2698753 -2.1901836
000060 c7 53 14 c0 c4 30 0a 40 d8 58 0c 40 ab 86 08 c0
       -2.3176134 2.1592264 2.1929226 -2.1332195
000070 7b 79 0c 40 b0 0e 0d c0 50 89 0d 40 15 4b 0f c0
       2.1949146 -2.2040215 2.211506 -2.2389576

decoder.w_tilde.weight f4 [1, 33]
000000 19 a8 32 be bc 5a 25 be 74 9e eb bd d3 82 e5 bd
       -0.17446937 -0.16147894 -0.11504832 -0.11206593
000010 a4 5f 51 bd 66 e7 a7 3d 9f 25 01 bf 1a 06 90 bd
       -0.0511166 0.081984326 -0.5044803 -0.07032414
000020 1f 6f 91 be b6 06 cd bd 28 4f da bd 80 56 44 3e
       -0.2840509 -0.10011046 -0.10659629 0.19173622
000030 27 a5 bf 3c 92 e6 9a 3b 5b 25 ca be 62 83 c1 bd
       0.02339418 0.004727193 -0.39481625 -0.094488874
000040 64 0d 6d be 5e 26 61 bd 9e cc f3 3d 13 62 44 bc
       -0.2314964 -0.05496823 0.11904262 -0.011986273
000050 88 30 25 be 9d 8c 7e be 43 89 a7 bd 2e 5e 9f be
       -0.16131794 -0.24858327 -0.081804775 -0.3112654
000060 54 fe 6e be b2 5b 08 be 7c ac 5a be 73 92 2f bd
       -0.23339206 -0.13316229 -0.2135486 -0.042864274
000070 01 25 ba be bc a3 b0 bc 71 47 81 be fc 9c 2c 3c
       -0.36356357 -0.02156245 -0.25249818 0.010535475
000080 a1 83 0b 3f
       0.54497725

decoder.lstm.weight_ih_l0 f4 [128, 1]
000000 28 fb da 3d 4d fd 3a 3e d4 41 c9 3e 99 7b 8e 3e
       0.106924355 0.18260689 0.39308035 0.27828673
000010 7a d0 61 3e 13 4f dd 3d 7d f1 cc be 89 c4 57 3e
       0.22052184 0.10806098 -0.4002799 0.21071066
000020 57 c1 e0 be 36 74 a8 3d 28 1c ce 3e 4e 1f 1e 3e
       -0.43897507 0.082252905 0.40255857 0.1544163
000030 a6 ed 87 3e 3d 85 dd 3e b8 71 11 3e 76 48 c9 3e
       0.265485 0.43265715 0.14203537 0.39313096
000040 01 41 bc 3c e5 31 b4 3e e0 11 2b 3e 8f ff e6 3c
       0.022980215 0.35194317 0.16706038 0.028198032
000050 9a 55 3e 3e d2 0a da 3e ba 8a b3 3e e4 18 13 3e
       0.18587342 0.4258638 0.35066777 0.14364964
000060 40 6b 55 3e b6 3e bc 3e 2e 45 78 3e 07 70 94 3e
       0.20841694 0.36766595 0.2424514 0.2899172
000070 56 6f ad be 3d 4b 54 3e 5a 48 46 3e 90 ca 65 3e
       -0.33874005 0.20731826 0.19363537 0.22440553
000080 8a 62 1a 3e a7 d3 23 be fe c6 31 3e b9 93 fc 3d
       0.15076652 -0.15998708 0.17361066 0.12332863
000090 68 48 d8 bd ec 0a 27 be 62 6d 29 be 46 24 34 3e
       -0.105606854 -0.1631276 -0.16545632 0.17591962
0000a0 a1 f9 a9 bd f4 3b 97 bd 2e 7f 9c 3d fb 2c 3b bd
       -0.08299566 -0.07384482 0.07641445 -0.045697194
0000b0 9a 44 e1 bd e2 29 16 be fa ea f5 bd a0 c4 8e bd
       -0.10999413 -0.14664415 -0.12007709 -0.06971097
0000c0 14 f4 08 bd b8 8a 1e be 8f fd 27 be dd da 54 3d
       -0.033435896 -0.15482605 -0.16405319 0.051966537
0000d0 1f 32 86 bd 2b d3 d7 bd f6 5b eb 3d 79 a6 47 bc
       -0.065525286 -0.10538324 0.114921495 -0.012185686
0000e0 f5 74 ff bd 4f fc 0e be cf 41 ed bd d8 c0 01 3e
       -0.1247348 -0.13963436 -0.115848176 0.1267122
0000f0 6e eb 01 be 71 9e 23 3c f4 47 b8 3c 0b cf 9d 3d
       -0.12687466 0.009986506 0.022495247 0.07705506
000100 ef 3d dc be 07 af f5 be f4 09 0f 3f d9 77 98 be
       -0.43016002 -0.47985098 0.5587456 -0.29778937
000110 44 b1 53 ba 8c 12 37 3f d2 cf 23 3f d7 83 0f bf
       -0.0008075426 0.71512675 0.63988984 -0.56060547
000120 fd 34 c1 3e 64 15 b0 3e 21 10 0b 3f c2 94 81 be
       0.3773574 0.3439132 0.54321486 -0.25308806
000130 9e db 17 b9 1e ff 10 bf 2c 55 5b 3e b5 77 ef 3e
       -0.00014482296 -0.5663928 0.21419209 0.46771017
000140 3f 0e 39 b9 da 95 03 bf 6e 42 b5 3e b8 3d af be
       -0.00017648282 -0.5140053 0.35402244 -0.34226775
000150 4d 42 c0 3e f2 7e 85 3e c5 24 64 3e 58 bb f8 3e
       0.37550583 0.26073414 0.22279651 0.48580432
000160 48 dc 21 3f 16 01 99 be b0 df 12 3f 9f 62 96 3e
       0.6322675 -0.2988364 0.5737257 0.29372117
000170 0b 6d 1a bf 47 9b 17 3f d6 2e 81 be 30 93 d9 be
       -0.60322636 0.5922131 -0.25231045 -0.42495108
000180 a6 6c 7c 3e 7b 32 56 3e 28 09 05 3e ac e4 ce 3e
       0.24650821 0.20917694 0.12991774 0.40408838
000190 16 5c 83 3e c7 d2 0d 3c 38 94 12 bf 42 9a f0 3e
       0.25656193 0.00865621 -0.57257414 0.4699269
0001a0 c0 6e 34 bf 26 0b 80 3e a2 70 f1 3e 1e 83 39 3e
       -0.7048149 0.25008506 0.47156245 0.18116423
0001b0 39 01 8b 3e 23 64 af 3e 46 1f c6 3e 02 a3 6c 3e
       0.2714937 0.34256086 0.38695735 0.23109058
0001c0 97 4e 17 3e 93 b4 a2 3e 29 86 ef 3e 73 d9 fb bc
       0.14776073 0.31778392 0.46782044 -0.030743336
0001d0 24 ce 0a 3d b0 b7 bf 3e 36 85 6c 3e d2 cc a5 3e
       0.033887997 0.3744483 0.23097691 0.32382828
0001e0 6e bf ed 3e 59 ae a8 3e 7d 6a 91 3e 70 08 e9 3e
       0.46435112 0.32945517 0.28401557 0.4551425
0001f0 08 36 a7 be 8a f6 5f 3e 9d 2a 79 3e 6a 9e d0 3e
       -0.3265841 0.21871391 0.24332662 0.4074586
