weights/DARNN_L3_HDE64_HDD64_BS32_E50_s3.pth (torch, 312242 bytes, 22 tensors)

encoder.lstm.weight_ih_l0 f4 [256, 81]
0	0xbd9e929a	-0.07742806
1	0xbebd51fd	-0.36976615
2	0x3dcc85ea	0.099864796
3	0xbd240944	-0.0400479
4	0x3d0fb7ca	0.035087384
5	0xbcfb612a	-0.03068598
6	0x3e638d61	0.222219
7	0x3d939a1a	0.07207127
8	0x3dd43e77	0.10363477
9	0xbcdb8bb7	-0.02680002
10	0xbe11c5af	-0.14235567
11	0x3dc9274b	0.09821948
12	0xbc02d77b	-0.007985945
13	0xbdc432d9	-0.09580011
14	0xbbca3891	-0.006171294
15	0xbdf0bfe3	-0.117553495
16	0xbde6bf7a	-0.1126699
17	0x3bec0147	0.0072023007
18	0x3db6d0c2	0.08926536
19	0xbd013563	-0.031545054
20	0xbc984117	-0.018585725
21	0xbe558cca	-0.20854488
22	0x3cd7be58	0.02633588
23	0xbdefd6a6	-0.11710863
24	0xbe34ae15	-0.17644532
25	0x3c06fefd	0.008239505
26	0xbb092e8e	-0.002093229
27	0xbdd2c587	-0.102915816
28	0xbc51e2fd	-0.012810466
29	0xbe01b19f	-0.12665413
30	0xbe0bdd9a	-0.13658753
31	0x3dd23ad9	0.102651305
32	0xbe503941	-0.2033434
33	0xbe55e16f	-0.20886777
34	0xbe125b8f	-0.1429274
35	0xbd30cb9a	-0.04316292
36	0xbdb399f4	-0.087695986
37	0xbe91ce1a	-0.28477556
38	0xbdaac9ab	-0.08339246
39	0x3c9d7c9d	0.01922446
40	0x3d0f73dd	0.035022605
41	0x3d542245	0.051790494
42	0x3d669379	0.056292985
43	0x3c849326	0.016183447
44	0xbd8527f9	-0.06501765
45	0xbdc36911	-0.09541524
46	0xbda2d592	-0.079508916
47	0xbd8d531f	-0.0690062
48	0xbca50628	-0.020144537
49	0x3e6f5396	0.23371729
50	0xbd5ff7b2	-0.05467958
51	0xbdd2ee1a	-0.102993205
52	0xbddd8ede	-0.108182654
53	0x3e1905b9	0.1494359
54	0x3e084e71	0.13311173
55	0x3d172d25	0.036908288
56	0xbb8223bf	-0.0039715464
57	0x3ddbb35d	0.1072757
58	0xbde26a5d	-0.110554434
59	0x3da74592	0.08167566
60	0x3d7b9165	0.061417956
61	0xbd929076	-0.0715646
62	0x3c500a14	0.012697715
63	0xbe2e0247	-0.16993056
64	0xbe1c59d6	-0.15268645
65	0xbb99f1cb	-0.0046980134
66	0x3d33d669	0.04390565
67	0xbcff9b0e	-0.031201866
68	0x3d43b4d0	0.047779858
69	0x3d8dfbe8	0.06932813
70	0xbd9aa551	-0.07551063
71	0x3d40167d	0.046896446
72	0xbca2ede0	-0.019888818
73	0xbda6bd7d	-0.08141611
74	0x3db30269	0.08740694
75	0xbd20ff10	-0.039305747
76	0x3dfb25fd	0.12263105
77	0x3e3c6688	0.18398488
78	0x3c927d01	0.017881872
79	0xbba4452c	-0.0050131287
80	0xbd952158	-0.072817504
81	0xbd13dad0	-0.036097348
82	0xbdf7a9e2	-0.120929495
83	0x3df76e87	0.12081628
84	0x3e3b78cc	0.18307799
85	0xbe084e64	-0.13311154
86	0x3e1d136d	0.15339442
87	0xbe06eb53	-0.13175707
88	0xbdd7bf22	-0.105345026
89	0xbbd1e18f	-0.0064050625
90	0xbd098dc5	-0.033582468
91	0x3de6fa56	0.112782165
92	0xbe066dea	-0.13127866
93	0x3e69d309	0.2283441
94	0xbc89510a	-0.016762275
95	0x3e224cac	0.1584956
96	0x3d4963cf	0.04916745
97	0x3d959433	0.073036574
98	0x3dcbd5bd	0.09952877
99	0xbda6c634	-0.08143273
100	0x3baaa15d	0.0052072243
101	0x3d1b9b4e	0.037989907
102	0x3d106040	0.03524804
103	0xbd03bd69	-0.032163057
104	0x3caf94d0	0.021433264
105	0xbdfb0c12	-0.122581616
106	0xbceafa20	-0.028683722
107	0x3d1c157f	0.038106438
108	0x3d101351	0.03517467
109	0xbc35e2b2	-0.011101412
110	0x3da998e6	0.08281116
111	0x3d9d3ae4	0.07677248
112	0xbd474d5c	-0.04865776
113	0xbe0d4448	-0.13795578
114	0xbccbf4f3	-0.024897074
115	0xbe0ef514	-0.13960677
116	0x3d94eef7	0.072721414
117	0x3db707b0	0.08937013
118	0x3dd6c60a	0.10486992
119	0x3e795e25	0.2435232
120	0x3dba9578	0.0911054
121	0xbda0644c	-0.0783163
122	0xbd02f68b	-0.031973403
123	0x3c94aefc	0.018149845
124	0x3ca8c1ac	0.020600162
125	0xbd72250a	-0.059117354
126	0xbc4127d7	-0.011789284
127	0x3d3b28ee	0.04569333
128	0xbd475571	-0.048665468
129	0x3e0c1fd1	0.13684012
130	0x3e49e637	0.19716726
131	0x3d698fe7	0.057022
132	0x3c8bea16	0.017079394
133	0xbd9b6ade	-0.07588743
134	0xbd7d16c8	-0.061789304
135	0x3c901ada	0.017590929
136	0x3e17325e	0.14765307
137	0x3dc212a6	0.09476213
138	0xbe3b29a6	-0.18277606
139	0xbc4b3a6a	-0.012404064
140	0x3c4232b0	0.011852905
141	0x3d9f9839	0.07792706
142	0xbd53b9ad	-0.051690746
143	0x3e2c62d7	0.1683458
144	0xbd8a1f40	-0.06744242
145	0x3c2fece0	0.010737628
146	0x3e0caeb0	0.13738513
147	0xbd0ce5fc	-0.034399018
148	0x3cf7b3a3	0.030237025
149	0x3e320cc2	0.17387679
150	0xbe541a87	-0.20713244
151	0x3db2f405	0.08737949
152	0x3d88a69b	0.066724025
153	0x3e88ffe6	0.26757735
154	0x3ca07228	0.019585684
155	0xbe3d3820	-0.18478441
156	0x3db028d9	0.08601541
157	0x3c474f60	0.012164921
158	0x3df18fde	0.117950186
159	0xbe479d20	-0.19493532
160	0xbdc3ff37	-0.09570163
161	0x3e22997d	0.15878864
162	0x3deaed43	0.11471035
163	0x3c8a3b49	0.016873972
164	0x3ca68a22	0.020329539
165	0xbd2aa6fa	-0.041663148
166	0x3ad4f634	0.0016247691
167	0x3db4916c	0.088167995
168	0x3bd0b278	0.0063689314
169	0xbc6bb9f2	-0.014387595
170	0x3d090238	0.03344938
171	0x3d0cbf5d	0.034362186
172	0xbdcec89b	-0.10096856
173	0x3ca1ad73	0.019736027
174	0x3de61aec	0.11235604
175	0x3c95e0fb	0.018295756
176	0x3d5ea269	0.054354105
177	0x3e629712	0.22127941
178	0x3dc72340	0.0972352
179	0x3d9c886a	0.076432064
180	0x3e060d18	0.13090932
181	0xbb680c8f	-0.0035407876
182	0x3e0ebc13	0.13938932
183	0x3dc29dda	0.09502764
184	0x3cf41b38	0.029798135
185	0x3c70d732	0.014699744
186	0xbc1ad3c6	-0.009449905
187	0x3d9f5706	0.0778027
188	0x3bc8ac10	0.006124027
189	0xbc82e438	-0.015977964
190	0x3e4990f0	0.19684196
191	0xbd8790c7	-0.06619411
192	0xbd59694b	-0.05307893
193	0x3d9ad0c6	0.075593516
194	0x3beb340d	0.007177836
195	0x3dcdb689	0.100445814
196	0xbc1f8de8	-0.009738423
197	0x3cd39612	0.025828395
198	0xbda43806	-0.08018498
199	0x3e5dc3b1	0.21656682
200	0x3c7f924f	0.0155988475
201	0x3e0d508c	0.13800257
202	0x3e0803e4	0.13282734
203	0x3e457040	0.19281101
204	0x3e437b98	0.19090116
205	0x3dd477c9	0.1037441
206	0x3dce0afa	0.10060687
207	0xbdcf2024	-0.10113552
208	0x3e13a2fc	0.14417642
209	0xbdeb3e67	-0.11486512
210	0xbb9005e9	-0.004395236
211	0x3bf363d3	0.0074276715
212	0x3e4e812e	0.20166466
213	0x3d1f0a05	0.038827915
214	0xbde47780	-0.11155605
215	0xbd8af903	-0.067857765
216	0x3c2a4551	0.010392503
217	0x3d3c70f5	0.04600616
218	0x3d93a3ee	0.072090015
219	0x3c37560a	0.011189947
220	0xbd9aec3a	-0.07564588
221	0x3cbcfddd	0.02307027
222	0x3d8d4bfe	0.0689926
223	0x3d2d92f0	0.04237646
224	0x3e48b4d6	0.19600233
225	0xbd22e6cd	-0.03977089
226	0xbbb68698	-0.005570244
227	0x3e0acd33	0.1355484
228	0x3e3fb970	0.18723083
229	0xbdf91dd3	-0.12163892
230	0x3d2cde3b	0.042204123
231	0x3c5146e0	0.012773246
232	0x3dd6d2b9	0.10489411
233	0x3e4c09cd	0.19925614
234	0x3e22182e	0.15829536
235	0x3dc958ec	0.098314136
236	0xbe15889f	-0.14602898
237	0x3d573f28	0.052550465
238	0xbbe506a7	-0.0069893184
239	0x3e306e19	0.17229499
240	0xbe149636	-0.14510426
241	0x3da1b7d4	0.078963906
242	0x3cc3424c	0.023835324
243	0x3da59830	0.08085668
244	0x3c8a704e	0.016899254
245	0x3e5dd1e9	0.21662106
246	0x3e048934	0.12942964
247	0x3d83a191	0.06427301
248	0x3da163bb	0.0788035
249	0xbb1877d7	-0.002326479
250	0x3e242cb7	0.16032682
251	0x3e0bab89	0.13639654
252	0x3dd4e6ac	0.1039556
253	0xbdbc535a	-0.091955855
254	0xbce338d1	-0.027737053
255	0xbaa8a508	-0.0012866566

encoder.lstm.weight_hh_l0 f4 [256, 64]
0	0xbe042639	-0.12905206
1	0x3ced84c7	0.028993977
2	0x3d529d1c	0.051419362
3	0x3dd4a1da	0.10382433
4	0x3d594a50	0.053049386
5	0x3d89fbba	0.06737466
6	0x3d7aaa38	0.06119749
7	0xbd7ed866	-0.062218092
8	0x3e422b80	0.18961906
9	0xbdc3f018	-0.095672786
10	0x3db100d5	0.08642737
11	0x3c402ada	0.011728967
12	0x3c06457d	0.008195278
13	0x3d96558d	0.07340536
14	0xbdc360c8	-0.09539944
15	0xbe280789	-0.16409124
16	0xbddd23ad	-0.1079782
17	0x3d68c4f8	0.05682847
18	0x3e3324ac	0.17494458
19	0x3dae56fe	0.08512686
20	0x3d883d1e	0.06652282
21	0x3dd7ac0a	0.10530861
22	0xbdaeec2d	-0.08541141
23	0x3d0975e8	0.03355971
24	0xbdac99fa	-0.08427806
25	0xbd2b4486	-0.041813396
26	0x3d665c27	0.056240227
27	0xbd0ee9de	-0.034891002
28	0x3e0f52c1	0.13996412
29	0xbddd0fa3	-0.10793998
30	0xbdce35fa	-0.10068889
31	0xbdd4c35b	-0.103888236
32	0x3ded03ba	0.115729764
33	0xbdaf0e77	-0.08547681
34	0xbd810a90	-0.06300843
35	0xbca07c29	-0.019590454
36	0x3e12a4e7	0.14320718
37	0x3da4fb61	0.08055759
38	0x3c83c316	0.016084235
39	0x3e2ca2af	0.16858934
40	0x3db45e84	0.0880709
41	0xbdfabe31	-0.122433074
42	0xbb8c7995	-0.0042869546
43	0xbdec26a6	-0.11530809
44	0x3d0d4495	0.034489233
45	0x3caae6a4	0.020861931
46	0xbdbf66a2	-0.093457475
47	0x3c77a564	0.015115116
48	0x3d56769d	0.052359212
49	0x3c36b9cd	0.011152697
50	0xbacbbf6f	-0.0015544723
51	0xbd9d5dd9	-0.07683916
52	0xbe3979e6	-0.18112907
53	0x3ddf651a	0.109079555
54	0xbd992bb0	-0.07479036
55	0x3ceee060	0.029159725
56	0x3d8a05e1	0.067394026
57	0xbe06af30	-0.13152766
58	0xbe669f7e	-0.22521779
59	0x3d1a82f7	0.037722554
60	0x3de1493b	0.11000296
61	0x3e522b94	0.20524436
62	0xbd4ab62c	-0.04949014
63	0x3b4808a8	0.0030522738
64	0x3de8c297	0.1136524
65	0xbd7666de	-0.060156696
66	0x3ce7e0f4	0.028305508
67	0xbc80c48f	-0.015718726
68	0xbd2700d5	-0.040772278
69	0xbdd54960	-0.10414386
70	0xbd107150	-0.035264313
71	0xbe3f1038	-0.1865853
72	0x3de8a1c5	0.1135898
73	0x3e192d33	0.14958648
74	0xbd838abd	-0.064229466
75	0xbb300b59	-0.0026862232
76	0x3cf420bd	0.029800767
77	0xbd9bb223	-0.07602336
78	0x3df7b66d	0.12095342
79	0xbde4945f	-0.11161112
80	0xbda2a7fc	-0.07942197
81	0x3e4f4711	0.20241953
82	0x3d8e2c3f	0.06942033
83	0x3ccb9c7e	0.024854895
84	0xbd6c3aa7	-0.057673123
85	0x3dabac73	0.083825015
86	0x3c9c798c	0.019100927
87	0x3d22e6e7	0.039770987
88	0x3c5ad1f4	0.013355721
89	0x3d805514	0.06266227
90	0x3e532da5	0.20622881
91	0xbc173d34	-0.009230901
92	0x3d74e6c5	0.05979039
93	0xbd9c44e9	-0.07630331
94	0xbcc02cdc	-0.02345889
95	0x3da643f5	0.081184305
96	0xbd9450ad	-0.0724195
97	0x3dd0eea6	0.102017686
98	0x3e0b0031	0.13574292
99	0xbdcbf5c2	-0.09958984
100	0xbd95e6c5	-0.073194064
101	0xbd7b0ca1	-0.06129134
102	0x3c65c103	0.014023068
103	0x3da2efea	0.07955916
104	0x3e03ef08	0.12884152
105	0x3d57d77d	0.05269574
106	0x3e22a12d	0.15881796
107	0x3d88206a	0.066468075
108	0x3e05e620	0.13076067
109	0xbc205263	-0.0097852675
110	0xbca2c01c	-0.019866996
111	0x3b042172	0.0020161537
112	0xbd801cc8	-0.062554896
113	0xbc64fb00	-0.013975859
114	0x3e3ab151	0.18231703
115	0x3d103d07	0.03521445
116	0x3cd8409b	0.026397994
117	0xbdafab42	-0.08577587
118	0x3dce1ee9	0.100644894
119	0x3e0ed33a	0.13947764
120	0xbdb72e89	-0.08944423
121	0xbcdd450c	-0.027010463
122	0xbdcb3360	-0.099219084
123	0x3d14dfee	0.03634637
124	0xbe2a6e47	-0.1664363
125	0x3d8cd8c4	0.06877282
126	0x3dfc044e	0.123055086
127	0xbd2a3205	-0.04155161
128	0x3e41030f	0.18848823
129	0x3e3a6e3d	0.18206115
130	0x3b8b4ed2	0.0042513395
131	0x3a17d9ae	0.00057926297
132	0xbd6556dc	-0.05599104
133	0x3dd9410c	0.1060811
134	0x3d56ffe4	0.05249013
135	0xbbb91e25	-0.0056493455
136	0xbdadec59	-0.08492345
137	0xbcd0f47e	-0.025507208
138	0x3cd33d2d	0.025786007
139	0x3e43c8be	0.19119546
140	0xbe1bc105	-0.1521035
141	0xbdcdb34f	-0.10043966
142	0x3d92553f	0.07145166
143	0x3e39d72e	0.18148491
144	0x3c11d9fb	0.008902068
145	0x3e481832	0.1954048
146	0x3e05cf5a	0.1306738
147	0x3e069733	0.13143615
148	0xbdb6033b	-0.08887335
149	0xbe091e02	-0.13390353
150	0x3d9bbd00	0.07604408
151	0xbddbe9fc	-0.10737988
152	0x3e0eed50	0.13957715
153	0x3d8d1d80	0.06890392
154	0x3e337284	0.17524153
155	0xbd2a20ae	-0.041535072
156	0xbbeebfec	-0.0072860625
157	0x3d9c4be1	0.0763166
158	0xbdee3091	-0.11630357
159	0x3c8d74e0	0.017267644
160	0xbd997a9b	-0.07494088
161	0x3d6ecf51	0.05830318
162	0x3e0eeaac	0.13956708
163	0xbc97e5b9	-0.018542157
164	0xbe34ce45	-0.1765681
165	0x3e04f487	0.12983905
166	0x3c958df9	0.018256174
167	0xbd40a7e8	-0.047035128
168	0x3e4e67de	0.2015681
169	0xbc9fdec9	-0.019515412
170	0x3da3972f	0.0798782
171	0x3e1c12c4	0.15241534
172	0xbdde0912	-0.10841574
173	0x3e0f6cde	0.14006373
174	0x3bc3b5d1	0.005972602
175	0xbdf91d24	-0.12163761
176	0xbda01e7e	-0.07818316
177	0xbe3ecc8b	-0.18632714
178	0x3d44d3ab	0.048053425
179	0xbccae6ef	-0.02476832
180	0xbdd086f9	-0.10181994
181	0x3d240708	0.040045768
182	0xbd15bd26	-0.03655734
183	0x3da51899	0.08061332
184	0xbe12b2f0	-0.14326072
185	0xbc9b3b2f	-0.01894912
186	0x3df52904	0.11970714
187	0xbd38ff9c	-0.045165643
188	0xbd03cd86	-0.032178424
189	0xbe327f40	-0.17431355
190	0x3dad7704	0.08469966
191	0x3c417fbb	0.0118102385
192	0xbdf5a53b	-0.11994406
193	0x3d896a09	0.06709678
194	0x3d733d96	0.059384905
195	0x3d017a67	0.031610873
196	0xbdee17d3	-0.11625638
197	0x3ddcfb81	0.10790158
198	0xbe052865	-0.1300369
199	0xbe04ccc0	-0.12968731
200	0x3e5e5f61	0.21716072
201	0xbd628ce3	-0.05531014
202	0xbd6eb07f	-0.05827379
203	0x3e2ca843	0.16861062
204	0xbe09c41d	-0.13453718
205	0x3d8375ec	0.06418976
206	0xbda7e7ac	-0.08198485
207	0xbd60785d	-0.054802287
208	0xbd7d9961	-0.06191385
209	0xbd923323	-0.0713866
210	0x3e0dc854	0.1384595
211	0x3e31664a	0.17324176
212	0xbd8042df	-0.06262755
213	0x3c7b157f	0.015324949
214	0x3def2dbc	0.11678645
215	0xbe0d2f9c	-0.13787693
216	0x3d948ffe	0.07254027
217	0xbdf80d1c	-0.121118754
218	0x3e010d5f	0.12602757
219	0x3daf7407	0.08567052
220	0x3e2962b4	0.16541559
221	0x3d8761e5	0.06610469
222	0x3d82f959	0.063952155
223	0xbd70b471	-0.058765832
224	0x3c6a27af	0.014291688
225	0xbcc0d9bb	-0.023541322
226	0xbcb70318	-0.022340342
227	0xbdd732e0	-0.105077505
228	0xbd9bd1f6	-0.07608406
229	0x3d9416cc	0.07230911
230	0xbcfa4a1d	-0.030552918
231	0xbcda5fc9	-0.026657002
232	0x3b96a204	0.0045969505
233	0xbde15180	-0.11001873
234	0x3d92cb29	0.07167656
235	0xbd53ba9c	-0.051691636
236	0x3e1ae95a	0.15128079
237	0x3d25a568	0.040440947
238	0xbe0f8161	-0.14014198
239	0xbe103c0e	-0.14085409
240	0xbd1ea566	-0.038731955
241	0x3d078e8f	0.03309494
242	0x3d3c2394	0.045932367
243	0xbd9b6ac6	-0.07588725
244	0xbe036c61	-0.12834312
245	0x3d450417	0.048099604
246	0x3d5a225d	0.053255428
247	0x3dfefa7c	0.1245012
248	0xbdce8750	-0.100844026
249	0x3daeb16f	0.085299365
250	0xbb723608	-0.0036958475
251	0x3d3d149c	0.046162233
252	0xbe08878f	-0.13332961
253	0x3df437f9	0.119247384
254	0x3d0a98e7	0.033837225
255	0xbe1cb9c7	-0.15305243

encoder.lstm.bias_ih_l0 f4 [256]
0	0xbcc78b8a	-0.02435853
1	0xbda27a42	-0.07933475
2	0x3e119d6a	0.14220205
3	0x3d8e74e0	0.06955886
4	0xbe0aa03c	-0.13537687
5	0xbe69d721	-0.22835971
6	0xbd8f0cfd	-0.06984899
7	0x3ded66cd	0.11591873
8	0x3c929e66	0.017897796
9	0x3ef15269	0.47133186
10	0xbd0c534e	-0.034259133
11	0x3e5a19bc	0.2129888
12	0x3cc5bf04	0.024138935
13	0xbd97e4b0	-0.074166656
14	0x3e997ed8	0.29979587
15	0xbf7f8e83	-0.9982683
16	0xbe3f7405	-0.18696602
17	0x3e16e12a	0.14734331
18	0x3d1787b1	0.03699464
19	0xbe298226	-0.16553554
20	0xbe27a6af	-0.16372178
21	0xbc3b8d1a	-0.011447215
22	0x3e7ecc33	0.24882583
23	0x3e90426d	0.2817568
24	0xbde190b5	-0.11013929
25	0xbd707456	-0.058704697
26	0x3de4ccb9	0.1117186
27	0x3de60d46	0.112330005
28	0xbdf93583	-0.1216841
29	0xbe0dea3d	-0.13858886
30	0x3e264dea	0.1624066
31	0xbd9d497c	-0.07680032
32	0xbdcdeb8e	-0.10054694
33	0xbd1b44b2	-0.03790731
34	0x3e64fad2	0.22361305
35	0xbdc4f2bc	-0.096166104
36	0xbd8c298d	-0.06843863
37	0xbcbc3a89	-0.02297713
38	0x3e395178	0.18097484
39	0x3e59fac3	0.21287064
40	0x3da54ade	0.080709204
41	0x3de0e694	0.10981479
42	0x3d94f210	0.07272732
43	0xbe03abd0	-0.1285851
44	0xbf08ab9f	-0.53386873
45	0xbe52d411	-0.2058871
46	0xbed51761	-0.416194
47	0x3c3573aa	0.01107494
48	0x3d34ee51	0.04417259
49	0x3e17b2e8	0.14814341
50	0x3e8f415c	0.27979553
51	0xbd46644c	-0.048435494
52	0xbdad7f5d	-0.08471558
53	0xbe03b462	-0.1286178
54	0x3e532a7c	0.20621675
55	0x3f35f35f	0.7107448
56	0x3e9a8d24	0.30185807
57	0x3e94c028	0.29052854
58	0xbbede4b6	-0.0072599305
59	0x3de3f0f8	0.111299455
60	0x3d1eb82c	0.03874986
61	0xbe3e2cf1	-0.18571831
62	0x3e33d5eb	0.17562072
63	0x3dd639be	0.10460232
64	0xbe74f5a9	-0.23921837
65	0xbe1886e9	-0.14895214
66	0xbe156b69	-0.14591755
67	0xbe0432a9	-0.1290995
68	0xbd109a97	-0.03530368
69	0x3dade57d	0.08491037
70	0xbe731640	-0.23738956
71	0xbdf38b19	-0.11891765
72	0xbed9facf	-0.42574164
73	0xbe2edcd5	-0.17076428
74	0xbdc7e1a3	-0.09759834
75	0xbd87d67c	-0.066327065
76	0xbe2b548b	-0.1673147
77	0xbe6f7fc4	-0.23388582
78	0xbe29b0a1	-0.16571285
79	0xbe21474c	-0.15749854
80	0xbe379c80	-0.17930794
81	0xbd20374d	-0.03911524
82	0xbd2f3d3a	-0.042783
83	0x3da3c1a6	0.0799592
84	0xbe665a17	-0.22495304
85	0xbd7573ef	-0.059925016
86	0xbe3e1442	-0.18562415
87	0xbcd5100a	-0.026008625
88	0xbe07af98	-0.13250577
89	0xbe82b895	-0.2553145
90	0x3d32ae55	0.043623287
91	0xbd9446fe	-0.07240103
92	0xbd59d557	-0.053181972
93	0xbdfa1cf3	-0.12212553
94	0xbdbe6ea1	-0.092984445
95	0xbe3975a0	-0.18111277
96	0x3c44e34a	0.012017081
97	0x3de0d85b	0.109787665
98	0xbdb1c2e8	-0.086797535
99	0x3d7f788c	0.06237082
100	0xbd36eaf7	-0.044657674
101	0xbe34ee69	-0.17669071
102	0xbe3b11fd	-0.1826858
103	0xbd75d0fc	-0.060013756
104	0x3dadd3a1	0.08487631
105	0xbe36724f	-0.17817043
106	0xbe4474a7	-0.19185124
107	0xbc840e50	-0.016120106
108	0xbd8fe4c1	-0.07026053
109	0xbde27eb5	-0.11059324
110	0xbd9be9f7	-0.07612985
111	0xbe08931f	-0.13337372
112	0xbd917c22	-0.071037546
113	0xbcefefe0	-0.029289186
114	0xbc95ce84	-0.01828695
115	0xbe7be921	-0.2460065
116	0xbdc786b8	-0.097424924
117	0xbdfe9e16	-0.12432496
118	0xbdd6f542	-0.10495998
119	0xbe3b50a2	-0.18292478
120	0x3c15001e	0.009094266
121	0xbe7a8c35	-0.24467547
122	0xbda40936	-0.08009569
123	0xbdd6b239	-0.10483212
124	0xbe6dbcf5	-0.23216613
125	0x3d71f2d5	0.059069473
126	0x3dd3f969	0.103503056
127	0xbd838201	-0.06421281
128	0xbd01b378	-0.031665295
129	0xbd7f3851	-0.062309567
130	0x3d481519	0.048848245
131	0x3c26ed7d	0.010188458
132	0xbda4904e	-0.080353364
133	0xbd0ead7a	-0.03483341
134	0x3912c88e	0.00013998357
135	0xbdb4dc5f	-0.08831095
136	0x3da30f5c	0.07961914
137	0xbc955e02	-0.018233303
138	0xbb99c883	-0.0046930923
139	0x3dd6a2c4	0.10480264
140	0x3d59c9fd	0.053171147
141	0xbda9cb04	-0.08290675
142	0x3d393f1a	0.045226194
143	0x3c0d0f52	0.00860961
144	0x3d65a841	0.056068663
145	0x3dca66de	0.098829016
146	0x3d777f85	0.060424346
147	0x3d854350	0.065069795
148	0x3d0d8648	0.03455189
149	0xbd932b11	-0.07185949
150	0xbca40a71	-0.02002451
151	0xbe0af492	-0.13569859
152	0x3cc939d9	0.024563717
153	0x3da61ebc	0.08111331
154	0xbe1c1b32	-0.15244749
155	0xbdfe8f0a	-0.12429626
156	0x3cccb87d	0.024990315
157	0x3c818382	0.015809778
158	0xbdb431d8	-0.087985694
159	0xbd3b060a	-0.045660056
160	0xbd3857a3	-0.045005452
161	0x3d682c9b	0.056683164
162	0x3e0aeb04	0.13566214
163	0xbb7fc450	-0.0039026923
164	0xbd919e0c	-0.07110223
165	0x3d77493c	0.060372576
166	0x3d268ccd	0.04066162
167	0x3df7c647	0.12098365
168	0x3da3b802	0.07994081
169	0x3dab5c98	0.0836727
170	0x3b244000	0.002506256
171	0x3cd52f94	0.026023664
172	0xbdb0d6aa	-0.08634694
173	0xbcfe00d3	-0.031006252
174	0x3c93e7be	0.01805484
175	0xbc5f96fb	-0.013646836
176	0xbc6beac9	-0.014399239
177	0x3b83a2e8	0.0040172227
178	0x3cf1fd7b	0.029539814
179	0xbd6d195a	-0.057885505
180	0xbd15996b	-0.036523264
181	0x3d9c4803	0.07630923
182	0x3dcc68c9	0.09980924
183	0x3e4ff0f8	0.20306766
184	0xbd29fe0d	-0.041502047
185	0x3df6e90f	0.12056171
186	0x3cb6353e	0.022242185
187	0xbd92323c	-0.07138488
188	0xbd15e8f1	-0.036599103
189	0x3d9a48cf	0.075334184
190	0x3d6be1ae	0.05758827
191	0xbdade611	-0.08491147
192	0x3e117124	0.14203316
193	0x3de24222	0.1104777
194	0xbd7dc961	-0.061959628
195	0x3dd27e48	0.102779925
196	0xbcf2b423	-0.029626912
197	0xbd9d54a8	-0.076821625
198	0xbdb033f5	-0.0860366
199	0x3dde2aa6	0.10847978
200	0x3c2e761e	0.0106482785
201	0x3ee1dc70	0.44113493
202	0xbde260fc	-0.110536546
203	0x3e453127	0.19257031
204	0x3e66ee2c	0.22551793
205	0xbd1b73e6	-0.037952326
206	0x3e13c295	0.14429696
207	0xbf61b1d8	-0.88161993
208	0x3c8065a9	0.015673475
209	0x3e6d1717	0.2315334
210	0xbd8114e3	-0.06302812
211	0xbd7e2851	-0.062050167
212	0xbe20a8de	-0.15689418
213	0xbd64eb63	-0.055888545
214	0x3ea87aba	0.32906133
215	0x3e84a268	0.25905156
216	0x3c92368c	0.017848276
217	0x3e0e2ea3	0.13884978
218	0x3d054e25	0.032545228
219	0x3e3c24cd	0.18373413
220	0x3dd0acc2	0.10189201
221	0x3d1f174e	0.038840584
222	0x3dd54f18	0.104154766
223	0xbe1db414	-0.15400726
224	0xbc664422	-0.01405433
225	0x3cbe8a2a	0.023259241
226	0x3d8a7ad7	0.06761711
227	0xbdd595ef	-0.10428988
228	0xbd9c9254	-0.076450974
229	0x3e1d233a	0.15345469
230	0xbb8279f7	-0.0039818245
231	0x3e386eda	0.18011037
232	0x3d9fcac5	0.07802347
233	0x3e267ec6	0.16259298
234	0x3e30d527	0.17268811
235	0x3b6d35ce	0.00361954
236	0xbee6ee5c	-0.4510373
237	0xbe44ac14	-0.19206268
238	0xbf1fc158	-0.62404394
239	0xbbc79797	-0.006091069
240	0xbd6326ab	-0.0554568
241	0x3e25d59a	0.16194764
242	0x3e681364	0.22663647
243	0x3dc255fc	0.094890565
244	0x3d4fa3c9	0.050693307
245	0xbab3f728	-0.0013730275
246	0x3dbab3fe	0.09116362
247	0x3f35a342	0.70952237
248	0x3eb35d37	0.35032055
249	0x3e923e30	0.2856307
250	0xbd37245f	-0.04471242
251	0x3cdbff0e	0.026855018
252	0x3e22e220	0.15906572
253	0xbdc79c10	-0.097465634
254	0x3dbbcede	0.09170316
255	0x3e420ae8	0.18949473

encoder.lstm.bias_hh_l0 f4 [256]
0	0x3d69dfc1	0.057098154
1	0x3db9a411	0.09064496
2	0xbd2afc1a	-0.04174433
3	0xbd2a1d7e	-0.041532032
4	0xbda30497	-0.0795986
5	0xbd7afaaa	-0.061274208
6	0xbd69f38c	-0.05711703
7	0x3d2c1b97	0.0420185
8	0xbc6c42b7	-0.014420203
9	0x3e9c4a1a	0.30525285
10	0xbd3ec30e	-0.046572737
11	0x3e6c4a2d	0.23075171
12	0x3e48d68a	0.1961309
13	0xbc9871ff	-0.018609045
14	0x3e75f2f4	0.2401846
15	0xbf6c8eef	-0.924056
16	0x3c97731f	0.018487511
17	0x3d4f8cc8	0.05067137
18	0x3d167ad3	0.036738228
19	0x3c8d3648	0.017237797
20	0xbe3bda9e	-0.18345115
21	0x3c14fd94	0.009093661
22	0x3e9db534	0.3080231
23	0x3ef36252	0.4753595
24	0x3ba0cdcc	0.0049073454
25	0x3da188ea	0.078874424
26	0x3debc290	0.11511719
27	0x3e30d4e7	0.17268716
28	0x3ddaa1e0	0.106754065
29	0x3cdffb73	0.02734158
30	0x3b9c3b27	0.0047677937
31	0xbd0a9d0b	-0.033841174
32	0xbc0011de	-0.00781676
33	0xbdab18a5	-0.0835431
34	0x3ce3a98f	0.027790813
35	0xbe52efcd	-0.20599289
36	0x3df77ebf	0.12084722
37	0x3dcab6a5	0.09898118
38	0x3dda829e	0.106694445
39	0x3e1ea2a6	0.15491733
40	0xbdcdc6ba	-0.1004767
41	0x3e013833	0.12619095
42	0x3c9e3be7	0.019315673
43	0xbd0089d8	-0.031381458
44	0xbf05011a	-0.51954806
45	0xbe3fbed2	-0.18725136
46	0xbf2474ca	-0.64240706
47	0x3df43137	0.119234495
48	0xbdbed27b	-0.0931749
49	0x3dd91412	0.10599531
50	0x3eb97458	0.36221576
51	0x3d656f82	0.056014545
52	0xbc07cc85	-0.008288507
53	0xbde8ab7f	-0.11360835
54	0x3d6d0f9e	0.05787622
55	0x3f54d73e	0.83140934
56	0x3e20a338	0.15687263
57	0x3eb81080	0.35950089
58	0xbe16d76a	-0.14730611
59	0xbdb76532	-0.08954848
60	0xbb54a85d	-0.0032448985
61	0xbe462c83	-0.19352917
62	0x3d928abd	0.071553685
63	0x3dfd6e5d	0.12374566
64	0xbe47f1f9	-0.19525899
65	0xbdc0c387	-0.09412294
66	0xbe623c5d	-0.2209334
67	0xbe688ba3	-0.22709517
68	0x3dd5c010	0.10437024
69	0xbda4f1a1	-0.080538996
70	0xbe75c4fc	-0.24000925
71	0xbe32a600	-0.17446136
72	0xbed7c86b	-0.42145094
73	0xbde14c67	-0.11000901
74	0xbb40a5e9	-0.0029395765
75	0xbd5ca06b	-0.053863924
76	0xbe24194c	-0.16025275
77	0xbd8de4f6	-0.069284365
78	0xbd6ecdb8	-0.058301657
79	0xbe76c6b4	-0.24099237
80	0xbe4c37d1	-0.19943167
81	0xbe01cea3	-0.12676482
82	0xbc4de23b	-0.012566145
83	0x3d8a507c	0.067536324
84	0xbda5fe46	-0.081051394
85	0xbe3aa116	-0.18225512
86	0xbe68113c	-0.22662824
87	0xbdc26e77	-0.09493726
88	0xbe272fd3	-0.16326837
89	0xbdaec8c1	-0.085343845
90	0xb972a9b5	-0.00023142139
91	0x3d2314e4	0.039814845
92	0xbe34b5eb	-0.17647521
93	0xbde77fed	-0.11303697
94	0xbdb4988a	-0.08818157
95	0xbe56c8f8	-0.20975101
96	0xbd24123d	-0.040056456
97	0xbdae5ed2	-0.08514179
98	0xbe7c37f5	-0.24630721
99	0xbd837231	-0.06418265
100	0xbd8e9718	-0.069624126
101	0xbe613ec4	-0.219966
102	0xbce6dc3a	-0.028181184
103	0xbe37cc1e	-0.17948958
104	0xbdad65e4	-0.084667
105	0xbe336f2b	-0.17522876
106	0xbe522d00	-0.20524979
107	0x3db22f7a	0.08700462
108	0xbdd0dbb8	-0.10198158
109	0xbd895ec5	-0.06707529
110	0xbd010c28	-0.031505734
111	0xbe653852	-0.22384766
112	0xbcb8623b	-0.022507777
113	0xbe5bb525	-0.2145582
114	0xbdd973bd	-0.106177785
115	0xbe3acdde	-0.18242595
116	0xbde26134	-0.11053696
117	0xbb82f345	-0.003996285
118	0xbe118f6a	-0.14214864
119	0xbe7c704e	-0.24652216
120	0xbe6184be	-0.22023293
121	0xbe05dc9d	-0.13072439
122	0xbd1485e7	-0.03626051
123	0xbe583b83	-0.21116452
124	0xbd6eefdd	-0.05833422
125	0xbdcec6b6	-0.10096495
126	0xbdb82d4c	-0.08993015
127	0xbe048942	-0.12942985
128	0x3dc88447	0.09790855
129	0x3deb8d28	0.11501533
130	0xbd9863d8	-0.07440919
131	0xbdc707bf	-0.09718274
132	0x3d4b4e1f	0.04963505
133	0x3d7927f5	0.06082912
134	0x3c1e56dc	0.009664264
135	0x3b983da2	0.004646019
136	0xbe05c29f	-0.13062523
137	0x3dcffda2	0.101557985
138	0xbd33fb05	-0.043940563
139	0x3bc02d1d	0.005864753
140	0xbe0f7929	-0.14011063
141	0x3d00e2f6	0.031466447
142	0x3d1c4548	0.03815201
143	0xbc97120f	-0.018441228
144	0xbc74587b	-0.0149136735
145	0xbb458969	-0.0030141717
146	0xbe003909	-0.12521757
147	0xbc8bddb5	-0.017073492
148	0x3c849db9	0.01618849
149	0x3d1baedb	0.038008552
150	0x3dba5dd8	0.090999305
151	0x3c96577e	0.018352266
152	0x3c28e0ba	0.010307485
153	0xbdbffe59	-0.09374685
154	0x3cd85c9d	0.026411349
155	0x3d332b34	0.043742374
156	0x3bd74ebd	0.0065706656
157	0x3cf676d4	0.030085959
158	0x3d57d99b	0.05269776
159	0x3dbeead8	0.09322137
160	0x3b615e7f	0.00343886
161	0xbcc7761f	-0.024348317
162	0xbd5615a0	-0.052266717
163	0xb8a36cd6	-7.792718e-05
164	0x3c32db63	0.010916564
165	0x3c319c2f	0.01084046
166	0xbdf0eea3	-0.11764266
167	0xbd46c69d	-0.048529256
168	0xbca0c7cd	-0.019626522
169	0xbcc8a911	-0.02449468
170	0x3d60ba21	0.054865006
171	0x3c92a5bb	0.017901292
172	0x3d9d2f5e	0.0767505
173	0x3cfbe289	0.030747669
174	0xbc8a23a7	-0.016862703
175	0xbc9a76ea	-0.01885553
176	0x3ccacf2a	0.024756987
177	0xbd8f30c6	-0.06991725
178	0x3dbd5775	0.09245197
179	0x3d4eb832	0.05046863
180	0x3cba737a	0.022760142
181	0xbdb8cacb	-0.09023055
182	0xbcce299f	-0.02516633
183	0xbc0c0f95	-0.008548637
184	0xbd61af15	-0.05509861
185	0xbcb444c4	-0.022005446
186	0x3ca77c6b	0.02044507
187	0x3b005335	0.0019580845
188	0xbd198e9a	-0.03748951
189	0xbdefaa2c	-0.117023796
190	0xbe130f4b	-0.14361303
191	0xbc4fc653	-0.0126815615
192	0x3e2823a0	0.1641984
193	0xbdf11880	-0.11772251
194	0x3e1f4ca5	0.15556581
195	0x3e12b0be	0.14325234
196	0xbe257301	-0.16157152
197	0xbdef0483	-0.116707824
198	0xbe2792aa	-0.16364542
199	0x3e1f6dda	0.15569249
200	0x3dc8cd5a	0.09804793
201	0x3ed489ee	0.41511482
202	0x3a8d284f	0.0010769459
203	0x3d121419	0.035663698
204	0x3e6347e9	0.221954
205	0xbb749080	-0.0037317574
206	0x3eac15ee	0.3361048
207	0xbf77368c	-0.96567607
208	0xbdc738f6	-0.09727661
209	0x3e255839	0.16146936
210	0xbc9d6866	-0.01921482
211	0x3d3bbdda	0.045835353
212	0xbda6a61c	-0.081371516
213	0xbdc9f4e1	-0.0986116
214	0x3e22e3e8	0.15907252
215	0x3ea135ca	0.3148635
216	0xbe179677	-0.14803492
217	0x3e1f00c2	0.15527633
218	0x3e0ef2b1	0.13959767
219	0x3c62be53	0.013839322
220	0x3dc2afa2	0.095061556
221	0xbdf07779	-0.117415376
222	0xbd1d044f	-0.038334187
223	0xbd2ec9b8	-0.042672843
224	0x3d7b6b1f	0.061381456
225	0x3b075747	0.0020651387
226	0x3e7158c6	0.2356902
227	0xbe20c1de	-0.15698954
228	0x3d5843cd	0.052799035
229	0x3e552ea4	0.20818573
230	0xbcb510b8	-0.022102699
231	0x3e85230a	0.26003295
232	0xbde9be35	-0.11413232
233	0x3e4396ef	0.19100545
234	0x3e477fbd	0.19482322
235	0xbd360fbc	-0.0444486
236	0xbf2a9f1f	-0.6664905
237	0xbdba0f6e	-0.09084974
238	0xbf2c9ab4	-0.6742356
239	0x3d254efb	0.040358525
240	0xbd1e235e	-0.038607948
241	0xbcc5422c	-0.024079405
242	0x3e180dd4	0.14849025
243	0x3c951b7f	0.018201588
244	0xbde79eb7	-0.11309569
245	0xbdae6c91	-0.08516801
246	0x3d5c95df	0.053853866
247	0x3f4a8448	0.79108095
248	0x3e8a066b	0.26958022
249	0x3ed84789	0.42242077
250	0x3d972a6f	0.073811404
251	0x3d047431	0.03233737
252	0xbc076b34	-0.008265305
253	0x3b0da81c	0.0021615094
254	0x3df1a6a1	0.1179936
255	0x3e0ab37e	0.13545033

encoder.U_e.weight f4 [3, 3]
0	0x3f3d11cc	0.7385528
1	0x3f352057	0.7075247
2	0x3f0a6ee8	0.5407548
3	0x3ea2c32d	0.31789532
4	0xbebf9aea	-0.37422878
5	0x3e82f77f	0.2557945
6	0x3eb7c7f8	0.35894752
7	0xbab6bf94	-0.0013942593
8	0x3c9b2ef2	0.018943284

encoder.U_e.bias f4 [3]
0	0xbf256848	-0.64612246
1	0xbf251fe6	-0.645018
2	0xbe9cd3e7	-0.3063042

encoder.W_e.weight f4 [3, 128]
0	0x3e94b494	0.2904402
1	0x3ebe5596	0.37174672
2	0xbe10fe4d	-0.14159508
3	0xbeb5c7db	-0.3550404
4	0xbe88a240	-0.26686287
5	0xbe619a77	-0.2203158
6	0xbe0f798b	-0.14011209
7	0xbe66c89b	-0.22537462
8	0xbd74d06a	-0.05976907
9	0x3e44bfe8	0.19213831
10	0xbea05892	-0.31317574
11	0x3e0727a0	0.1319871
12	0xbe0455e5	-0.12923391
13	0x3df894ca	0.12137754
14	0x3e3c1583	0.18367581
15	0x3e66a2ba	0.22523013
16	0x3ecd8427	0.40139887
17	0x3db7522e	0.089512214
18	0x3e89e74c	0.26934278
19	0x3e5057ff	0.20346068
20	0xbdd6b25f	-0.1048324
21	0x3d1b098f	0.037850913
22	0x3e940a9d	0.28914347
23	0xbdf4e3dc	-0.11957523
24	0x3e91015e	0.28321356
25	0xbe0c0b80	-0.13676262
26	0x3e8a5f6b	0.27025923
27	0x3e1dce4f	0.15410732
28	0x3dbbb8a2	0.09166075
29	0x3e93ff4c	0.28905714
30	0xbd307aab	-0.043085735
31	0x3e6bd924	0.23032051
32	0xbe87a2c0	-0.26491356
33	0x3e446798	0.19180143
34	0x3e1f254a	0.15541568
35	0x3ea8571b	0.32878956
36	0xbec718c0	-0.3888607
37	0x3e2bb9e5	0.16770132
38	0xbcbf9d35	-0.023390392
39	0x3cc625b0	0.024187893
40	0x3ec60991	0.38679174
41	0x3ea92440	0.3303547
42	0x3e8cb98c	0.2748531
43	0x3ebb7af9	0.36617258
44	0xbe7735dd	-0.24141641
45	0x3e1ccde0	0.1531291
46	0x3ebc0029	0.36718872
47	0xbec119b7	-0.3771493
48	0x3e1c5a21	0.15268756
49	0xbe0fb240	-0.1403284
50	0x3e5cb737	0.21554266
51	0xbe0c4ee9	-0.13701977
52	0xbd80fc13	-0.06298079
53	0x3d9aa0e4	0.07550219
54	0x3e3211ca	0.17389598
55	0x3e597872	0.21237352
56	0xbe884cff	-0.26621243
57	0x3e4a0f87	0.19732486
58	0x3e98e43e	0.29861635
59	0x3e1ae2d4	0.1512559
60	0xbe0fea91	-0.14054324
61	0xbea83972	-0.32856327
62	0x3d9ebeb4	0.077512175
63	0xbe4acbb5	-0.1980427
64	0x3eaa000d	0.33203164
65	0x3e71a9df	0.23599957
66	0xbe04c391	-0.12965228
67	0xbe9fa508	-0.31180596
68	0xbecbfa49	-0.3983939
69	0xbdf084bf	-0.11744069
70	0xbe582f64	-0.21111828
71	0xbe14ff1a	-0.14550439
72	0xbd77d754	-0.060508087
73	0x3e5e026b	0.2168061
74	0xbe928550	-0.28617334
75	0x3e51168b	0.20418756
76	0xbe195ff6	-0.14978012
77	0x3e2d58a6	0.16928348
78	0x3e299b09	0.16563047
79	0x3e9f509d	0.3111619
80	0x3f01cbb3	0.50701445
81	0x3e24bd2a	0.16087785
82	0x3e30903b	0.1724252
83	0x3e65e902	0.22452167
84	0xbe3fd102	-0.18732074
85	0x3e4714a0	0.19441462
86	0x3e2ac6b0	0.16677356
87	0xbe173195	-0.14765008
88	0x3e9b2a1d	0.30305567
89	0xbd744810	-0.059639037
90	0x3e5d892a	0.21634355
91	0x3c7c8e06	0.01541472
92	0x3e34a530	0.17641139
93	0x3e9354dd	0.28775683
94	0xbe471744	-0.19442469
95	0x3eb37187	0.35047552
96	0xbe822da8	-0.25425458
97	0x3e8d7f28	0.27636075
98	0x3e8ab94c	0.27094495
99	0x3e6d8c03	0.23197941
100	0xbed322df	-0.41237542
101	0x3dd68425	0.10474423
102	0xbdd9dbf8	-0.10637659
103	0x3def7551	0.11692298
104	0x3eb02921	0.3440638
105	0x3e8b0a3b	0.27156243
106	0x3e3f9b66	0.18711624
107	0x3eb8e582	0.361126
108	0xbe61000c	-0.21972674
109	0x3e15af00	0.14617538
110	0x3ea94388	0.33059335
111	0xbed22636	-0.41044778
112	0x3e61c1b8	0.22046554
113	0xbe171f42	-0.14758018
114	0x3e180b54	0.14848071
115	0xbe583b30	-0.21116328
116	0xbde66fc0	-0.11251783
117	0x3def6cff	0.11690711
118	0x3e45babd	0.19309516
119	0x3e1d3eb1	0.15355946
120	0xbdee5719	-0.11637706
121	0x3e855c9f	0.26047227
122	0x3ea59584	0.32340634
123	0x3e48b12d	0.19598837
124	0xbe318c9b	-0.17338793
125	0xbe70638e	-0.23475477
126	0x3d63fd6c	0.055661604
127	0xbea0b1fe	-0.31385797
128	0x3ebaeada	0.36507303
129	0x3e800d10	0.25009966
130	0xbe120116	-0.14258227
131	0xbe543c44	-0.20726115
132	0xbe83daf8	-0.25752997
133	0xbdc1e4c1	-0.094674595
134	0xbdcd4c18	-0.10024279
135	0xbe4439b5	-0.19162638
136	0x3dd3a605	0.103344
137	0x3e6bca79	0.23026456
138	0xbe1a2518	-0.15053213
139	0x3c378f94	0.011203665
140	0xbc71051e	-0.014710693
141	0x3d7690d0	0.060196698
142	0x3e16446b	0.14674537
143	0x3e68ba85	0.22727402
144	0x3e93cb9e	0.28866285
145	0x3d249590	0.040181696
146	0x3e4a4955	0.19754536
147	0x3e24025b	0.16016524
148	0x3c9a219e	0.018814858
149	0xbb8e57d8	-0.004343968
150	0x3e73d5b7	0.23811994
151	0xbe63f766	-0.22262344
152	0x3e8ab5ec	0.2709192
153	0xbd37db9a	-0.044887163
154	0x3e8c951d	0.27457514
155	0x3dc06b82	0.093955055
156	0x3d73a545	0.059483785
157	0x3e94b5d1	0.29044965
158	0xbda4bd8d	-0.080439664
159	0x3e1b95e2	0.15193895
160	0xbe404c7f	-0.18779181
161	0x3cb98d93	0.022650516
162	0x3e6a281c	0.22866863
163	0x3e3ee946	0.18643674
164	0xbe8b18dd	-0.27167407
165	0x3d7e5b7a	0.062098958
166	0xbd6685d1	-0.05627996
167	0x3d1020c9	0.035187516
168	0x3e8ec4cb	0.27884516
169	0x3e9bf9b7	0.30463955
170	0x3e75d43a	0.2400674
171	0x3e787af2	0.2426565
172	0xbe4016a9	-0.18758644
173	0x3dece3d9	0.11566896
174	0x3db91710	0.09037602
175	0xbe17f2c4	-0.14838701
176	0x3d6423b4	0.05569811
177	0xbe3a6dac	-0.18205899
178	0x3e0f85b6	0.1401585
179	0xbd53f28e	-0.05174499
180	0xbbe4ad1e	-0.006978645
181	0x3c934a85	0.01797987
182	0x3e5a64fa	0.21327582
183	0x3e4cdecd	0.20006867
184	0xbe2ddc65	-0.16978605
185	0x3e15dc51	0.14634825
186	0x3e788d55	0.24272664
187	0x3d12c4fb	0.035832386
188	0xbe3fcff7	-0.18731676
189	0xbe147438	-0.14497459
190	0x3e4d4742	0.20046714
191	0xbe514428	-0.20436156
192	0x3eb2d4e5	0.3492805
193	0x3e85d47e	0.2613868
194	0xbdad5716	-0.08463876
195	0xbe2eb955	-0.17062886
196	0xbe544cb1	-0.2073238
197	0xbd388329	-0.04504696
198	0xbe1c24f6	-0.15248474
199	0xbe6e2523	-0.23256354
200	0xbd34b729	-0.044119988
201	0x3e5cec5f	0.21574543
202	0xbe48013d	-0.19531722
203	0x3dcf45b4	0.10120717
204	0xbd9673b9	-0.07346291
205	0xbc5efb06	-0.013609653
206	0x3e42e508	0.19032681
207	0x3e5de94a	0.21671024
208	0x3ea70733	0.3262268
209	0x3da942a8	0.08264667
210	0x3e547464	0.20747524
211	0x3dd40c6a	0.1035393
212	0xbd079b40	-0.033107042
213	0xbcbbc093	-0.022918975
214	0x3e9ced49	0.30649784
215	0xbe595094	-0.21222144
216	0x3e8f7998	0.28022456
217	0xbc970da1	-0.018439116
218	0x3e591038	0.21197593
219	0x3e4c2975	0.1993769
220	0x3e471717	0.19442402
221	0x3ec3cb1d	0.382409
222	0xbdeeb74b	-0.11656054
223	0x3e431ae2	0.19053224
224	0xbe336b82	-0.1752148
225	0x3e18ba08	0.14914715
226	0x3e71cb80	0.23612785
227	0x3e2db502	0.1696358
228	0xbeac0796	-0.33599538
229	0x3d813d8f	0.063105695
230	0xbe0b53f0	-0.13606238
231	0x3e20dda1	0.15709545
232	0x3ea2d2af	0.31801364
233	0x3eb09881	0.3449135
234	0x3e1ee65d	0.15517564
235	0x3e786f55	0.2426122
236	0xbe1ef94e	-0.1552479
237	0x3db9dac3	0.090749286
238	0x3e232246	0.15931043
239	0xbe72e773	-0.23721103
240	0x3d73f4de	0.059559695
241	0xbd7f265d	-0.062292445
242	0x3de786d2	0.11305012
243	0xbdbcef00	-0.09225273
244	0xbd7d4b01	-0.061839107
245	0x3d460772	0.048346944
246	0x3e62d366	0.22150955
247	0x3e3bada0	0.18327951
248	0xbe440673	-0.19143085
249	0x3e2acf11	0.16680552
250	0x3e8eef4d	0.27916947
251	0x3d7a530d	0.06111436
252	0xbe0ff99a	-0.14060059
253	0xbe153750	-0.14571881
254	0x3daf1a6d	0.08549962
255	0xbe677895	-0.22604592

encoder.W_e.bias f4 [3]
0	0xbe86cc4c	-0.2632774
1	0xbeb90fda	-0.36144906
2	0xbe023182	-0.12714198

encoder.v_e.weight f4 [1, 3]
0	0x3ccd6178	0.02507089
1	0x3f2e2155	0.6801961
2	0xbe055b14	-0.13023025

decoder.W_d.weight f4 [64, 128]
0	0xbcc76c3f	-0.024343608
1	0xbcd39a75	-0.025830487
2	0x3d01fd98	0.031735986
3	0xbb051f03	-0.0020312674
4	0xbda72499	-0.08161277
5	0xbc901283	-0.017586952
6	0xbcb786b1	-0.022403093
7	0xbd453e5d	-0.048155177
8	0x3bfefb53	0.007781425
9	0xbd0122db	-0.03152738
10	0xbd21a90c	-0.039467856
11	0xbc9f90b2	-0.019478176
12	0x3d684ddb	0.056714874
13	0x3d86df88	0.06585604
14	0x3d43db95	0.04781683
15	0xbb5ca8a3	-0.0033669851
16	0xbd3e875d	-0.04651581
17	0xbc404dd5	-0.011737307
18	0xb89bd423	-7.4304895e-05
19	0xbd9ff789	-0.078108855
20	0xbd0e88dd	-0.03479849
21	0xbd499803	-0.049217235
22	0xbd9f2354	-0.0777041
23	0xbd002580	-0.031285763
24	0x3d2045a3	0.03912891
25	0xbda2db79	-0.07952017
26	0x3d7cd6ff	0.061728474
27	0x3d0f2331	0.03494567
28	0x3cca8468	0.02472134
29	0xbdb270ee	-0.08712946
30	0x3d1b1609	0.03786281
31	0xbda5dc74	-0.08098689
32	0xbd991628	-0.07474929
33	0x3ceb2170	0.028702468
34	0xbbb77fd8	-0.005599957
35	0xbd8e1d08	-0.06939131
36	0x3d660ec2	0.056166418
37	0x3d95ab45	0.07308058
38	0x3da02fb2	0.07821597
39	0xbd958333	-0.07300415
40	0x3ccf3b3d	0.025296802
41	0xbc0e1b95	-0.008673568
42	0xbd3f8ac3	-0.046763193
43	0x3daf8a7c	0.08571336
44	0x3bf5dfa4	0.0075034667
45	0x3907008d	0.00012874808
46	0xbd9faea2	-0.077969804
47	0x3d2ecef1	0.042677823
48	0x3d9faaf4	0.077962786
49	0xbc5dd9fa	-0.013540739
50	0xbd8d8a63	-0.06911161
51	0xbd9ff8cd	-0.07811127
52	0x3d9fc393	0.07800975
53	0xbd8bd416	-0.068275616
54	0x3db0d87c	0.08635041
55	0xbd7fb20e	-0.062425666
56	0x3d03dad9	0.03219113
57	0x3d03c69e	0.032171838
58	0x3d300878	0.042976826
59	0x3cb1ee34	0.02172003
60	0x3cb74cb0	0.022375435
61	0x3d5456db	0.051840644
62	0x3cdb19c9	0.026745694
63	0xbdae4d3b	-0.08510824
64	0x3ccb052a	0.024782736
65	0xbbde2702	-0.0067795524
66	0x3d29a395	0.04141577
67	0xbd5239f9	-0.05132482
68	0x3da73a4a	0.08165415
69	0x3d9c2ee6	0.07626133
70	0x3c786b8c	0.01516236
71	0xbdb4ae6c	-0.08822331
72	0x3c002430	0.007821128
73	0xbd98fed1	-0.07470477
74	0x3c001d4b	0.007819484
75	0x3d52abda	0.05143342
76	0x3d31652b	0.043309372
77	0x3c43c48c	0.011948716
78	0xbd84ad99	-0.064784236
79	0x3d8c0438	0.06836742
80	0x3c969ef9	0.018386351
81	0x3d6fb9b8	0.058526725
82	0x3d0cf5a6	0.034413956
83	0x3c02903b	0.007968958
84	0x3d470f4c	0.048598573
85	0x3c177907	0.009245164
86	0xbcf85732	-0.030315015
87	0xbd7487be	-0.059699766
88	0x3c7c0dd6	0.015384158
89	0x3d9f1708	0.07768065
90	0xbd4c1871	-0.049827997
91	0xba0ded44	-0.00054140785
92	0xbcdc129f	-0.026864348
93	0x3d88d241	0.06680728
94	0xbd3a5a5d	-0.045496333
95	0xbc34ad39	-0.011027628
96	0x3d3b2383	0.045688163
97	0x3d0ff5bb	0.035146456
98	0xbc380ed0	-0.011234
99	0xbdb0a5e3	-0.086253904
100	0x3db41ac8	0.087941706
101	0x3d09763b	0.03356002
102	0xbcbb7685	-0.022883663
103	0x3b98a055	0.004657785
104	0x3d8bd4d8	0.06827706
105	0x3b97d630	0.0046336874
106	0x3d0b458d	0.034001876
107	0x3d267bf7	0.040645566
108	0x3c50bb16	0.012739917
109	0xbd29998f	-0.04140621
110	0xbda55495	-0.08072773
111	0xbda6f519	-0.081522174
112	0xbd64ffc8	-0.055907995
113	0x3da56e92	0.0807773
114	0x3d85cba2	0.065329805
115	0x3d4da09e	0.050202005
116	0xbc82bf68	-0.01596041
117	0x3d9f473c	0.07777259
118	0x3d9dbecd	0.07702408
119	0x3bb242d1	0.005440094
120	0xbca24dc5	-0.019812474
121	0xbd1d66f4	-0.038428262
122	0xbda73bd6	-0.0816571
123	0x3daac75a	0.083388045
124	0x3d90eca2	0.07076384
125	0x3d5355bc	0.051595435
126	0xbb860b5c	-0.0040907096
127	0xbd902deb	-0.07040008
128	0xbc2d021e	-0.010559587
129	0xbd0973f1	-0.033557836
130	0xbcf6dd18	-0.030134723
131	0x3bb01516	0.0053736074
132	0xbd7299af	-0.059228595
133	0xbd42c9bc	-0.04755567
134	0xbd5f7c7f	-0.054562088
135	0x3d4ee120	0.050507665
136	0x3d7ab289	0.06120542
137	0x3d041e88	0.03225568
138	0x3d3b49b5	0.04572459
139	0x3cd427e0	0.02589792
140	0xbd23c2f2	-0.039980836
141	0x3cb2e8c9	0.021839516
142	0x3d401733	0.046897124
143	0xbda53aa1	-0.08067823
144	0x3d9a210a	0.07525833
145	0xbd0be621	-0.034155015
146	0xbb8fbb5d	-0.004386349
147	0x3c60dc97	0.013724468
148	0x3d6d077f	0.057868477
149	0xbcf71b8a	-0.030164499
150	0xbdaf531e	-0.08560775
151	0xbd9e6f65	-0.077360906
152	0x3d89f8ce	0.06736909
153	0x3d3f02d2	0.04663355
154	0x3cae729c	0.021294884
155	0x3d9e4a43	0.07729008
156	0xbcca661c	-0.024706893
157	0x3c8e644e	0.017381813
158	0x3d1fe1d1	0.039033715
159	0x3da335a4	0.079692155
160	0xbda9f265	-0.08298186
161	0x3d22fa92	0.039789744
162	0xbc519dd9	-0.0127939815
163	0xbd756851	-0.059913937
164	0xbd64d8bf	-0.055870768
165	0xbc3fa355	-0.011696656
166	0xbc6000b9	-0.013672047
167	0x3c695ac4	0.014242832
168	0x3d42ddbb	0.04757474
169	0xbd8040d0	-0.06262362
170	0xbd3b16df	-0.04567611
171	0xbda80607	-0.082042746
172	0xbd520c9c	-0.051281556
173	0x3d83df11	0.06439031
174	0x3c75c82c	0.015001338
175	0xbda42635	-0.080151
176	0x3d9bdf8a	0.07610996
177	0xbd050db3	-0.032483768
178	0xbd77fe6f	-0.06054538
179	0x3d85b2e5	0.06528262
180	0xbdaf3ebf	-0.0855689
181	0x3da166db	0.07880946
182	0x3d0b2a3d	0.03397583
183	0xbd82f92a	-0.063951805
184	0xbd4056f9	-0.046957944
185	0xbd52fcb1	-0.051510517
186	0xbc0819fb	-0.0083069755
187	0xbc8f210f	-0.017471818
188	0xbc14ea29	-0.009089031
189	0xbd668930	-0.056283176
190	0x3d7f3349	0.06230477
191	0xbc2646e6	-0.010148739
192	0xbda53d31	-0.08068312
193	0xbd69f7e9	-0.05712119
194	0xbd8a3b9f	-0.06749653
195	0x3da66b1c	0.08125898
196	0xbda4347d	-0.08017824
197	0x3d0e2a7a	0.034708478
198	0x3cb7ae28	0.022421911
199	0x3d81add3	0.063319825
200	0x3d83c871	0.064347155
201	0x3d01f609	0.031728778
202	0x3bc52537	0.0060163992
203	0xbb5cb531	-0.0033677334
204	0xbce4d9fc	-0.027935974
205	0x3d978b8e	0.07399665
206	0xbd3680c4	-0.044556394
207	0x3d5a9e00	0.053373337
208	0x3d962bcb	0.073325716
209	0xbd8d8419	-0.06909961
210	0x3cfcd3d3	0.030862724
211	0xbda99573	-0.08280458
212	0x3d8ffe5f	0.07030939
213	0xbd7f304d	-0.062301923
214	0x3bcc8ad9	0.006242138
215	0xbcae5303	-0.021279817
216	0xbd2196f3	-0.039450597
217	0x3ce3b9d1	0.027798565
218	0xbda6494d	-0.0811945
219	0x3d6a4c1c	0.05720149
220	0xbcef5037	-0.029213054
221	0x3d1924df	0.03738868
222	0xbabab97a	-0.001424595
223	0xbd722109	-0.059113536
224	0x3d2a5a20	0.041589856
225	0xbcaceced	-0.021109069
226	0xbc9edaed	-0.019391501
227	0xbd89ca93	-0.06728091
228	0x3da605a6	0.08106546
229	0xbd5019ab	-0.05080573
230	0x3d83fe08	0.06444937
231	0x3d80c17d	0.06286905
232	0x3cb8f0d8	0.02257578
233	0xbd7e2ec3	-0.062056314
234	0xbac5a725	-0.001507972
235	0xbccf83f6	-0.025331479
236	0x3cbf359f	0.023340998
237	0x3d779154	0.06044133
238	0x3d8d3b3e	0.06896065
239	0x3d5a05b2	0.053228088
240	0x3cc55267	0.024087144
241	0xbd59200a	-0.05300907
242	0xbda67129	-0.08127052
243	0xbdb29efe	-0.087217316
244	0xbdb10da3	-0.08645179
245	0x3d095d70	0.033536375
246	0x3d511333	0.0510437
247	0x3d9c9da6	0.076472566
248	0x3b28862d	0.002571474
249	0xbda17394	-0.07883373
250	0x3d021a41	0.03176332
251	0x3d8daa87	0.06917291
252	0x3d92e08c	0.07171735
253	0x3c8aef3a	0.016959775
254	0xbd9e4ad7	-0.07729118
255	0x3daded59	0.08492536

decoder.W_d.bias f4 [64]
0	0x3d6ca3df	0.057773467
1	0x3d370ec7	0.044691827
2	0xbdbb8681	-0.09156514
3	0xbca5735f	-0.020196615
4	0xbd32ed53	-0.04368336
5	0xbcd7b000	-0.02632904
6	0x3cd7162b	0.026255688
7	0xbd017454	-0.03160508
8	0xbd81c56c	-0.06336483
9	0xbcd0468e	-0.025424268
10	0x3d94c059	0.0726325
11	0x3ccce511	0.025011571
12	0xbc053ad6	-0.008131703
13	0xbca5b17f	-0.020226238
14	0xbd0e28ea	-0.034706987
15	0xbc917de3	-0.017760223
16	0xbc650c14	-0.01397993
17	0x3c0c2bb6	0.008555343
18	0xbcda1b1a	-0.026624251
19	0x3ccf6439	0.025316345
20	0x3d293df7	0.04131886
21	0x3d188585	0.03723671
22	0xbc18f003	-0.009334567
23	0xbd18361d	-0.03716098
24	0x3d4dc106	0.05023291
25	0xbc9d8a88	-0.019231096
26	0x3d2f7051	0.042831723
27	0x3b94111b	0.0045186407
28	0xbd2f59ea	-0.042810358
29	0x3ca56ffe	0.020195004
30	0x3c542b38	0.012949757
31	0x3c829bd0	0.015943438
32	0x3c49ce9d	0.012317327
33	0x3cec8f06	0.028876793
34	0x3caf8841	0.021427276
35	0x3b800475	0.0039067813
36	0xbb82a4c9	-0.003986929
37	0xbc8e02f6	-0.017335396
38	0x3d4fa93a	0.050698496
39	0x3db40489	0.087899275
40	0x3b810d90	0.0039383844
41	0x3dc8eb33	0.09810486
42	0x3d973d98	0.07384795
43	0x3cb35b8a	0.021894235
44	0xbcdbd7dd	-0.02683633
45	0xbccffc72	-0.02538893
46	0x3d562b82	0.052287586
47	0x3cb2022e	0.021729555
48	0xbbd296b8	-0.0064266585
49	0xbbb7f153	-0.005613485
50	0x3d1e612f	0.0386669
51	0x3d93ba40	0.07213259
52	0x3d0355d3	0.03206427
53	0x3d53de5a	0.051725723
54	0xbc7730f8	-0.015087359
55	0xbca5ad30	-0.020224184
56	0x3d845b96	0.06462781
57	0xbdc13939	-0.094347425
58	0xbc02f690	-0.007993355
59	0x3d10925e	0.035295837
60	0xbcb6edba	-0.022330154
61	0xbd3346b4	-0.0437686
62	0xbd7355f8	-0.059408158
63	0x3d2eb426	0.04265227

decoder.U_d.weight f4 [64, 64]
0	0x3d161a28	0.03664604
1	0x3e50420b	0.20337693
2	0xbf0b5653	-0.54428595
3	0xbe14095c	-0.14456695
4	0xbe0b3a04	-0.1359635
5	0xbae64639	-0.0017568535
6	0xbeaec6a2	-0.3413592
7	0xbe6feaa6	-0.23429355
8	0x3ee2185d	0.44159213
9	0x3e65bd4a	0.2243549
10	0xbe316bb2	-0.17326239
11	0x3ed2a90d	0.411446
12	0xbe88d055	-0.26721445
13	0x3eefef21	0.46862128
14	0x3d918ad7	0.0710656
15	0xb948da64	-0.00019154843
16	0xbc02b56b	-0.007977824
17	0x3f73aaa2	0.9518224
18	0x3d9b8e21	0.07595468
19	0x3ddce9b8	0.10786766
20	0xbec122d7	-0.37721893
21	0x3ed03b10	0.4067006
22	0x3e9fbc86	0.3119852
23	0xbe94091c	-0.289132
24	0x3caf2884	0.021381624
25	0xbf6b3e11	-0.9189158
26	0xbd29c208	-0.04144481
27	0x3e35cbcb	0.17753522
28	0x3e93396f	0.28754756
29	0x3e1cbf32	0.1530731
30	0xbeca127c	-0.39467227
31	0x3e41197c	0.18857378
32	0x3d964f0e	0.07339297
33	0x3d45a69f	0.048254605
34	0x3ddac5fc	0.10682294
35	0x3e855a2b	0.26045355
36	0xbda0e38a	-0.078559
37	0x3e5dab93	0.21647482
38	0xbeaadf9b	-0.33373722
39	0x3f32f676	0.6990732
40	0x3c8f9c91	0.017530711
41	0x3e2c82e7	0.1684681
42	0x3de735ff	0.11289596
43	0xbc737b84	-0.014860991
44	0x3d411e2c	0.047147915
45	0x3e8ab84f	0.2709374
46	0xbe453167	-0.19257127
47	0xbe5747b8	-0.21023452
48	0x3dfad20c	0.122470945
49	0xbe4f0d94	-0.20220023
50	0x3ead3f5f	0.3383741
51	0xbe4c1efc	-0.19933695
52	0xbf431f1f	-0.7621936
53	0x3e4529e3	0.1925426
54	0x3daf973a	0.08573766
55	0x3f07e0f2	0.53077614
56	0xbe550fb8	-0.20806777
57	0x3e7d5280	0.24738503
58	0xbc83a0de	-0.016067918
59	0x3eb292da	0.34877664
60	0xbe288bb8	-0.16459548
61	0xbcdaac67	-0.026693536
62	0xbd07ae73	-0.033125352
63	0xbe9b562f	-0.3033919
64	0xbcffc615	-0.031222383
65	0xbd8fca03	-0.070209526
66	0x3eff0d6a	0.49814922
67	0x3e544aff	0.20731734
68	0x3e151fe4	0.14562947
69	0x3e895bf1	0.26827958
70	0x3ea61c59	0.32443503
71	0x3eadb025	0.3392345
72	0xbec1837a	-0.3779562
73	0xbe331d61	-0.17491676
74	0x3d9e7bed	0.07738481
75	0xbeb01f6b	-0.3439897
76	0x3e9789b4	0.29597247
77	0xbe9d723e	-0.30751222
78	0xbe303c51	-0.17210509
79	0x3d80dfb2	0.062926665
80	0xbe1efa8a	-0.1552526
81	0xbf5a1bbe	-0.8519858
82	0xbd3dff27	-0.04638591
83	0xbe0314b9	-0.12800874
84	0x3e881c62	0.26584154
85	0xbed7239a	-0.4201935
86	0xbe8f8edb	-0.28038678
87	0x3e96861a	0.29399186
88	0xbdeb2928	-0.11482459
89	0x3f50d1d4	0.8157017
90	0x3e1f1e19	0.15538825
91	0xbe4e9f6e	-0.20178005
92	0xbe64e94b	-0.22354619
93	0xbe3e612d	-0.18591757
94	0x3ed01a1a	0.40644914
95	0xbdff2c6b	-0.12459644
96	0xbc9165af	-0.017748682
97	0x3cd4e589	0.025988357
98	0xbe2dd825	-0.16976984
99	0xbe33971f	-0.17538117
100	0x3d80e965	0.062945165
101	0xbe5cccb5	-0.21562465
102	0x3e3ebe7a	0.18627349
103	0xbf5b7273	-0.8572151
104	0xbe080ee0	-0.13286924
105	0xbe8208e5	-0.2539741
106	0xbd9e5695	-0.07731358
107	0xbe6733fc	-0.22578424
108	0xbe458864	-0.1929031
109	0xbe1bf655	-0.15230687
110	0x3de7b354	0.11313501
111	0x3e418744	0.18899256
112	0xbe387185	-0.18012054
113	0x3e4ed7c6	0.20199499
114	0xbef4ace6	-0.4778816
115	0x3e8c4005	0.27392593
116	0x3f14dac0	0.58146286
117	0xbecac000	-0.3959961
118	0xbe118be2	-0.14213517
119	0xbf03f53c	-0.5154607
120	0x3e8e618f	0.27808806
121	0xbe8b143a	-0.2716387
122	0xbc5ff0a9	-0.013668218
123	0xbec034c6	-0.37540263
124	0x3e42f6f7	0.19039522
125	0xbd998613	-0.07496276
126	0xbbbeb7a9	-0.005820234
127	0x3ec63f1f	0.38720033
128	0x3e3550a6	0.17706546
129	0x3db421ca	0.08795507
130	0xbedc96e6	-0.43083876
131	0xbe2d8008	-0.16943371
132	0xbd6d088a	-0.05786947
133	0xbdefd04a	-0.1170965
134	0xbe4e07ed	-0.20120211
135	0xbe245e5f	-0.16051625
136	0x3e53bab2	0.20676687
137	0x3ea566da	0.32305032
138	0xbd1685c2	-0.036748655
139	0x3ecb4b96	0.39706105
140	0xbe9e03db	-0.30862316
141	0x3e91e4ac	0.28494775
142	0x3eb4b14d	0.3529152
143	0xbe1bb202	-0.15204623
144	0x3e11c0f9	0.1423377
145	0x3f7539a4	0.9579108
146	0x3d5742f7	0.052554097
147	0x3e03c9b2	0.1286991
148	0xbea37fe4	-0.3193351
149	0x3e818941	0.2530003
150	0x3e3da032	0.18518141
151	0xbeaf4377	-0.3423116
152	0x3d0d77e4	0.034538165
153	0xbf723544	-0.94612527
154	0xbe0e3cf0	-0.13890433
155	0x3d8f722b	0.07004198
156	0x3e8fa3d3	0.28054675
157	0xbc9af2b9	-0.018914567
158	0xbf1885f1	-0.5957938
159	0x3d9defe4	0.07711771
160	0x3daa15c7	0.08304935
161	0xbe2d3fe8	-0.1691891
162	0x3e3c0c2c	0.18364018
163	0x3dead5d9	0.114665695
164	0xbe5a320f	-0.21308158
165	0x3e2bd15d	0.16779085
166	0xbe823cce	-0.25437015
167	0x3f234baf	0.6378736
168	0x3e3e8552	0.18605545
169	0x3e702109	0.23450102
170	0x3e62d1e4	0.2215038
171	0x3db06740	0.086134434
172	0x3e2e33bc	0.17011923
173	0x3e932760	0.28740978
174	0xbe137abe	-0.14402291
175	0xbed54630	-0.4165511
176	0x3e25a0dc	0.16174644
177	0xbeae6438	-0.34060836
178	0x3eeca3b8	0.46218657
179	0xbe975e1f	-0.29563996
180	0xbf410b30	-0.75407696
181	0x3e877a33	0.26460418
182	0x3e519e0b	0.20470445
183	0x3f38d808	0.7220464
184	0xbec100ef	-0.37696025
185	0x3ec20b01	0.3789902
186	0xbd39b0b4	-0.045334533
187	0x3e6113a3	0.21980147
188	0xbe2533a7	-0.16132985
189	0x3d791307	0.06080916
190	0xbe1861a6	-0.14881
191	0xbe860218	-0.26173472
192	0x3dace5e4	0.08442286
193	0x3e53ddad	0.20690031
194	0xbf16cd18	-0.589067
195	0xbe397f09	-0.18114866
196	0xbde8d76a	-0.11369212
197	0xbdf37745	-0.11887983
198	0xbead5853	-0.3385645
199	0xbe9760cf	-0.29566047
200	0x3e96f332	0.29482418
201	0x3ed2a367	0.4114029
202	0xbe2aff8c	-0.16699046
203	0x3f0362a7	0.51322407
204	0xbebf35e6	-0.3734581
205	0x3ecbfc68	0.39841008
206	0x3e65dc1b	0.22447245
207	0xbd5e9183	-0.05433799
208	0x3db29ea1	0.08721662
209	0x3f72050c	0.9453895
210	0xbd26b7fb	-0.0407028
211	0x3c764bb5	0.015032698
212	0xbe81195e	-0.25214666
213	0x3e9fdc76	0.31222886
214	0x3ec67533	0.3876129
215	0xbe94be8d	-0.2905163
216	0x3e348a3c	0.17630857
217	0xbf832956	-1.024699
218	0xbd7517a2	-0.05983699
219	0xbc1cdace	-0.0095736515
220	0x3e938a1c	0.28816307
221	0x3db96b09	0.090536185
222	0xbeea3f25	-0.457513
223	0x3e017e04	0.12645727
224	0xbe0215ad	-0.12703581
225	0xbd32cf0a	-0.04365448
226	0x3eb09a07	0.34492514
227	0x3eacf5e3	0.33781347
228	0xbe27881c	-0.16360515
229	0x3ec7ed94	0.39048445
230	0xbeda966a	-0.42692882
231	0x3f4bf545	0.79671127
232	0x3e0c0c34	0.1367653
233	0x3eaa8cfd	0.3331069
234	0x3e509eb7	0.20373045
235	0x3e0a0c45	0.13481243
236	0x3d9781b5	0.073977865
237	0x3e57ad39	0.21062173
238	0xbe836f3c	-0.25670803
239	0xbedbc95d	-0.42927065
240	0x3e77e2f4	0.2420767
241	0xbeb7c344	-0.35891163
242	0x3f0a1048	0.53931093
243	0xbea49fab	-0.32153067
244	0xbf22c0cb	-0.6357543
245	0x3ee68d2a	0.45029575
246	0x3ea2b289	0.31776837
247	0x3f57cad3	0.8429386
248	0xbed62dcb	-0.41831812
249	0x3ecca557	0.39969894
250	0x3def19f7	0.11674874
251	0x3edf1cf1	0.43576768
252	0xbea1d644	-0.31608784
253	0xbe142a26	-0.14469203
254	0xbe1e0d20	-0.15434694
255	0xbebba4b6	-0.36649102
