weights/DARNN_L3_HDE16_HDD16_BS32_E50_s3.pth (torch, 44210 bytes, 22 tensors)

encoder.lstm.weight_ih_l0 f4 [64, 81]
0.008647953 0.3772827 -0.10536583 0.077216655 0.17375697 -0.13299337 0.28243798 0.41335824
0.23571302 0.2908672 0.20510721 0.25687468 -0.028547395 -0.113870725 -0.22496773 -0.015406422
-0.23737665 0.5519051 0.20986211 0.26883465 0.036424253 -0.2574083 0.32988793 -0.4926341
-0.09366691 0.059830904 -0.009768605 0.2173895 -0.16875839 -0.31445608 -0.101805076 0.34999785
-0.17579617 0.019170817 -0.002134329 0.039892737 0.035363317 0.082378864 -0.1479593 0.06564472
-0.120105736 -0.010673628 0.038960893 -0.28246123 0.23088445 -0.014843702 0.010069858 -0.09829629
0.39611325 0.3800215 0.28534833 -0.16491297 -0.18879081 0.6448668 0.32229257 0.35164452
0.022989145 0.16309954 0.23844902 0.15921812 0.49050164 -0.014677088 0.06095206 0.03665406
-0.14591934 -0.053716753 0.06049403 -0.23194787 0.4375889 0.21517035 0.100491494 0.36362845
0.0014045452 -0.010934874 0.08292336 0.17230701 0.3676977 0.3334817 0.019550595 0.154789
-0.23082039 0.0002132457 0.55296314 0.35530654 0.52564085 0.3450261 0.42324996 -0.03645859
-0.00147149 0.13496947 0.40973404 0.8468288 0.18377924 0.58292264 0.29490212 0.45303982
0.40189764 0.3026367 0.41747954 0.118554376 0.4662414 0.16510947 0.7876223 0.24265066
0.39664844 0.17601405 0.23001936 0.08191948 0.5491731 0.104363225 0.61103827 0.50658953
-0.038360104 0.139413 0.45538983 0.06529107 0.30043063 0.7456617 0.5916252 0.90968704
0.33595935 0.07179994 0.1714722 0.25649706 0.20638473 0.02123052 0.050637975 0.31007975
0.7496919 0.6539576 0.61842 -0.07138859 0.336571 0.29921326 0.027318412 0.3407481
0.4192335 0.23162803 0.14490417 0.071361 0.070090115 0.3168542 0.513169 0.43015063
0.2917518 0.21886323 0.5301866 0.05211789 0.41425204 0.5849412 -0.042599507 0.30785894
0.22520694 0.8045216 -0.08050947 -0.16706362 0.34918097 0.54771763 0.47507024 0.69309974
0.03144741 0.59099233 0.18177795 0.9612466 -0.07186664 -0.10488664 0.3418373 0.055094518
-0.022921285 0.01689678 0.0006456295 0.38689223 0.41831893 0.28422058 0.1798902 0.21208012
-0.052759815 0.46264625 0.168225 0.23077025 0.35548913 0.32404792 0.24673347 0.5833555
0.25767323 0.15325569 0.12844288 0.2078781 -0.12522711 0.27456865 0.30963504 0.0067927027
0.021025024 0.05495231 0.24689509 0.6308145 0.1995471 0.059923284 0.123864 0.8174113
0.2387828 0.24805926 0.30083403 0.37978488 0.36661705 0.10567851 0.21575823 -0.19888327
0.2840037 0.08219623 0.31301862 -0.018597908 0.25345162 0.10982255 -0.05587513 -0.027898788
0.118901834 0.14962307 0.06945924 0.17622189 -0.056765016 -0.028417988 0.19045621 0.27552256
0.34351695 0.20591354 0.010479026 0.26027018 0.3195542 -0.11948274 0.25086752 0.13001187
0.2516281 0.46709055 0.3990834 0.001583728 -0.3253362 0.15274648 0.318614 0.3235056
0.19692224 0.17552334 0.060003 0.107729375 0.909726 0.37678862 0.26687574 0.48172027
0.097759224 0.026517512 0.3844523 0.25032178 0.57011414 0.44989443 0.2526134 0.0192255
00000000: 25b0 0d3c 332b c13e 0aca d7bd c423 9e3d
00000010: 59ed 313e 6a2f 08be b69b 903e b1a3 d33e
00000020: c15e 713e 8cec 943e a007 523e 1485 833e
00000030: 3adc e9bc 0e35 e9bd f15d 66be 386b 7cbc
00000040: dd12 73be a749 0d3f 18e6 563e b2a4 893e
00000050: 9931 153d 05cb 83be 12e7 a83e 893a fcbe
00000060: 70d4 bfbd 4011 753d 800c 20bc 5a9b 5e3e
00000070: 00cf 2cbe 6300 a1be 2e7f d0bd eb32 b33e
00000080: e903 34be 1e0c 9d3c 19e0 0bbb 9166 233d
00000090: 20d9 103d 40b6 a83d a582 17be bd70 863d
000000a0: fff9 f5bd 71e0 2ebc 7595 1f3d c29e 90be
000000b0: f96c 6c3e 0033 73bc 0cfc 243c 914f c9bd
000000c0: 5bcf ca3e 2e92 c23e 2d19 923e f2de 28be
000000d0: 6152 41be fe15 253f 8803 a53e c00a b43e
000000e0: bb53 bc3c 9103 273e fb2b 743e 130a 233e
000000f0: 0823 fb3e 2b78 70bc dea8 793d 9122 163d
00000100: e16b 15be 1906 5cbd 97c8 773d be83 6dbe
00000110: a70b e03e 9e55 5c3e 7cce cd3d 822d ba3e
00000120: b718 b83a 3028 33bc b9d3 a93d 4071 303e
00000130: df42 bc3e 1dbe aa3e 9228 a03c 0281 1e3e
00000140: 2e5c 6cbe b59a 5f39 fe8e 0d3f bdea b53e
00000150: 6690 063f 43a7 b03e 38b4 d83e 9a55 15bd
00000160: 03df c0ba 7035 0a3e a9c8 d13e c6c9 583f
00000170: a030 3c3e 6b3a 153f 69fd 963e d6f4 e73e
00000180: 87c5 cd3e 33f3 9a3e e1bf d53e a3cc f23d
00000190: 31b7 ee3e 7512 293e 9da1 493f 6a79 783e
000001a0: 8115 cb3e 073d 343e 328a 6b3e 66c5 a73d
000001b0: 9c96 0c3f 63bc d53d 016d 1c3f daaf 013f
000001c0: 7c1f 1dbd 48c2 0e3e db28 e93e 53b7 853d
000001d0: 0bd2 993e afe3 3e3f c074 173f 40e1 683f
000001e0: dd02 ac3e d90b 933d 6996 2f3e 9553 833e
000001f0: 8556 533e a1eb ad3c c469 4f3d c6c2 9e3e
00000200: cfeb 3f3f c469 273f c650 1e3f 2e34 92bd
00000210: 0953 ac3e 7b32 993e ddca df3c 8976 ae3e
00000220: c6a5 d63e e62f 6d3e c261 143e b725 923d
00000230: 688b 8f3d b73a a23e 0b5f 033f b43c dc3e
00000240: 7e60 953e af1d 603e 4fba 073f 9279 553d
00000250: d818 d43e b5be 153f d27c 2ebd b09f 9d3e
00000260: a69c 663e 21f5 4d3f 26e2 a4bd ba12 2bbe
00000270: d9c7 b23e 3937 0c3f 683c f33e fc6e 313f
00000280: 00cf 003d 464b 173f 0024 3a3e 4214 763f
00000290: d12e 93bd cfce d6bd 4c05 af3e caaa 613d
000002a0: 6bc5 bbbc 1e6b 8a3c 763f 293a bd16 c63e
000002b0: e62d d63e 5c85 913e 2335 383e 882b 593e
000002c0: ad1a 58bd f8df ec3e 2d43 2c3e 094f 6c3e
000002d0: ac02 b63e 9ce9 a53e b3a7 7c3e c956 153f
000002e0: bfed 833e 0fef 1c3e 8886 033e ffdd 543e
000002f0: 893b 00be 4394 8c3e 7c88 9e3e 5295 de3b
00000300: ac3c ac3c ac15 613d 11d2 7c3e 0f7d 213f
00000310: 1356 4c3e 1e72 753d 69ac fd3d de41 513f
00000320: 7a83 743e 3f03 7e3e eb06 9a3e 2a73 c23e
00000330: 3bb5 bb3e fa6d d83d baef 5c3e 0ea8 4bbe
00000340: ef68 913e 7f56 a83d fa43 a03e a45a 98bc
00000350: 69c4 813e a5ea e03d 52dd 64bd 008c e4bc
00000360: ce82 f33d ca36 193e a540 8e3d 8373 343e
00000370: 6f82 68bd d7cc e8bc f406 433e 4b11 8d3e
00000380: 74e1 af3e 00db 523e 38b0 2b3c 2242 853e
00000390: 9c9c a33e 5eb3 f4bd b571 803e d521 053e
000003a0: 66d5 803e 7e26 ef3e a954 cc3e 1895 cf3a
000003b0: 7792 a6be 9369 1c3e 6021 a33e 87a2 a53e
000003c0: fca5 493e 64bc 333e b5c5 753d 38a1 dc3d
000003d0: cee3 683f 70ea c03e f0a3 883e 0aa4 f63e
000003e0: fd35 c83d 413b d93c efd6 c43e 2d2a 803e
000003f0: 00f3 113f 9058 e63e 8b56 813e cc7e 9d3c

encoder.lstm.weight_hh_l0 f4 [64, 16]
0.0880173 0.087019406 -0.15528396 -0.21009222 0.5338969 0.14759749 0.26652053 -0.19098327
0.10755902 -0.29800257 -0.182621 0.34771794 0.099062 0.03931228 0.6742578 0.18786387
-0.15332595 -0.24601929 -0.48475045 -0.4645214 -0.12411089 0.48868343 -0.52785933 0.39267418
-0.017694708 0.37347028 0.33873904 -0.3108379 0.035863493 -0.39885837 -0.0073771467 0.12845258
0.06842466 0.18056208 0.056426898 0.07773829 -0.25672683 0.48680145 -0.2712625 0.12881748
-0.09786638 0.499417 0.27025515 0.518872 -0.22982563 -0.15384792 0.18710206 0.3353791
0.034679588 -0.26610646 -0.45600477 -0.33379936 -0.3813201 0.5661774 -0.29565513 0.2781127
-0.1346987 0.1693695 0.33547843 0.053153373 0.0031457029 -0.32613197 -0.18469784 0.20856863
0.17511962 -0.45559254 -0.46313083 -0.43010533 -0.22876541 0.025468765 -0.12769975 0.51610917
-0.26536447 0.2404443 -0.11152224 0.4896112 -0.48083168 -0.038646348 0.6004355 0.18874538
0.38153738 -0.26881492 -0.43935743 -0.52389896 -0.10527221 0.54135484 -0.45741466 0.35115695
-0.7372785 0.15656598 0.380814 0.14023839 -0.16905646 -0.67487586 0.4992429 0.39496174
-0.27143538 0.09406277 -0.06712314 -0.27245796 0.03671434 -0.14935516 -0.30487764 -0.050350312
-0.06985124 0.104815066 0.14074478 -0.12755272 -0.1757917 -0.28080624 0.12875679 0.15288131
-0.112387314 0.14233297 -0.06833035 -0.33792922 -0.13990778 0.5650179 -0.06894892 0.19675422
-0.055740602 0.043042213 0.24957657 0.022812238 0.07860163 -0.046261154 -0.008326831 0.44846162
0.32854465 -0.15767595 -0.14577074 -0.054390393 -0.13686013 0.6700746 -0.13917935 0.25279215
-0.2635261 0.14914829 0.10832675 0.24965662 -0.34089106 -0.28146562 0.22832803 0.055712022
-0.2874422 -0.54346776 -0.2586429 -0.6405911 -0.25607553 -0.24419826 -0.27634576 0.5626535
-0.09042377 0.62477154 0.3909381 -0.09561459 -0.41018724 -0.27778548 -0.037777733 0.3362858
0.2717075 -0.47803718 -0.13067248 -0.022869565 -0.8099501 0.40722936 -0.42579657 0.16592148
-0.4474802 -0.16032083 0.35722962 -0.47528458 -0.06624663 -0.2386567 -0.7297619 0.34772503
0.39913243 -0.87530243 -0.8327167 -1.085719 0.3166214 0.003948354 -0.60890466 0.80823773
-0.82637125 1.765714 0.93880767 0.35679615 -0.9858027 -0.6647908 0.49274558 0.753803
-0.2558672 -0.24737434 -0.08334944 -0.40845117 -0.24935097 0.89590335 -0.47727683 -0.051820833
-0.21261345 0.15217654 0.16996989 0.18916975 -0.19909616 -0.57860637 0.10142874 0.46133924
-0.14462507 0.041684844 -0.03771994 -0.027451698 -0.2219535 -0.38885632 0.080719635 0.06610017
0.11498628 0.09564754 0.091250464 -0.5553964 0.0915529 0.04307326 -0.2603122 -0.12674905
0.32664976 -0.74039865 -0.78791994 -0.99936515 -0.09349301 0.38475785 -0.42951506 0.62661576
-0.7843289 1.2307918 0.834655 0.6733749 -0.6943474 -0.39941823 0.080154546 0.45889696
0.019904371 -0.066984735 0.070814736 -0.1556286 -0.21734904 0.74025387 0.019399526 -0.21100087
-0.02109605 0.061982863 -0.28966013 0.8587471 -0.24395399 0.1103389 0.33202022 -0.08318583
00000000: 6a42 b43d 3b37 b23d c202 1fbe 6a22 57be
00000010: 78ad 083f cc23 173e 6175 883e 1e91 43be
00000020: e747 dc3d cb93 98be 0001 3bbe 1608 b23e
00000030: 05e1 ca3d ea05 213d 299c 2c3f 635f 403e
00000040: 7a01 1dbe 7bec 7bbe 3631 f8be c0d5 edbe
00000050: da2d febd b734 fa3e ca21 07bf 970c c93e
00000060: 7ef4 90bc 7f37 bf3e 346f ad3e 2526 9fbe
00000070: 99e5 123d 2a37 ccbe febb f1bb 1389 033e
00000080: 3a22 8c3d 44e5 383e e41f 673d 4135 9f3d
00000090: b371 83be 0a3e f93e ebe2 8abe bbe8 033e
000000a0: 2b6e c8bd 96b3 ff3e e25e 8a3e ccd4 043f
000000b0: 6957 6bbe 4f8a 1dbe af97 3f3e cfb6 ab3e
000000c0: 2f0c 0e3d 1b3f 88be 7579 e9be c0e7 aabe
000000d0: 633c c3be 01f1 103f 1c60 97be ca64 8e3e
000000e0: 75ee 09be 336f 2d3e d4c3 ab3e 5ab7 593d
000000f0: 2328 4e3b c5fa a6be 6e21 3dbe 0493 553e
00000100: 8f52 333e 6d43 e9be 7c1f edbe c436 dcbe
00000110: 7b41 6abe dfa3 d03c b9c3 02be bb1f 043f
00000120: dadd 87be 0837 763e c665 e4bd 52ae fa3e
00000130: 922f f6be a24b 1ebd 24b6 193f 7846 413e
00000140: de58 c33e 1ca2 89be 75f3 e0be 3e1e 06bf
00000150: f598 d7bd 3b96 0a3f 4132 eabe d8ca b33e
00000160: 49be 3cbf d552 203e 0dfa c23e a79a 0f3e
00000170: 231d 2dbe aac4 2cbf c49c ff3e 6d38 ca3e
00000180: 94f9 8abe fba3 c03d db77 89bd 9c7f 8bbe
00000190: c761 163d 8ff0 18be ec18 9cbe 213c 4ebd
000001a0: 2b0e 8fbd 48a9 d63d 661f 103e 2e9d 02be
000001b0: bd02 34be d6c5 8fbe d2d8 033e eb8c 1c3e
000001c0: 522b e6bd bcbf 113e c8f0 8bbd 0f05 adbe
000001d0: fc43 0fbe 03a5 103f 1735 8dbd f079 493e
000001e0: 4250 64bd 084d 303d 0091 7f3e bbe0 ba3c
000001f0: e4f9 a03d 567c 3dbd 436d 08bc c39c e53e
00000200: 0137 a83e ce75 21be ed44 15be 76c8 5ebd
00000210: 1025 0cbe 028a 2b3f 0885 0ebe f96d 813e
00000220: e5ec 86be 54ba 183e 6ada dd3d fca5 7f3e
00000230: 4689 aebe 431c 90be d3ce 693e 4a32 643d
00000240: a02b 93be b420 0bbf d86c 84be c7fd 23bf
00000250: 551c 83be 1c0f 7abe 317d 8dbe 0f0a 103f
00000260: 1930 b9bd 07f1 1f3f 0a29 c83e 95d1 c3bd
00000270: 1004 d2be e639 8ebe d3bc 1abd a72d ac3e
00000280: 3f1d 8b3e 4ac1 f4be 02cf 05be f458 bbbc
00000290: e458 4fbf 5e80 d03e 0202 dabe 52e7 293e
000002a0: 201c e5be 252b 24be cde6 b63e 8058 f3be
000002b0: 50ac 87bd 6c62 74be add1 3abf 0409 b23e
000002c0: 165b cc3e d213 60bf ec2c 55bf d7f8 8abf
000002d0: 331c a23e 3261 813b 2de1 1bbf abe8 4e3f
000002e0: 118d 53bf eb02 e23f b355 703f fcad b63e
000002f0: 915d 7cbf bb2f 2abf 2649 fc3e 3cf9 403f
00000300: 0701 83be b34f 7dbe 1cb3 aabd 8320 d1be
00000310: dc55 7fbe ec59 653f a15d f4be 1542 54bd
00000320: 57b7 59be 2bd4 1b3e 960c 2e3e b7b5 413e
00000330: dddf 4bbe 8c1f 14bf dfb9 cf3d a834 ec3e
00000340: 9818 14be babd 2a3d 3980 1abd 62e2 e0bc
00000350: c747 63be 2d18 c7be 5650 a53d 875f 873d
00000360: ed7d eb3d dce2 c33d 86e1 ba3d 752e 0ebf
00000370: 1680 bb3d 966d 303d a447 85be 81ca 01be
00000380: a33e a73e c48a 3dbf 1fb5 49bf 65d6 7fbf
00000390: 4379 bfbd fbfe c43e 66e9 dbbe e469 203f
000003a0: c7c9 48bf 968a 9d3f f3ab 553f 4c62 2c3f
000003b0: c0c0 31bf 8c80 ccbe 1128 a43d 8bf4 ea3e
000003c0: 7e0e a33c 4b2f 89bd 5107 913d 1b5d 1fbe
000003d0: bf90 5ebe 4781 3d3f c1eb 9e3c 9d10 58be
000003e0: a0d1 acbc bee1 7d3d 554e 94be dad6 5b3f
000003f0: 13cf 79be 5cf9 e13d 8efe a93e 555d aabd

encoder.lstm.bias_ih_l0 f4 [64]
-0.07988418 0.0855167 -0.03477346 -0.06594643 0.14400056 0.8740678 0.07680062 -0.05322946
-0.18376933 0.6799038 -0.14428866 0.5187588 -0.008265611 -0.032458406 0.39439616 -0.012702234
-0.39163294 -0.15929556 0.0320201 -0.06920154 -0.26532468 -0.4980213 0.18075132 0.080614194
-0.13538283 -0.13412768 0.32122433 -0.09667805 0.32270575 -0.07681176 -0.09647224 -0.16748448
0.04497251 -0.17472193 0.0098838 -0.051575545 -0.01742899 0.22532262 -0.17374448 -0.079502754
-0.12211543 0.16548672 -0.18959853 0.2224587 0.04756315 -0.092507675 0.12445239 0.054561112
0.016291587 0.16521887 -0.0016933302 0.02758117 -0.095219634 0.87806255 0.1421194 0.02017495
0.24299821 0.37546766 0.16109355 0.7700274 0.029896246 -0.22527683 0.4945297 -0.020254957
00000000: 519a a3bd 6123 af3d 9e6e 0ebd ec0e 87bd
00000010: e274 133e e8c2 5f3f a549 9d3d 2207 5abd
00000020: 072e 3cbe 2d0e 2e3f 68c0 13be 60cd 043f
00000030: 7c6c 07bc 1bf3 04bd 4bee c93e 081d 50bc
00000040: 1d84 c8be 601e 23be 8227 033d 89b9 8dbd
00000050: a3d8 87be a6fc febe e016 393e 0e19 a53d
00000060: cca1 0abe c458 09be 8477 a43e 24ff c5bd
00000070: b039 a53e 7c4f 9dbd 3d93 c5bd 0d81 2bbe
00000080: 1835 383d 4eea 32be a9ef 213c e140 53bd
00000090: 3ec7 8ebc f9ba 663e 13ea 31be 57d2 a2bd
000000a0: a817 fabd 5a75 293e 1e26 42be 37cc 633e
000000b0: 94d1 423d aa74 bdbd e5e0 fe3d 797b 5f3d
000000c0: ef75 853c 232f 293e bcf2 ddba e8f1 e13c
000000d0: 8302 c3bd b5c8 603f bf87 113e f045 a53c
000000e0: 86d4 783e 4c3d c03e b5f5 243e 8420 453f
000000f0: f9e8 f43c f8ae 66be ff32 fd3e b9ed a5bc

encoder.lstm.bias_hh_l0 f4 [64]
0.2506161 -0.0018610233 -0.10399838 -0.11531266 0.38940334 0.7789581 -0.039761465 0.15299855
-0.1694522 0.59686613 0.30251166 0.6176938 0.14555527 0.049432345 0.6683046 -0.15959033
-0.65246373 0.12347318 -0.07646918 0.30327472 -0.3441898 -0.213705 -0.11866738 -0.033620577
0.2617122 0.22531639 0.16636942 -0.270219 0.10964106 -0.16738014 -0.009400529 -0.029747043
0.17148495 0.24012864 -0.11103804 0.037610862 -0.018738259 -0.08593749 0.016981244 0.073180564
0.14538972 0.20977399 0.11355322 0.3596725 -0.061673965 -0.12636869 0.30840558 0.09596572
0.14188014 0.058956467 0.080321684 0.22825572 0.23820616 0.70367587 0.13424467 0.21216863
0.16964027 0.3262951 -0.10456368 0.48815954 0.118913524 -0.19911827 0.6165511 -0.12240445
00000000: c150 803e 94ed f3ba 1afd d4bd 0b29 ecbd
00000010: e05f c73e cc69 473f ebdc 22bd a7ab 1c3e
00000020: e184 2dbe 38cc 183f cfe2 9a3e 2e21 1e3f
00000030: 710c 153e 9279 4a3d 0316 2b3f a66b 23be
00000040: dd07 27bf 82df fc3d e09b 9cbd d346 9b3e
00000050: a539 b0be 7cd5 5abe e207 f3bd bbb5 09bd
00000060: 24ff 853e 57b9 663e bf5c 2a3e 255a 8abe
00000070: 7e8b e03d b365 2bbe ad04 1abc 12b0 f3bc
00000080: c099 2f3e 48e4 753e e967 e3bd d90d 1a3d
00000090: fa80 99bc ffff afbd 401c 8b3c b1df 953d
000000a0: 0be1 143e fece 563e 978e e83d fe26 b83e
000000b0: d79d 7cbd cb66 01be 56e7 9d3e ad89 c43d
000000c0: 0749 113e 567c 713d b27f a43d debb 693e
000000d0: 51ec 733e 1a24 343f 6f77 093e bc42 593e
000000e0: 2eb6 2d3e 2710 a73e 7c25 d6bd 0cf0 f93e
000000f0: ef88 f33d a9e5 4bbe 4bd6 1d3f 2faf fabd

encoder.U_e.weight f4 [3, 3]
0.31839603 0.16062793 0.015840106 0.19294193 -0.32367 -0.48495153 0.47771013 0.009758373
0.1346953
00000000: ce04 a33e a67b 243e 1cc3 813c 9292 453e
00000010: 13b8 a5be 914b f8be 6c96 f43e 95e1 1f3c
00000020: 91ed 093e

encoder.U_e.bias f4 [3]
-0.50965774 0.5853877 0.063998
00000000: ee78 02bf f8db 153f 6211 833d

encoder.W_e.weight f4 [3, 32]
0.30662155 0.45907754 0.5826917 0.6098125 0.4021894 0.3413862 0.5740293 -0.50600123
0.59456205 -0.6329436 -0.47585878 0.62865734 0.45599058 0.4857358 0.49022862 -0.5255451
0.18939105 0.30317545 0.4978481 0.6311752 0.48240846 0.5830699 0.4363712 -0.43555614
0.5465996 -0.3391518 -0.49958465 0.50490016 0.47801435 0.49821404 0.2619327 -0.65900916
-0.5092879 -0.1556902 -0.23520975 -0.058927573 -0.2260766 -0.65838236 0.051998634 0.19387747
-0.18253589 0.2769603 0.011680192 -0.19443731 -0.27604985 0.0024758845 -0.34448394 0.116173856
-0.47615138 -0.3348315 -0.17863268 -0.23940012 -0.08109909 -0.60746306 -0.114385135 0.0036634707
-0.26341763 0.16320075 0.14396685 -0.10508447 -0.14810662 -0.085652485 -0.3175834 0.21978024
0.07598074 -0.21115482 -0.13537365 -0.28192356 -0.41500038 1.2720114 -0.34672946 0.09797363
-0.16763325 0.030581268 0.13240609 -0.19715159 -0.049823143 -0.29063916 -0.2606092 0.29626292
0.14675991 -0.23576438 -0.18017513 -0.23956804 -0.27212867 1.2411779 -0.5240315 0.022832457
-0.38241163 0.22211069 0.16681564 -0.40405652 -0.2908333 -0.45641345 -0.37061027 0.20570868
00000000: 80fd 9c3e 360c eb3e 492b 153f ac1c 1c3f
00000010: c5eb cd3e 2cca ae3e 96f3 123f 4c89 01bf
00000020: 3835 183f 9708 22bf c3a3 f3be b0ef 203f
00000030: 9977 e93e 5db2 f83e 3fff fa3e 208a 06bf
00000040: baef 413e d039 9b3e f2e5 fe3e b394 213f
00000050: 3efe f63e 1244 153f 0c6c df3e 3701 dfbe
00000060: f4ed 0b3f 4ea5 adbe 8fc9 ffbe 2341 013f
00000070: 4cbe f43e e915 ff3e 0b1c 863e d3b4 28bf
00000080: b160 02bf 406d 1fbe d3da 70be 0a5e 71bd
00000090: a080 67be bf8b 28bf 85fc 543d d187 463e
000000a0: b0ea 3abe becd 8d3e 475e 3f3c 931a 47be
000000b0: 6856 8dbe 7342 223b 3360 b0be 8fec ed3d
000000c0: 1dca f3be 096f abbe 7ceb 36be 4e25 75be
000000d0: 4817 a6bd b382 1bbf c142 eabd d716 703b
000000e0: adde 86be 191e 273e 0c6c 133e 8736 d7bd
000000f0: 43a9 17be 926a afbd 4b9a a2be 120e 613e
00000100: ca9b 9b3d f838 58be 649f 0abe 4958 90be
00000110: ee7a d4be 45d1 a23f 8686 b1be 66a6 c83d
00000120: 0da8 2bbe 9185 fa3c 7695 073e 1be2 49be
00000130: 5a13 4cbd a8ce 94be 926e 85be c6af 973e
00000140: 3b48 163e 386c 71be d47f 38be 5351 75be
00000150: 7354 8bbe ebde 9e3f ee26 06bf 220b bb3c
00000160: 75cb c3be fc70 633e b8d1 2a3e 7fe0 cebe
00000170: 1ae8 94be 06af e9be a1c0 bdbe 4ca5 523e

encoder.W_e.bias f4 [3]
-0.7747235 0.43272084 0.067074664
00000000: 4754 46bf 968d dd3e 715e 893d

encoder.v_e.weight f4 [1, 3]
0.50526947 -0.8170247 -0.4857059
00000000: 5759 013f 8828 51bf 72ae f8be

decoder.W_d.weight f4 [16, 32]
0.16627024 -0.011335269 0.079374865 0.11064883 0.14341272 -0.10118215 -0.16898996 0.1537132
0.114869654 -0.16565077 -0.06947061 0.0667299 0.108192414 -0.058950987 0.03021044 -0.053901076
-0.09198935 0.16579187 -0.1528946 -0.024891527 0.023842787 0.15173808 -0.07099769 0.13178314
0.10136007 -0.16677701 0.1687421 -0.12185332 -0.03971982 -0.12516858 0.13642633 -0.16162519
-0.003716825 0.14757168 0.113360204 0.060675446 -0.17559367 -0.033587117 -0.090670556 0.0054979296
0.17255297 0.025246574 -0.03070246 -0.09435821 -0.15998164 -0.021896636 -0.123799264 -0.004521872
-0.15651394 0.041323446 -0.05107532 -0.16373654 -0.031507403 -0.13053338 -0.022031233 0.12093073
-0.1701116 -0.14661177 0.12190036 0.060401194 -0.10014169 0.16112645 -0.09957132 0.1675921
0.08756164 0.070724055 0.105226725 -0.10875073 -0.1544314 -0.033634998 -0.008688657 -0.07055779
-0.072163366 0.14963366 -0.12701258 -0.020983946 0.058939647 -0.16947424 -0.07049969 -0.12873349
0.10228294 0.035605952 0.14825541 0.06557164 0.15120806 -0.1149079 0.14327948 -0.0009629712
1.8123145e-06 0.0068298965 -0.04312145 -0.15113668 -0.09249069 0.07796655 0.009579957 -0.10736332
-0.10661085 0.15217996 0.15784304 -0.15958802 -0.09266025 -0.010838694 -0.02242954 -0.07961609
0.10975031 0.049711384 -0.12879317 0.1212812 -0.03583426 0.14779149 -0.16992334 -0.09319351
-0.029274251 -0.09065601 0.066435315 0.020846758 0.06846696 0.008541354 0.10512281 -0.1623632
-0.13431433 -0.1001411 0.06907344 0.11153645 -0.10035428 -0.083890095 -0.12875974 0.13119365
-0.1327104 -0.112520345 -0.06610358 -0.14759636 -0.01900671 0.10206576 -0.15775084 -0.07466187
0.086684346 0.12688528 -0.164926 0.0922719 -0.16602197 0.052951213 -0.017814714 -0.11965075
0.1745997 -0.123683274 0.04195567 -0.1326078 0.16439663 0.0865125 -0.016170755 -0.07145227
0.03440325 0.07417485 0.025791911 0.09015643 0.06547536 -0.021079557 -0.11863579 -0.08803446
-0.16310404 0.17404248 0.076840155 -0.06428623 -0.08650169 0.055346504 -8.229172e-05 -0.035777763
-0.0047491277 0.026789421 -0.08655207 0.09778758 0.032005515 -0.036925863 0.0023495392 -0.019042851
0.15942399 0.087802336 0.14016636 0.08449729 -0.116307154 0.08047648 0.17599858 -0.16039787
-0.12693155 -0.13982646 -0.023459567 0.03522366 0.061794 -0.004786786 -0.0976752 -0.007636229
-0.05970571 0.005556788 0.084978454 -0.06556958 -0.028569177 -0.040772017 -0.12894131 -0.17614761
0.17139491 0.13799049 -0.1545945 0.046850055 0.07489185 0.06726881 0.07468373 -0.102957204
0.13516228 0.01580985 0.00046477438 0.034789063 -0.019948777 0.01196667 -0.099394195 -0.095407315
0.025202423 0.14860043 0.037956122 0.047345724 0.053240404 0.102116525 0.15147476 -0.17204566
-0.07988676 -0.17508188 0.105474405 0.022617178 0.17591667 0.15188701 0.17575444 0.016354727
-0.12902522 0.15119307 0.0065537714 -0.018158127 -0.055836964 0.05490925 0.15550762 0.13786493
-0.1079401 -0.0024083762 -0.010416298 -0.04882525 0.07799753 0.09797939 0.09414232 -0.0462514
-0.10002147 -0.08758962 -0.12186451 -0.09367577 0.13363305 -0.08996445 0.004374569 -0.10289618
00000000: bf42 2a3e 90b7 39bc 4a8f a23d db9b e23d
00000010: c9da 123e 9638 cfbd b40b 2dbe fe66 1d3e
00000020: c840 eb3d 5ba0 29be 9b46 8ebd b0a9 883d
00000030: fc93 dd3d 9776 71bd e27b f73c 60c7 5cbd
00000040: ea64 bcbd 58c5 293e 6790 1cbe 51e9 cbbc
00000050: f351 c33c 3a61 1b3e 3d67 91bd 29f2 063e
00000060: de95 cf3d 98c7 2abe bbca 2c3e 3c8e f9bd
00000070: 40b1 22bd 312c 00be 58b3 0b3e 1381 25be
00000080: fa95 73bb 081d 173e 6529 e83d d186 783d
00000090: d4ce 33be a592 09bd 7cb1 b9bd fa27 b43b
000000a0: bab1 303e e7d1 ce3c ba83 fbbc e13e c1bd
000000b0: 3ad2 23be 9360 b3bc 788a fdbd 362c 94bb
000000c0: 3145 20be c642 293d 5b34 51bd 8daa 27be
000000d0: e80d 01bd 8baa 05be d87a b4bc 88aa f73d
000000e0: bc31 2ebe 6521 16be e5a6 f93d 3e67 773d
000000f0: 1617 cdbd 55fe 243e 0cec cbbd 439d 2b3e
00000100: 8453 b33d c6d7 903d 1c81 d73d b4b8 debd
00000110: 4423 1ebe dac4 09bd de5a 0ebc 9a80 90bd
00000120: 63ca 93bd 9139 193e 960f 02be 86e6 abbc
00000130: b36a 713d a88a 2dbe 2462 90bd b6d2 03be
00000140: b879 d13d 8cd7 113d 44d0 173e 6d4a 863d
00000150: 49d6 1a3e d554 ebbd dbb7 123e e76f 7cba
00000160: a73e f335 53cd df3b 1ea0 30bd 93c3 1abe
00000170: c26b bdbd edac 9f3d 41f5 1c3c 4de1 dbbd
00000180: ca56 dabd 10d5 1b3e 9ba1 213e 0b6b 23be
00000190: a8c4 bdbd c794 31bc 28be b7bc c30d a3bd
000001a0: c5c4 e03d 2a9e 4b3d 5be2 03be 4762 f83d
000001b0: f2c6 12bd a756 173e 6200 2ebe 3ddc bebd
000001c0: 8ed0 efbc dca9 b9bd 3d0f 883d d2c6 aa3c
000001d0: 6838 8c3d 09f1 0b3c a14a d73d 8a42 26be
000001e0: b289 09be c716 cdbd 6076 8d3d 396d e43d
000001f0: 8b86 cdbd 92ce abbd 98d9 03be a157 063e
00000200: 3ce5 07be 1171 e6bd 5061 87bd 8023 17be
00000210: f6b3 9bbc da07 d13d 7089 21be 53e8 98bd
00000220: 9087 b13d 37ee 013e 5de2 28be 0df9 bc3d
00000230: aa01 2abe 5fe3 583d 2af0 91bc 740b f5bd
00000240: 44ca 323e a84d fdbd b5d9 2b3d 57ca 07be
00000250: 9757 283e 772d b13d 8878 84bc 9155 92bd
00000260: 6cea 0c3d fce8 973d 8f49 d33c efa3 b83d
00000270: f217 863d 09af acbc 52f7 f2bd 694b b4bd
00000280: bf04 27be 3138 323e 5f5e 9d3d 80a8 83bd
00000290: cc27 b1bd 04b3 623d 0894 acb8 b48b 12bd
000002a0: 929e 9bbb 7d75 db3c 3642 b1bd db44 c83d
000002b0: 3718 033d 933f 17bd bafa 193b c1ff 9bbc
000002c0: 0b40 233e b6d1 b33d c587 0f3e ea0c ad3d
000002d0: 7232 eebd dad0 a43d f938 343e 573f 24be
000002e0: 58fa 01be ab2e 0fbe 472e c0bc af46 103d
000002f0: b51b 7d3d 79da 9cbb ef09 c8bd 5539 fabb
00000300: f98d 74bd b715 b63b 2f09 ae3d 5849 86bd
00000310: e809 eabc 8f00 27bd 3109 04be 0a60 34be
00000320: 2682 2f3e 614d 0d3e 054e 1ebe d8e5 3f3d
00000330: e660 993d 3bc4 893d c9f3 983d 3adb d2bd
00000340: fb67 0a3e a983 813c f6ac f339 fa7e 0e3d
00000350: 9e6b a3bc da0f 443c 2f8f cbbd e964 c3bd
00000360: 5075 ce3c b62a 183e e177 1b3d 97ed 413d
00000370: 9c12 5a3d 7822 d13d 331c 1b3e bd2c 30be
00000380: ab9b a3bd aa48 33be f702 d83d a947 b93c
00000390: 8023 343e 4588 1b3e f9f8 333e 59fa 853c
000003a0: 301f 04be 5bd2 1a3e 05c1 d63b 5ac0 94bc
000003b0: 4db5 64bd 86e8 603d 643d 1f3e 772c 0d3e
000003c0: b30f ddbd d9d5 1dbb 1fa9 2abc fcfc 47bd
000003d0: 2bbd 9f3d 6ba9 c83d b0cd c03d 1c72 3dbd
000003e0: 0ed8 ccbd 3062 b3bd 1a94 f9bd 15d9 bfbd
000003f0: 1ad7 083e 483f b8bd 8b58 8f3b 3bbb d2bd

decoder.W_d.bias f4 [16]
0.1399448 0.11506542 -0.3480178 -0.23888716 0.12346656 -0.24120617 0.17082293 -0.3246405
-0.21340907 -0.25770345 -0.20515522 -0.12797719 0.32119355 0.2658202 -0.18431662 -0.16331759
00000000: b14d 0f3e 6ba7 eb3d 642f b2be d69e 74be
00000010: 09dc fc3d c0fe 76be 35ec 2e3e 4837 a6be
00000020: e887 5abe b5f1 83be 3614 52be 740c 03be
00000030: 7b73 a43e 9619 883e 7fbd 3cbe ba3c 27be

decoder.U_d.weight f4 [16, 16]
0.16901211 0.49167526 0.28042907 0.6536322 0.99396974 1.08004 -0.26953962 -0.34362826
0.55849266 -0.23007098 -0.7251308 1.2055215 0.58094203 0.21638219 0.89693934 -0.4204408
0.6234224 0.3435327 0.7370412 0.94714206 0.9175555 0.96513253 -0.6485709 -0.83516043
0.51951426 -0.24073322 -0.48462185 1.3743641 0.8165898 -0.0896994 0.9603255 -0.13469674
-0.17230098 -0.60862976 -0.572452 -0.635965 -1.2831212 -0.82182044 0.31861374 0.55343086
-0.7133984 0.1023823 0.7830756 -1.2652516 -0.6489129 -0.15752664 -1.4104164 0.3852474
-0.27363855 -0.4296436 -0.21034811 -0.798585 -0.86611617 -0.82047117 0.57839835 0.47434014
-0.63538164 0.32069984 0.42790568 -1.3286831 -0.37078932 0.18467802 -1.1019459 0.15857066
0.63423705 0.37761033 0.6330714 0.5246751 1.2135942 0.9986864 -0.31878906 -0.5172755
0.3661989 -0.31692925 -0.6810077 1.2386571 0.5149184 0.1563444 0.96321267 -0.3117252
-0.28645524 -0.42549837 -0.24853802 -0.71486735 -0.8520051 -0.813299 0.3099598 0.47056475
-0.5091888 0.12889144 0.30298942 -1.3193978 -0.29226726 -0.014620987 -0.95760393 0.29686776
0.3064549 0.29471824 0.6003008 0.8256509 1.1191728 0.88208306 -0.5333266 -0.5554939
0.5629347 -0.11705164 -0.5427236 1.2590166 0.8124517 -0.06377541 1.2366941 -0.21256298
-0.42795053 -0.45697588 -0.5592715 -0.4540386 -0.8500978 -0.6398486 0.5066825 0.6742858
-0.3095101 0.41154453 0.48105934 -1.4350426 -0.55291855 -0.105951 -1.1191328 0.29239008
-0.22936498 -0.7960239 -0.603756 -0.8346843 -1.192029 -0.91228837 0.6835226 0.70765233
-0.612482 0.29807112 0.65063405 -1.0005418 -0.5308207 -0.15787917 -1.0854225 0.3926923
-0.16977665 -0.30302534 -0.35717088 -0.43182522 -1.137544 -1.0213914 0.30039242 0.41733104
-0.29566854 0.290517 0.5637843 -0.9212176 -0.6296523 -0.16520631 -1.1888772 0.38641024
-0.24217631 -0.5095686 -0.33731943 -0.84045637 -0.9155927 -0.85468185 0.3253593 0.49524942
-0.42692038 0.16165598 0.5180039 -0.9750257 -0.801588 -0.17497605 -1.2531399 0.33137408
-0.29064348 -0.4432219 -0.29528642 -0.5886935 -0.8789809 -1.0127236 0.58335716 0.543587
-0.68974847 0.12423966 0.29299587 -1.3854464 -0.6664771 -0.04972208 -1.0886422 0.23446988
0.09594397 0.55421853 0.5178129 0.48246467 0.6501385 0.7505419 -0.66470236 -0.6019615
0.114966184 -0.25244856 -0.25556314 1.2138915 0.56797016 0.019604346 1.1323913 -0.14795703
0.36321416 0.66616654 0.5970467 0.43709025 1.0619167 1.0167147 -0.41767648 -0.53615683
0.39946207 -0.029864913 -0.5654195 1.0750242 0.5162723 -0.09199898 1.166902 -0.30469832
-0.2062766 -0.7623311 -0.34862542 -0.8253076 -0.8302284 -0.65089875 0.39642426 0.33499622
-0.5781693 0.35473466 0.4573259 -1.0574101 -0.55051064 -0.08058546 -0.95518994 0.49391273
-0.2462393 -0.7310325 -0.45933756 -0.70904493 -0.9673059 -0.8221731 0.56666344 0.36018762
-0.6057646 0.33783606 0.6919906 -1.3929341 -0.8405874 0.070028655 -0.84099525 0.54707474
00000000: 8311 2d3e dcbc fb3e 6694 8f3e 7154 273f
00000010: cd74 7e3f c03e 8a3f 1901 8abe 0bf0 afbe
00000020: 60f9 0e3f ba97 6bbe 2ca2 39bf 874e 9a3f
00000030: 9eb8 143f 4b93 5d3e d19d 653f 0444 d7be
00000040: 9c98 1f3f 85e3 af3e bbae 3c3f e777 723f
00000050: ebe4 6a3f ed12 773f be08 26bf 13cd 55bf
00000060: e3fe 043f c582 76be 5b20 f8be 2aeb af3f
00000070: 070c 513f 52b4 b7bd e4d7 753f f1ed 09be
00000080: ab6f 30be 29cf 1bbf 378c 12bf 9ace 22bf
00000090: 513d a4bf d362 52bf 5721 a33e a5ad 0d3f
000000a0: 47a1 36bf d0ad d13d a477 483f c4f3 a1bf
000000b0: 281f 26bf aa4e 21be 8688 b4bf 263f c53e
000000c0: 5a1a 8cbe 3ffa dbbe 7f65 57be 1170 4cbf
000000d0: cab9 5dbf 660a 52bf ea11 143f b6dc f23e
000000e0: 5fa8 22bf c532 a43e 7416 db3e 4a12 aabf
000000f0: 19d8 bdbe 3c1c 3d3e 900c 8dbf 5960 223e
00000100: 5c5d 223f 2456 c13e f810 223f 1b51 063f
00000110: 0e57 9b3f e9a9 7f3f 5238 a3be 2b6c 04bf
00000120: 6c7e bb3e 8d44 a2be 8556 2ebf 518c 9e3f
00000130: b1d1 033f bf18 203e 1b95 763f 729a 9fbe
00000140: 43aa 92be ecda d9be c080 7ebe 8c01 37bf
00000150: 021d 5abf 5d34 50bf 0db3 9e3e dded f03e
00000160: 325a 02bf 1efc 033e 6e21 9b3e 07e2 a8bf
00000170: 0ea4 95be dd8c 6fbc 8825 75bf 0dff 973e
00000180: a8e7 9c3e 4fe5 963e 50ad 193f db5d 533f
00000190: 0e41 8f3f 32d0 613f 1888 08bf d934 0ebf
000001a0: 7d1c 103f c5b8 efbd efef 0abf 7527 a13f
000001b0: d6fc 4f3f af9c 82bd fe4b 9e3f 1caa 59be
000001c0: 551c dbbe bef8 e9be 6b2c 0fbf bf77 e8be
000001d0: 02a0 59bf 1ecd 23bf f2b5 013f ff9d 2c3f
000001e0: 1c78 9ebe f7b5 d23e 694d f63e 7aaf b7bf
000001f0: 128c 0dbf d6fc d8bd be3f 8fbf 27b4 953e
00000200: a7de 6abe 39c8 4bbf c18f 1abf dfad 55bf
00000210: 6894 98bf bb8b 69bf 56fb 2e3f b428 353f
00000220: 9fcb 1cbf c79c 983e f48f 263f c111 80bf
00000230: dee3 07bf 14ab 21be 20ef 8abf f70e c93e
00000240: eed9 2dbe 2326 9bbe 1adf b6be 3218 ddbe
00000250: 0b9b 91bf f4bc 82bf 09cd 993e 6aac d53e
00000260: de61 97be a5be 943e 2b54 103f ebd4 6bbf
00000270: e530 21bf d82b 29be 212d 98bf 90d7 c53e
00000280: 11fd 77be 1673 02bf 22b5 acbe 2628 57bf
00000290: 4864 6abf 6ecc 5abf 7f95 a63e 5591 fd3e
000002a0: 4f95 dabe 2589 253e e79b 043f 499b 79bf
000002b0: df34 4dbf ec2c 33be e366 a0bf dda9 a93e
000002c0: 39cf 94be fbed e2be c82f 97be 9eb4 16bf
000002d0: e404 61bf eda0 81bf e556 153f 8528 0b3f
000002e0: 5b93 30bf 5d71 fe3d 8e03 963e 4f56 b1bf
000002f0: 3e9e 2abf 61a9 4bbd a158 8bbf df18 703e
00000300: 467e c43d 44e1 0d3f 638f 043f 9c05 f73e
00000310: 7a6f 263f 8423 403f ef29 2abf 261a 1abf
00000320: 6473 eb3d f040 81be 2cd9 82be cc60 9b3f
00000330: 7e66 113f 4b99 a03c 33f2 903f 0c82 17be
00000340: 35f7 b93e e489 2a3f 0dd8 183f 4bca df3e
00000350: e3ec 873f b523 823f b1d9 d5be 9341 09bf
00000360: 4b86 cc3e 43a7 f4bc 55bf 10bf 659a 893f
00000370: 6c2a 043f f669 bcbd 0b5d 953f 6b01 9cbe
00000380: 2c3a 53be 2228 43bf 087f b2be 5c47 53bf
00000390: d989 54bf 4da1 26bf 1ff8 ca3e a084 ab3e
000003a0: e702 14bf c89f b53e 9f26 ea3e 3759 87bf
000003b0: 44ee 0cbf fd09 a5bd 5487 74bf 21e2 fc3e
000003c0: 2826 7cbe f224 3bbf 4b2e ebbe f883 35bf
000003d0: 5ca1 77bf f079 52bf db10 113f 836a b83e
000003e0: 6413 1bbf d9f8 ac3e 4c26 313f aa4b b2bf
000003f0: bc30 57bf 2f6b 8f3d 774b 57bf 170d 0c3f

decoder.U_d.bias f4 [16]
0.28141022 0.35793233 -0.2134375 -0.13573244 0.30877745 -0.11412124 0.3189282 -0.1262877
-0.28594595 -0.14623119 -0.2688037 -0.29392752 0.060590968 0.15990211 -0.24294798 -0.3039707
00000000: 0015 903e e842 b73e 5c8f 5abe 72fd 0abe
00000010: 1418 9e3e 66b8 e9bd 8f4a a33e 9051 01be
00000020: 8267 92be a1bd 15be a3a0 89be ab7d 96be
00000030: 3c2e 783d 61bd 233e 5bc7 78be 0ca2 9bbe

decoder.v_d.weight f4 [1, 16]
-0.6663845 -0.63403064 0.5472989 0.73164827 -0.5085533 0.6370852 -0.7759623 0.56387633
0.5567837 0.73912084 0.76941115 0.7325213 -0.57246584 -0.6345542 0.7089307 0.76263463
00000000: 2d98 2abf d54f 22bf c81b 0c3f 4d4d 3b3f
00000010: 8d30 02bf 0418 233f 77a5 46bf 335a 103f
00000020: 6089 0e3f 0637 3d3f 21f8 443f 8486 3b3f
00000030: 1f8d 12bf 2572 22bf 7b7c 353f 063c 433f

decoder.w_tilde.weight f4 [1, 17]
-0.34424582 -0.009692452 0.023226758 0.14080441 0.0060480363 -0.66439056 0.32796863 0.30419776
-0.05960471 -0.39239082 -0.2546703 -0.123085804 -0.2312518 0.42562377 -0.1642818 -0.032476258
0.7063313
00000000: fd40 b0be 17cd 1ebc 0b46 be3c 082f 103e
00000010: 9b2e c63b 8015 2abf 81eb a73e cfbf 9b3e
00000020: 1224 74bd 73e7 c8be 2564 82be 6914 fcbd
00000030: 46cd 6cbe 5ceb d93e 7d39 28be d305 05bd
00000040: 21d2 343f

decoder.lstm.weight_ih_l0 f4 [64, 1]
-0.2485409 0.0026874868 -0.520047 -0.074446864 -0.31929553 -0.3440575 0.13086085 -0.42228442
-0.4422593 -0.22741656 -0.2082084 0.045872953 0.14478514 -0.36386412 -0.08972053 -0.20777412
0.14111704 0.13819253 -0.23837343 -0.1851573 0.20341396 0.05956474 0.031181753 0.109725
0.028844446 -0.09584263 -0.061361462 -0.1452927 0.22779644 0.22372812 -0.17043829 0.15902928
-0.5907561 -0.4465643 -0.0006254238 -0.19258176 0.124904394 -0.3774544 -0.5558413 -0.5851486
0.0010218681 -0.001010159 0.00035100334 0.60921586 -0.00024076352 -0.3629233 0.0013058172 -0.00051081605
-0.26492426 0.09512601 -0.7144408 0.36149046 -0.24243458 -0.6293222 0.055304717 -0.41045755
-0.30159032 -0.5415518 -0.41317743 -0.08793864 -0.06702785 -0.35620406 -0.265896 -0.33998376
00000000: 8181 7ebe 8c20 303b cd21 05bf 9977 98bd
00000010: b47a a3be 4e28 b0be 6300 063e aa35 d8be
00000020: d06f e2be e3df 68be 9534 55be 47e5 3b3d
00000030: 8e42 143e 664c babe 66bf b7bd bdc2 54be
00000040: fc80 103e 5882 0d3e 2a18 74be e099 3dbe
00000050: c04b 503e 28fa 733d e070 ff3c 80b7 e03d
00000060: 304b ec3c 2449 c4bd 2856 7bbd 9cc7 14be
00000070: 7843 693e fc18 653e 6087 2ebe 92d8 223e
00000080: cb3b 17bf 13a4 e4be 7bf3 23ba 2734 45be
00000090: e0cd ff3d b441 c1be 9e4b 0ebf 4ccc 15bf
000000a0: 34f0 853a 5067 84ba df06 b839 92f5 1b3f
000000b0: 7775 7cb9 15d1 b9be f427 ab3a 49e8 05ba
000000c0: 27a4 87be 6dd1 c23d 98e5 36bf 4715 b93e
000000d0: c540 78be 421b 21bf 3387 623d 7e27 d2be
000000e0: 0c6a 9abe 24a3 0abf fe8b d3be 2c19 b4bd
000000f0: e645 89bd 6160 b6be 8523 88be 5a12 aebe

decoder.lstm.weight_hh_l0 f4 [64, 16]
-0.17910933 0.0065359473 -0.03847581 0.05003327 -0.12891576 0.078079045 -0.014658451 -0.19357195
0.15667325 0.15575683 0.24245009 -0.03827408 0.019539803 0.14612949 0.0786517 -0.088451535
0.055348903 0.16128361 0.13863593 0.23634472 -0.16226071 0.122131646 -0.16667038 -0.17031842
0.06538528 -0.24969682 -0.21459338 -0.02412033 -0.17735705 -0.11003822 0.09123635 -0.163932
-0.07178223 0.15143996 0.029829651 -0.24974427 -0.0366596 -0.04809031 -0.11316833 -0.1057834
0.13450247 0.16039908 -0.21570477 0.0032907426 -0.04326713 0.081243396 -0.19557714 0.07794729
-0.23301557 0.017986208 0.045771033 0.033791184 0.15013698 -0.1837134 0.11329383 -0.18046442
-0.12845331 -0.005289942 0.11828819 0.18189126 -0.24526545 0.096280724 0.04174775 -0.07684836
0.0052439272 -0.015594482 -0.13574398 0.09292367 -0.03216389 -0.22524503 -0.20438734 0.09225389
-0.055915177 0.007146746 -0.08481568 0.010035187 -0.060158998 0.18567353 -0.23331401 0.1808958
0.2353796 -0.16205063 0.17340088 0.046754062 -0.007234037 -0.013025373 -0.14426425 0.02324614
0.20378831 0.20916769 -0.11728108 0.1129511 -0.15251034 -0.075713724 0.053269178 -0.10132158
0.056746602 0.06242639 -0.1441882 -0.16765448 0.14310181 0.088265836 0.24251649 0.16741371
0.09816715 -0.13483891 -0.23150441 0.17841223 -0.1984393 0.01780644 0.2262077 0.022089124
0.13451302 -0.18250915 -0.19820407 0.16970557 -0.104735434 -0.20759568 -0.24738875 0.21472535
-0.13739023 -0.118558496 0.21480632 -0.07669446 -0.23836866 -0.07598594 -0.0032633245 0.00129807
0.17434478 -0.055804223 0.06810501 -0.18915552 -0.0691421 -0.18440616 0.23315233 0.07381827
0.18045709 -0.1868676 0.22001353 0.19284114 -0.18465057 -0.027800143 0.056146413 0.22861233
-0.10682163 -0.056102693 0.082962215 -0.05183932 0.18196818 -0.13886389 0.11985651 0.18611789
-0.19077975 -0.17981139 -0.2269719 0.08679074 0.09653032 -0.2035265 -0.20884681 0.026211798
0.24113822 -0.06854433 0.13496467 -0.05310884 -0.2471255 -0.055073887 -0.16017097 -0.06602687
-0.23206946 0.1455251 0.104602486 0.16964898 -0.14885235 0.00761652 0.22847196 0.16438383
-0.2097731 0.15046754 -0.16330242 0.22592112 0.17979646 -0.03192368 -0.19678095 0.1640273
0.1010029 -0.06840524 -0.08647254 0.12949136 -0.045853406 0.22492701 -0.09642598 -0.23569638
0.008930683 -0.13087824 -0.19176865 -0.09038472 0.24598941 0.15653557 0.13274926 0.05640903
-0.04775369 -0.0866324 0.04198119 -0.2100446 0.24351811 0.19437978 -0.24624482 -0.09592947
0.0015566051 -0.15413678 0.08846584 0.02181381 -0.081325054 0.045654744 -0.08927491 -0.13247171
-0.1448431 -0.19856331 0.21796632 -0.19793412 -0.21236295 -0.07526043 0.20552856 0.1359851
-0.16477844 -0.24419731 -0.08907947 -0.16105986 0.21895799 0.20772967 -0.16446581 0.18682986
-0.1623343 -0.023125887 -0.15990531 0.029842347 -0.18746376 0.077472 0.19230789 0.065971255
0.21506092 -0.2139839 0.011377543 -0.0984965 -0.08282909 0.13853955 -0.1788925 -0.17933637
0.02645874 -0.20219767 -0.04876235 -0.13659433 0.03870544 -0.08027905 0.15225258 0.039114982
00000000: 7068 37be 802b d63b d098 1dbd b0ef 4c3d
00000010: 7e02 04be e8e7 9f3d 002a 70bc ba37 46be
00000020: f46e 203e b87e 1f3e d644 783e 48c5 1cbd
00000030: f011 a03c f8a2 153e 2414 a13d 1426 b5bd
00000040: 88b5 623d 8827 253e 94f6 0d3e 5a04 723e
00000050: ac27 26be 2820 fa3d a4ab 2abe f467 2ebe
00000060: b8e8 853d 86b0 7fbe 5ebe 5bbe 0098 c5bc
00000070: 169d 35be b85b e1bd 20da ba3d cadd 27be
00000080: 9002 93bd 1413 1b3e 505d f43c f6bc 7fbe
00000090: 6028 16bd 58fa 44bd ccc4 e7bd f8a4 d8bd
000000a0: 04bb 093e a83f 243e b6e1 5cbe 80a9 573b
000000b0: e038 31bd f062 a63d 6045 48be d4a2 9f3d
000000c0: a29b 6ebe d057 933c 687a 3b3d a068 0a3d
000000d0: 82bd 193e 5e1f 3cbe 9806 e83d aacb 38be
000000e0: 4489 03be 4057 adbb 1441 f23d b441 3a3e
000000f0: de26 7bbe d42e c53d b0ff 2a3d ac62 9dbd
00000100: 40d5 ab3b 0080 7fbc 7800 0bbe c44e be3d
00000110: 48be 03bd a2a6 66be ea4a 51be 9cef bc3d
00000120: 5007 65bd 402f ea3b d8b3 adbd a06a 243c
00000130: 4869 76bd 3421 3e3e dee9 6ebe c03c 393e
00000140: 5a07 713e 9af0 25be 0090 313e 3081 3f3d
00000150: 800b edbb 6068 55bc 02ba 13be b06e be3c
00000160: e2ad 503e 0e30 563e 1031 f0bd e852 e73d
00000170: ac2b 1cbe cc0f 9bbd c830 5a3d b081 cfbd
00000180: 206f 683d d0b2 7f3d 12a6 13be 9ead 2bbe
00000190: 4889 123e b8c4 b43d 3e56 783e 806e 2b3e
000001a0: dc0b c93d 3613 0abe 7e0f 6dbe b2b1 363e
000001b0: ac33 4bbe d0de 913c fea2 673e 40f4 b43c
000001c0: c8bd 093e aee3 3abe 02f6 4abe 4cc7 2d3e
000001d0: 887f d6bd f693 54be 7a53 7dbe f6e0 5b3e
000001e0: 06b0 0cbe ccce f2bd 30f6 5b3e fc11 9dbd
000001f0: ea16 74be 849e 9bbd 80dd 55bb 0024 aa3a
00000200: 7087 323e f892 64bd a47a 8b3d fcb1 41be
00000210: 609a 8dbd f8d4 3cbe 7cbf 6e3e 082e 973d
00000220: bec9 383e 385a 3fbe 3a4b 613e 2678 453e
00000230: 0a15 3dbe 20bd e3bc c8f9 653d 5a19 6a3e
00000240: 4cc5 dabd f0cb 65bd 18e8 a93d 7855 54bd
00000250: de55 3a3e 5632 0ebe 5477 f53d b095 3e3e
00000260: c45b 43be 7a20 38be 526b 68be 58bf b13d
00000270: b0b1 c53d 4069 50be f0db 55be 20ba d63c
00000280: f0ec 763e f860 8cbd 2e34 0a3e a888 59bd
00000290: 780e 7dbe 2895 61bd dc03 24be 1839 87bd
000002a0: 9ea3 6dbe 8804 153e d439 d63d 76b8 2d3e
000002b0: c06c 18be 0094 f93b 8ef4 693e 3c54 283e
000002c0: c2ce 56be 2a14 1a3e c038 27be de57 673e
000002d0: 901c 383e 68c2 02bd f280 49be c6f6 273e
000002e0: 9cda ce3d 0c18 8cbd 8418 b1bd 6299 043e
000002f0: c8d0 3bbd 4453 663e fc7a c5bd 645a 71be
00000300: 0052 123c f204 06be 005f 44be a01b b9bd
00000310: a6e4 7b3e dc4a 203e 6cef 073e 280d 673d
00000320: 6099 43bd 546c b1bd 78f4 2b3d ee15 57be
00000330: d05c 793e 7e0b 473e 9a27 7cbe ac76 c4bd
00000340: 0007 cc3a 08d6 1dbe 942d b53d e0b2 b23c
00000350: c08d a6bd 7800 3b3d c4d5 b6bd aaa6 07be
00000360: c051 14be 2e54 4bbe 9032 5f3e 3eaf 4abe
00000370: ac75 59be 2422 9abd 1476 523e ae3f 0b3e
00000380: aebb 28be dc0e 7abe 4c6f b6bd e0ec 24be
00000390: 8636 603e 16b7 543e ba69 28be 5450 3f3e
000003a0: f63a 26be 8072 bdbc 38be 23be f077 f43c
000003b0: 80f6 3fbe a4a9 9e3d 5cec 443e f01b 873d
000003c0: ee38 5c3e 981e 5bbe e068 3a3c 88b8 c9bd
000003d0: 4ca2 a9bd 50dd 0d3e 982f 37be f4a3 37be
000003e0: 00c0 d83c e80c 4fbe 08bb 47bd 62df 0bbe
000003f0: 9889 1e3d 5869 a4bd 1ae8 1b3e 0837 203d

decoder.lstm.bias_ih_l0 f4 [64]
0.45411703 0.056569755 -0.70681393 -0.20243475 -0.31065452 -0.18741211 0.4684657 -0.09343491
-0.44453865 -0.38458654 -0.6758929 0.8222421 -0.40232858 -0.0069531677 -0.2807808 -0.5433019
-0.08970335 0.13887957 0.11418319 0.082276314 -0.050199747 0.1548338 0.19446632 -0.2201939
0.0021238625 0.17890355 0.054401577 0.23187527 0.03551346 -0.08746892 -0.14381775 -0.014857352
0.14810234 0.04189226 -0.10082932 -0.008829022 -0.0013205949 0.097070314 0.25904146 0.18853144
0.035204414 0.024058625 -0.15539865 0.036065266 0.019161606 0.044340156 -0.0008107536 0.09915124
0.50490505 -0.094738625 -0.54897624 0.0050053685 -0.22810763 -0.46514875 0.6007063 -0.017012432
-0.3211103 -0.76077557 -0.31871167 0.75850254 -0.12263275 -0.29155928 -0.029672934 -0.35359344
00000000: 0782 e83e b0b5 673d c2f1 34bf 0e4b 4fbe
00000010: 1c0e 9fbe f6e8 3fbe bcda ef3e cd5a bfbd
00000020: 929a e3be 87e8 c4be 5107 2dbf 757e 523f
00000030: 03fe cdbe 66d7 e3bb 80c2 8fbe d515 0bbf
00000040: 64b6 b7bd 7236 0e3e e0d8 e93d 7c80 a83d
00000050: 409e 4dbd c08c 1e3e 2e22 473e 827a 61be
00000060: 8030 0b3b 7e32 373e 30d4 5e3d b670 6d3e
00000070: 9076 113d e822 b3bd f644 13be 406c 73bc
00000080: 24a8 173e 3897 2b3d 9a7f cebd 9aa7 10bc
00000090: d017 adba cdcc c63d 15a1 843e 630e 413e
000000a0: 8132 103d 9816 c53c d320 1fbe 2cb9 133d
000000b0: cdf8 9c3c 069e 353d c188 54ba ce0f cb3d
000000c0: 7541 013f 5306 c2bd b589 0cbf 1304 a43b
000000d0: 0c95 69be fa27 eebe e3c7 193f a85d 8bbc
000000e0: 9268 a4be 30c2 42bf 2d2e a3be 392d 423f
000000f0: e126 fbbd 4247 95be a714 f3bc 330a b5be

decoder.lstm.bias_hh_l0 f4 [64]
0.27493548 -0.14936332 -0.4208932 -0.03323144 -0.43132436 -0.22121982 0.46333867 -0.08612662
-0.6408167 -0.5012542 -0.50501734 0.40581277 -0.17590961 -0.058062106 -0.14679383 -0.3677494
-0.12343854 -0.046062082 -0.20925537 -0.09099099 -0.0015723109 -0.09659922 0.24214143 -0.00040885806
0.13087258 0.19180673 -0.056932658 -0.119258195 0.21432805 -0.20543629 -0.18933791 -0.21312043
0.115759715 0.15939012 0.10115784 0.07548425 -0.056030802 0.07324675 -0.034444522 0.19272092
-0.035667613 -0.023541946 0.15513028 -0.17147504 -0.019233773 0.12566742 0.00026325925 -0.09893947
0.5307139 0.14908634 -0.52887124 -0.035384662 -0.1813453 -0.5461646 0.72601295 0.019586686
-0.5091068 -0.55746037 -0.64710724 0.5170605 -0.23699318 -0.16176173 -0.19447584 -0.54015553
00000000: 58c4 8c3e b3f2 18be 507f d7be b11d 08bd
00000010: 8cd6 dcbe 7387 62be ba3a ed3e 2763 b0bd
00000020: 900c 24bf 3252 00bf d148 01bf b1c6 cf3e
00000030: a621 34be 88d2 6dbd 1f51 16be a649 bcbe
00000040: 58cd fcbd 98ab 3cbd 0a47 56be 7c59 babd
00000050: 0016 ceba d0d5 c5bd ecf3 773e 005c d6b9
00000060: 7603 063e fc68 443e 3832 69bd a43d f4bd
00000070: d078 5b3e e45d 52be cce1 41be 3e3c 5abe
00000080: 6e13 ed3d 2a37 233e d72b cf3d 7d97 9a3d
00000090: 8e80 65bd 6402 963d b315 0dbd a258 453e
000000a0: 3418 12bd 0adb c0bc 79da 1e3e 2797 2fbe
000000b0: 2590 9dbc f6ae 003e 0f06 8a39 c7a0 cabd
000000c0: dedc 073f 17aa 183e 1b64 07bf 82ef 10bd
000000d0: 95b2 39be 71d1 0bbf fcdb 393f 4274 a03c
000000e0: d354 02bf b9b5 0ebf d2a8 25bf 145e 043f
000000f0: 57ae 72be dea4 25be ad24 47be a247 0abf

W_y.weight f4 [16, 32]
0.17180043 -0.04352342 -0.023047408 0.14178142 0.07510909 0.019408705 0.3467583 -0.08470756
0.107106514 -0.12121444 0.081843086 -0.46778068 0.11725669 0.06871517 0.04556589 -0.10458154
0.28274012 0.34063643 0.1686336 0.22922775 0.10326009 0.42279947 -0.01139914 -0.18175955
-0.083074234 0.20345622 -0.21301195 0.29128468 0.28069645 0.072915964 0.28250998 -0.0339672
-0.29084337 0.00021433189 -0.041706637 -0.054191343 0.06391658 -0.13975435 -0.4555198 -0.12761632
0.06140765 0.023505833 0.12350874 0.32569104 0.055945233 -0.17259437 -0.052020755 0.18420395
-0.31898358 -0.23448834 -0.11434726 -0.23537184 0.18471919 -0.39580795 0.2231823 0.03246055
-0.14638756 -0.1888437 -0.13334838 -0.2959249 0.0404435 0.18351234 -0.492123 -0.056124963
-0.3794658 -0.16097899 -0.06796595 0.014570065 -0.083343424 0.09202119 -0.53654975 0.042225726
0.16088964 0.09181745 0.17405912 0.15718809 0.09619122 -0.036882065 0.0704679 -0.1367963
-0.35633716 -0.16567877 -0.017500095 -0.14583796 -0.04675479 -0.5486914 -0.094889455 0.06149753
-0.16466394 0.041196063 0.16396947 -0.4009528 -0.16524969 0.05377928 -0.35433087 -0.02440476
-0.10679813 -0.0478659 0.2395848 0.1553789 -0.12005518 0.1654373 -0.19338499 -0.0603339
0.07600763 0.0466982 -0.0079096565 0.33451048 0.032709483 0.04945788 -0.1982091 0.0489054
-0.2316525 -0.07385635 -0.15601522 0.0005471805 0.2571534 -0.6198791 -0.026736809 0.31982645
-0.17668536 -0.0073913285 0.06025712 -0.03919247 -0.014111713 -0.11712156 -0.19314209 0.015948897
0.24536955 0.08289447 -0.058471218 0.08767164 0.017836487 -0.06954374 0.3950141 0.14483745
0.07201253 -0.010944027 0.0085873585 -0.41204625 -0.036786523 -0.11935022 -0.047398154 -0.07711375
0.40785775 0.28828904 -0.082559094 0.06579548 0.17035334 0.4770321 -0.054710053 -0.14545122
0.11186168 0.059858732 0.06333366 0.45104486 0.28026494 -0.10328247 0.4164157 0.06764733
-0.075098366 0.18855661 0.23856089 0.059865884 -0.20412971 0.026837913 -0.053025614 -0.030672312
-0.1467276 -0.27080902 0.11053088 0.023896292 0.12111328 0.039373666 0.033537567 -0.062003605
0.2874288 -0.13705252 0.07409231 -0.07121919 0.087447256 0.19209862 -0.003179541 0.052404888
0.28126988 0.0034724325 0.0061033387 0.15788375 0.1119935 0.094401136 0.15415008 -0.20953916
0.47003046 0.19659479 0.09106168 0.11448293 0.07611399 -0.05343323 0.5677212 0.13651922
0.012005388 -0.06414918 -0.042503435 -0.5222136 0.069320746 0.06287279 -0.12043433 0.0015500388
0.30041203 0.29883146 0.0027800424 0.17578839 0.040634446 0.37545463 -0.15374885 -0.33263114
0.0025825032 -0.05768925 -0.05232979 0.5142133 0.18775143 -0.07223083 0.4640306 0.14873853
-0.40677774 -0.08148672 -0.0972394 0.1448761 -0.14350817 -0.09303177 -0.4691708 -0.022530124
-0.14271826 -0.085615925 0.00051521417 0.518563 -0.008010179 0.051349107 -0.07722464 -0.15215012
-0.301564 -0.12166124 -0.14252324 -0.2608084 0.037581965 -0.60594654 0.17587651 0.031817455
-0.006844015 -0.21330872 0.10504907 -0.49123082 -0.28654733 -0.13691586 -0.34137908 0.1244448
00000000: 74ec 2f3e 9d45 32bd ebcd bcbc 262f 113e
00000010: cbd2 993d 01ff 9e3c 4e8a b13e 287b adbd
00000020: a95a db3d 473f f8bd 599d a73d f380 efbe
00000030: 4724 f03d 8aba 8c3d 4ca3 3a3d d92e d6bd
00000040: 50c3 903e e667 ae3e 49ae 2c3e aeba 6a3e
00000050: 077a d33d 2c79 d83e 75c3 3abc 2d1f 3abe
00000060: d322 aabd d456 503e ce1f 5abe 4423 953e
00000070: 72b7 8f3e f754 953d 26a5 903e 3121 0bbd
00000080: 6ce9 94be 47be 6039 94d4 2abd bef7 5dbd
00000090: b2e6 823d c41b 0fbe e439 e9be daad 02be
000000a0: 9786 7b3d 4e8f c03c 26f2 fc3d fac0 a63e
000000b0: d426 653d 94bc 30be b713 55bd f69f 3c3e
000000c0: d151 a3be b61d 70be e52e eabd 5105 71be
000000d0: 0727 3d3e 57a7 cabe e789 643e 5bf5 043d
000000e0: 9fe6 15be 3e60 41be 7a8c 08be 7883 97be
000000f0: 15a8 253d a9ea 3b3e 8cf7 fbbe 4ae3 65bd
00000100: 5749 c2be add7 24be bb31 8bbd 48b7 6e3c
00000110: f5af aabd 9b75 bc3d 535b 09bf e2f4 2c3d
00000120: 41c0 243e ca0a bc3d 8e3c 323e eaf5 203e
00000130: e7ff c43d a611 17bd 7951 903d 5414 0cbe
00000140: d371 b6be b2a7 29be 5c5c 8fbc 8c56 15be
00000150: f381 3fbd 0a77 0cbf 6755 c2bd d6e4 7b3d
00000160: aa9d 28be 34bd 283d 9de7 273e af49 cdbe
00000170: 3737 29be aa47 5c3d db6a b5be 7eec c7bc
00000180: fab8 dabd 090f 44bd b855 753e a51b 1f3e
00000190: 7ddf f5bd 6568 293e b706 46be ae20 77bd
000001a0: e3a9 9b3d 9d46 3f3d 8197 01bc f544 ab3e
000001b0: 61fa 053d 5994 4a3d 54f7 4abe 0751 483d
000001c0: 5036 6dbe ff41 97bd 74c2 1fbe a970 0f3a
000001d0: 9ca9 833e 66b0 1ebf 2707 dbbc 4bc0 a33e
000001e0: 02ed 34be f532 f2bb 2bd0 763d 4988 20bd
000001f0: d034 67bc 6edd efbd 0ac7 45be 43a7 823c
00000200: 2842 7b3e 93c4 a93d 847f 6fbd 308d b33d
00000210: d31d 923c f36c 8ebd 4a3f ca3e 4550 143e
00000220: 4e7b 933d 944e 33bc feb1 0c3c baf7 d2be
00000230: 77ad 16bd e36d f4bd 9124 42bd d0ed 9dbd
00000240: bbd2 d03e 9f9a 933e be14 a9bd c8bf 863d
00000250: 1b71 2e3e 8d3d f43e a617 60bd 2af1 14be
00000260: bd17 e53d 6e2e 753d 14b5 813d 5aef e63e
00000270: e37e 8f3e c285 d3bd 7034 d53e af8a 8a3d
00000280: 2ccd 99bd fc14 413e 4e49 743e ee35 753d
00000290: 6107 51be 2fdb db3c 6331 59bd 8044 fbbc
000002a0: c33f 16be 7ba7 8abe 045e e23d 28c2 c33c
000002b0: 3d0a f83d 4846 213d b05e 093d 7ef7 7dbd
000002c0: de29 933e 7f57 0cbe b6bd 973d 5edb 91bd
000002d0: 8c17 b33d 80b5 443e d95f 50bb 82a6 563d
000002e0: 9b02 903e c091 633b 84fe c73b 47ac 213e
000002f0: d95c e53d 6255 c13d 85d9 1d3e 6f91 56be
00000300: d5a7 f03e 2550 493e 8c7e ba3d 0776 ea3d
00000310: a7e1 9b3d cddc 5abd 2d56 113f b2cb 0b3e
00000320: 3fb2 443c a560 83bd 1518 2ebd caaf 05bf
00000330: 09f8 8d3d 73c3 803d 46a6 f6bd ac2a cb3a
00000340: 9bcf 993e 7000 993e 5f31 363b df01 343e
00000350: 4e70 263d 973b c03e 5770 1dbe a14e aabe
00000360: 373f 293b 904b 6cbd c357 56bd 7ca3 033f
00000370: e941 403e c2ed 93bd 6b95 ed3e ea4e 183e
00000380: 2c45 d0be 82e2 a6bd 7325 c7bd 665a 143e
00000390: cef3 12be 7187 bebd 2837 f0be 1891 b8bc
000003a0: bc24 12be 6757 afbd 700f 073a 8bc0 043f
000003b0: 203d 03bc 7153 523d f427 9ebd 3ecd 1bbe
000003c0: 9966 9abe 8729 f9bd 9df1 11be ae88 85be
000003d0: 8cef 193d 501f 1bbf f918 343e 0553 023d
000003e0: c243 e0bb 9a6d 5abe f823 d73d 9b82 fbbe
000003f0: 55b6 92be ac33 0cbe 3dc9 aebe eadc fe3d

W_y.bias f4 [16]
0.12987459 0.12507114 0.15561399 -0.09660951 -0.10969844 0.030559825 0.039796952 -0.09170063
0.012135173 -0.117190935 0.06704987 -0.0750175 -0.07635006 0.044384364 0.057654355 -0.12577282
00000000: d8fd 043e a612 003e 4659 1f3e 35db c5bd
00000010: 93a9 e0bd 9958 fa3c 2102 233d 8acd bbbd
00000020: 9bd2 463c cd01 f0bd 7151 893d c6a2 99bd
00000030: 6c5d 9cbd 61cc 353d f926 6c3d 97ca 00be

v_y.weight f4 [1, 16]
-0.15464437 0.07574804 0.21101496 0.0028323904 -0.23369719 -0.0032923652 -0.32565674 0.28145173
-0.29253173 0.12217568 -0.1928214 0.08730355 -0.06302334 0.274159 0.045646828 -0.28986418
00000000: 185b 1ebe ca21 9b3d 4e14 583e a09f 393b
00000010: 514e 6fbe b9c4 57bb 7bbc a6be 711a 903e
00000020: b8c6 95be 3e37 fa3d f972 45be 34cc b23d
00000030: 6212 81bd 925e 8c3e 2bf8 3a3d 1469 94be
